models/mappo_best_stage0.pt (torch, 853735 bytes, 14 tensors)

log_std f4 [2]
000000 35 74 89 3b 39 42 0f 3c
       0.004194761 0.008743816

body.0.weight f4 [256, 13]
000000 a2 a2 d7 bd 7d 32 66 3d b5 df 8f 3e 86 00 81 be
       -0.105290666 0.056200493 0.28100362 -0.25195712
000010 dc c7 1c bd 5e 7e 47 3e b9 29 50 3e 3d 98 25 be
       -0.03827654 0.19481799 0.20328416 -0.16171356
000020 25 0f 7a bd d8 d5 b7 3d 16 db 5c bd 54 eb 72 3e
       -0.0610496 0.08976334 -0.053919874 0.23722583
000030 7d c7 4a be 40 33 7d bc 3d 62 82 be c0 0d a3 3c
       -0.19802661 -0.0154541135 -0.25465575 0.019904017
000040 1a d2 3c be c6 c2 22 3e 20 29 11 be 3a 57 ed bd
       -0.18439522 0.15894613 -0.14175844 -0.11588903
000050 b0 8a 61 3e de db 20 3e 4c df 86 be ba 68 61 3e
       0.22025561 0.15708873 -0.26342237 0.22012606
000060 86 a2 a0 bd 00 78 33 3c 82 bb 3e 3e f7 6f 4b 3e
       -0.07843499 0.010953903 0.18626216 0.1986693
000070 e7 94 ee 3c f1 af b5 3d df e0 8c 3c ab ed 73 be
       0.029123737 0.08871449 0.01719707 -0.23821132
000080 b1 4e 4c be bb 83 0c 3e 09 c0 18 3e 1d 8d 67 3c
       -0.19951893 0.13722126 0.14917006 0.014132765
000090 f8 b8 93 be 0d 13 4d 3e 4b 0a fa 3d 6f a0 71 be
       -0.28852057 0.20026799 0.122089945 -0.23596357
0000a0 94 0c 38 bd b8 f7 48 be cb 7b 30 3e 38 a9 37 3d
       -0.04493387 -0.19625747 0.17234723 0.044839114
0000b0 17 f0 d8 3d d5 66 8d bd 16 07 21 3e 12 d5 96 bd
       0.105926685 -0.06904379 0.1572536 -0.07364859
0000c0 76 44 b5 3c 85 82 87 be f1 a1 1c be 8f d5 e1 3d
       0.022127371 -0.26466766 -0.1529615 0.11027061
0000d0 d1 16 3d 3d 23 b0 04 be 78 a6 0b be 96 16 bd bd
       0.046164338 -0.12957816 -0.13637722 -0.092328236
0000e0 2f 6b ed bd a1 82 0f 3c 2e d6 18 3e ac ee 72 3e
       -0.11592709 0.008759172 0.14925453 0.23723859
0000f0 1e 4c bd bd e1 25 9d be f4 e7 3a bd e4 3b 25 3d
       -0.09243034 -0.30692962 -0.045631364 0.04034032
000100 00 36 6d 3d 6e e5 8c be 40 e6 35 bd d8 32 32 3e
       0.057912827 -0.2751879 -0.044409037 0.17402208
000110 c6 5a 36 3e a4 1e 03 be da b5 2c 3e 5a e0 0e be
       0.17808065 -0.12804657 0.16866246 -0.13952771
000120 64 17 ae 3d 6c da 02 3e 4c dd a1 3d 22 e9 1e be
       0.08500555 0.12778634 0.07903537 -0.1551862
000130 04 79 83 be 56 57 58 3e 61 93 03 be 48 55 08 bd
       -0.25678265 0.21127066 -0.1284919 -0.033284456
000140 04 bd dd bd 3c 17 bf bd b0 60 55 3e b0 37 4e 3d
       -0.108270675 -0.093306035 0.20837665 0.050346076
000150 c0 70 2d bc 8c a8 83 be 8a d8 36 3e 61 a9 82 be
       -0.010585964 -0.2571453 0.1785604 -0.2551985
000160 48 e0 b1 3d 60 dc 1f 3c a8 c9 1b bd 32 d9 82 be
       0.086853564 0.009757131 -0.03803411 -0.25556332
000170 b2 e6 0b 3e 8c a7 22 be 6c c5 42 3e 5c b4 1d bd
       0.13662222 -0.15884227 0.19020623 -0.038502082
000180 73 4e 88 3e 32 6a 9f bd 44 91 93 3d 80 b5 a6 3d
       0.26622352 -0.07783927 0.072054416 0.08140087
000190 f2 e3 1f be 9f 36 88 3e 00 e2 4f bd f8 dd 6b be
       -0.15614298 0.26604173 -0.05075264 -0.23033893
0001a0 6c bf a7 3d e0 6e 26 3e 0d 5e 63 3d 9d be ad 3b
       0.08190808 0.16253233 0.055509616 0.005302264
0001b0 96 a9 26 be ce 2c 9f 3d bc 35 60 be 4a c3 34 3e
       -0.1627563 0.07772218 -0.21895498 0.17652622
0001c0 66 75 2a be ec c5 a0 3d 00 dc 23 be cf d0 70 3e
       -0.16646346 0.078502506 -0.16001892 0.23517154
0001d0 c7 6e a8 3b 24 00 41 be 08 50 50 3d a0 fc 1b bd
       0.005140159 -0.1884771 0.050857574 -0.03808272
0001e0 92 d3 00 be ca 7f 67 3e e0 1b 06 bc 40 2c 7d bc
       -0.12580708 0.22607341 -0.008185357 -0.015452445
0001f0 14 8e 26 be 12 94 1b 3e 00 22 0c bb e8 be db bd
       -0.16265136 0.15193203 -0.002138257 -0.10729772
000200 1b 93 10 be ef 2c 7b be 5e 1b 23 3e 76 82 c8 bc
       -0.14118616 -0.2452886 0.15928409 -0.024476271
000210 f5 2c 70 be d5 4a 04 3e c9 f6 f2 bd 87 70 1f be
       -0.2345465 0.12919171 -0.11863477 -0.1557027
000220 fc 25 ae bd ed 9f 01 be d1 5b 06 be cc e5 3c be
       -0.08503339 -0.12658663 -0.13120963 -0.18447036
000230 63 68 04 3e b1 ae df 3d f8 09 02 be c8 91 40 3e
       0.12930445 0.109219916 -0.12699115 0.18805611
000240 0c e8 84 be f9 06 94 bc d3 14 5a 3e 7a ed 7f 3d
       -0.25958288 -0.018069731 0.21297006 0.062482335
000250 4e b8 60 bd fb d4 d0 3d 14 d6 96 3d d9 94 d1 3d
       -0.054863267 0.10196873 0.07365051 0.102334686
000260 0b a8 08 3e dc 71 1a be 38 c0 9d bd 06 30 22 be
       0.13345353 -0.15082496 -0.077026784 -0.15838632
000270 0c 26 f5 3d 0e 08 bc bd f6 c4 1d be e7 f1 88 3e
       0.119701475 -0.09181224 -0.15407166 0.26747057
000280 e8 b3 ae 3d 72 4e 5b be f7 0a 17 be 00 c8 e2 3b
       0.08530408 -0.21416643 -0.14750277 0.0069208145
000290 df ed 8d be 4a ac 11 3e 38 02 01 3e e0 b4 ce 3c
       -0.27720544 0.1422588 0.12598503 0.025232732
0002a0 aa ac 4d be 0f d2 23 bd 8e 47 ad 3d 75 53 84 bd
       -0.20085397 -0.03999525 0.084609136 -0.06461231
0002b0 0a 67 20 bd fd 05 2c bd 04 85 7f bd 70 01 e9 bb
       -0.039160766 -0.0419979 -0.062382713 -0.007110767
0002c0 38 27 93 3e 51 8a 17 3e 8e cb fa 3d 11 73 c9 3d
       0.2874086 0.14798857 0.12245856 0.098364
0002d0 d0 95 65 3e 5d 68 1a 3e 80 7d 77 bb 0e a2 1c 3e
       0.2242043 0.15078874 -0.0037764013 0.15296194
0002e0 a0 af 26 bd c8 e5 50 3d 54 85 a4 3d ea 11 7b 3e
       -0.040694833 0.051000386 0.08033243 0.24518552
0002f0 bd da 63 be ca b5 25 3e de ab 20 3e 53 d3 1e be
       -0.22251411 0.16182628 0.15690562 -0.15510301
000300 30 fc 86 bc 08 64 4f be ad 5f 82 3e 61 0a 26 3e
       -0.016477674 -0.20253003 0.2546362 0.16214897
000310 ea 4f d1 3b f8 17 22 be 43 30 e8 bd da 74 41 3c
       0.0063877003 -0.15829456 -0.1133733 0.011807645
000320 58 09 9a 3e 3f ed c5 3d 7b 5b 95 bc 09 38 39 3e
       0.30085254 0.09664392 -0.018232098 0.18087782
000330 c4 a9 83 bd c9 85 6d 3d b3 fa 05 bd 7b aa 49 be
       -0.064288646 0.057988916 -0.03270979 -0.1969394
000340 0a 7c 7a 3e f7 d8 81 be d6 01 42 3e ce 1f 8b be
       0.2446138 -0.25360844 0.18946013 -0.27172703
000350 f0 ea ab 3d 52 92 50 be 54 fe b9 3d 9e c0 55 3e
       0.0839442 -0.20368317 0.09081712 0.20874259
000360 70 55 81 3d 5c 3d 31 3e ea fc 30 3e ec 5b be bd
       0.06315124 0.17308563 0.17283979 -0.092948765
000370 b0 0a 9c 3c 70 3b ec bc 08 69 87 be e5 a9 68 be
       0.019048065 -0.028836936 -0.2644732 -0.2272106
000380 18 b5 46 3d 74 bf f0 bd f8 df 54 3e f6 96 66 be
       0.04851255 -0.11755267 0.20788562 -0.22518525
000390 4a 3b 60 be e0 a1 43 bd e4 6d ab 3d b0 61 cd 3d
       -0.21897617 -0.047761798 0.08370569 0.10028398
0003a0 4c 3d 97 3d 8e 62 40 be ae 16 47 be 02 35 6d 3e
       0.07384738 -0.18787596 -0.19442245 0.23164752
0003b0 03 c7 0f be c0 22 67 3c a6 44 32 3e 10 f8 83 be
       -0.1404076 0.014107406 0.17409 -0.25775194
0003c0 f0 41 2f 3e a2 c4 25 3e 8e da f5 bd 28 5d 20 be
       0.17114997 0.1618829 -0.120045766 -0.15660536
0003d0 58 e6 2b bd 49 19 86 be 33 1b 27 be 08 2d b7 3b
       -0.04196772 -0.26191166 -0.1631897 0.005590085
0003e0 a5 22 89 be 78 16 ee bd 79 8e 42 be 66 c7 26 be
       -0.26784244 -0.11625379 -0.18999662 -0.16287002
0003f0 cb 04 a2 bd 4e 79 9f 3d c9 d9 4a 3d a4 45 28 be
       -0.079110704 0.07786809 0.049524102 -0.16432816

body.0.bias f4 [256]
000000 ee 68 50 3e b2 ac aa bd dd ee 58 be 93 29 30 3e
       0.20352527 -0.0833372 -0.21184869 0.1720336
000010 98 76 7d 3d 03 ef 5d be 00 7c 83 be 10 04 0c 3d
       0.061880678 -0.21673207 -0.25680542 0.03418356
000020 80 34 74 bc 48 10 8a 3d ae f9 7f 3e 54 34 0c 3e
       -0.014905095 0.06741387 0.24997589 0.13691837
000030 60 d8 0d bc 15 f5 7f 3e 80 6d 42 be 0e 8e 51 3e
       -0.008657545 0.24995835 -0.18987083 0.20464346
000040 be ff 76 be 8b c2 7a be 0c 46 7c be a9 e6 bf bc
       -0.24120995 -0.24488275 -0.24636096 -0.023425417
000050 08 e1 5a be 79 ff 4a 3d 93 94 e6 3d b5 c6 69 be
       -0.21374905 0.049560044 0.11258807 -0.22829707
000060 c2 a5 b0 bd 3b 61 b4 bd 55 89 0d be 2f b7 b9 bd
       -0.08625366 -0.08807608 -0.1382192 -0.090681426
000070 0e 69 2d be 1e 2f 2f 3d e2 90 a2 3d dc 23 8e bd
       -0.16934606 0.042769544 0.079377905 -0.069404334
000080 10 ae 02 3e 99 50 0a 3e 2a f5 2f 3e 46 10 11 3e
       0.12761712 0.13507308 0.17183366 0.14166364
000090 30 77 88 3c be 56 6b 3e 39 2f 80 be fe fa 21 be
       0.016658396 0.22982308 -0.25036028 -0.15818402
0000a0 93 05 4f be f8 fd 3f bc 2c 4a df 3d e0 5a 85 3e
       -0.2021697 -0.011718266 0.10902819 0.26045895
0000b0 9a 40 52 3e 43 f5 76 3e 1f 91 07 3e 61 5c 57 3c
       0.20532456 0.24116997 0.13238953 0.013144583
0000c0 e2 f7 48 3e e9 37 31 3d f0 13 09 be 7b df 2f be
       0.1962581 0.04326621 -0.13386512 -0.17175095
0000d0 e0 82 f3 3c 98 19 cd 3d 47 76 66 3e 7d f2 6a 3e
       0.029725492 0.10014647 0.22506057 0.22944064
0000e0 d8 c6 33 be 28 f2 2e be c2 cb c1 3d d6 12 8c be
       -0.17556322 -0.17084563 0.09462692 -0.2735812
0000f0 70 52 79 be 0b 73 bf 38 c9 d7 f2 bc 67 c5 a3 bd
       -0.24347854 9.129018e-05 -0.02964391 -0.07996636
000100 cb e7 b6 bd 64 9f f2 3d 5e d3 14 3e fa af be bb
       -0.0893093 0.118468076 0.14533755 -0.005819318
000110 cb 2b 97 bd b5 a7 81 3e 71 f3 29 3e f1 48 e6 bb
       -0.073814 0.25323263 0.16596772 -0.0070277383
000120 24 b8 25 be 9a 83 6b 3e 5b 9d 08 3e 78 26 51 3e
       -0.16183525 0.22999421 0.13341276 0.20424831
000130 67 2c 64 3e c8 92 0d 3e ca 32 34 3e 4c 51 46 be
       0.22282563 0.13825524 0.175975 -0.1936695
000140 f6 a8 e0 bd 86 0d f2 bd 7e b9 85 bd d5 91 16 3e
       -0.10969727 -0.11818986 -0.065295205 0.14704068
000150 2f c2 89 3e fe 1d 4a 3a bb 77 3b be e6 6b 52 be
       0.26905963 0.00077101577 -0.18307392 -0.20548972
000160 2a a2 ba bd 5b a0 2e be c2 94 a4 bd 40 a9 cd bc
       -0.091129616 -0.17053358 -0.08036186 -0.025105119
000170 58 b6 53 bd 80 55 31 3e d2 c7 aa bd fe db 19 bd
       -0.05168757 0.17317772 -0.08338894 -0.037563317
000180 24 f7 a1 3d 3a 39 81 be 7d ab 45 bd e6 d4 2c 3e
       0.079084665 -0.25238973 -0.048259247 0.1687809
000190 9e d0 fc 3c 0d c4 8a be 85 5c 86 3e 32 5a 07 be
       0.030861195 -0.271027 0.26242462 -0.13218
0001a0 0c dd 06 bd d9 69 d6 bd 8d d6 8a 3e 69 a8 4b be
       -0.03292565 -0.104694076 0.27116814 -0.19888462
0001b0 a0 0c cc bc f4 67 57 3e bc 60 8d be aa 53 82 bd
       -0.024908364 0.21035749 -0.27612865 -0.06363614
0001c0 31 6a 49 be 8e 30 dd bd b6 89 66 be 5a 93 1d 3d
       -0.19669415 -0.10800277 -0.2251347 0.038470604
0001d0 3b 4d 29 3e 28 57 24 3e 90 ec 8a 3e d3 9a e4 bd
       0.16533367 0.16048872 0.27133608 -0.11162343
0001e0 11 15 03 3e 18 de 4d 3e ac c4 a1 bd 6c cf 53 3e
       0.12801005 0.20104253 -0.0789884 0.20684594
0001f0 56 0c 4d 3e 5d ce 82 3e 36 36 11 3e 45 fb 81 3c
       0.20024237 0.25548068 0.14180836 0.015866885
000200 38 e2 c7 bd 8c 85 80 3e 4e 6e 1a 3e f8 3b 66 3d
       -0.09759945 0.25101888 0.1508114 0.056209534
000210 28 53 37 be 70 57 76 be 2f 5e ce 3c 46 d0 17 3e
       -0.17902815 -0.24056792 0.025191395 0.14825544
000220 96 cd 2e 3e b0 75 6a 3e 65 87 0d be 04 6d e1 bd
       0.17070612 0.22896457 -0.1382118 -0.11007121
000230 18 70 3f be da 62 3e 3e be 6c c6 bd f9 4d 7e be
       -0.18695104 0.18592396 -0.0968871 -0.24834432
000240 d4 1c 46 bd f8 cf 57 3d d8 05 83 3e 80 f5 69 3d
       -0.048367336 0.05268857 0.25590396 0.057118893
000250 5b 53 28 be 6b e8 89 3e 1c a7 87 3d ab e0 88 be
       -0.16438048 0.26935133 0.066236705 -0.26733908
000260 f0 73 f5 bc 4e d6 82 be 59 c4 30 3d 27 3f 52 3e
       -0.02996251 -0.25554127 0.043156 0.20531903
000270 9a f9 75 be f7 ed 8a be d2 10 75 3e de 40 e9 3d
       -0.24020997 -0.27134678 0.23932198 0.113893256
000280 33 32 aa 3c 73 f2 34 3e 7b 4d 72 be cc bb 8e 3c
       0.02077589 0.17670612 -0.23662369 0.017423533
000290 b1 40 85 be e4 fd 2f 3e e8 a3 28 be ab fd 8a 3e
       -0.26025918 0.17186695 -0.16468775 0.27146658
0002a0 ab 62 c9 3d 0c 8a 09 bd 89 34 8b be f5 1b 39 bd
       0.098332725 -0.033578917 -0.2718852 -0.045192678
0002b0 46 47 48 3e 20 f6 33 3d 8b 70 4c bd 64 a7 2b bd
       0.19558439 0.043935895 -0.049912017 -0.041907683
0002c0 ed 2d 30 bd 97 1e 84 be 22 f2 0b 3c 22 e2 80 3e
       -0.04301255 -0.25804588 0.008541616 0.25172526
0002d0 69 a2 3d bd c8 ad 86 be d0 dd c0 bc f2 f8 26 be
       -0.046297465 -0.2630446 -0.023543268 -0.16305903
0002e0 6b 35 6c 3d d8 79 24 be 03 0b 6f be 82 95 73 be
       0.05766813 -0.16062105 -0.23344044 -0.23787501
0002f0 26 53 5d 3d 41 08 53 be a3 8e 68 be 74 34 7a 3e
       0.054034375 -0.20608617 -0.22710662 0.24434072
000300 ff 14 8d be 1c 3f 81 3d 97 78 10 be 04 0c 1e 3e
       -0.2755508 0.06310865 -0.14108501 0.15434271
000310 83 72 74 be a4 54 fd bc 40 0d 31 3d 00 6b 29 3a
       -0.23871808 -0.030924149 0.043225527 0.00064627826
000320 f0 27 80 bd 7e 49 2d 3e 1e 51 aa bd 49 c4 d9 3d
       -0.062576175 0.16922566 -0.08316253 0.106331415
000330 c2 87 e6 bc 90 ca 23 3d c6 c4 8d be 4e 71 57 3d
       -0.028140906 0.0399881 -0.2768919 0.05259829
000340 1c d2 52 3e ac 85 4f 3d db c4 7b bd 8a 6a 7f 3e
       0.20587963 0.05066459 -0.061467033 0.24942985
000350 d4 04 72 3e ca 51 77 3e 6b 33 41 be a8 bc 42 be
       0.23634654 0.24152294 -0.1886727 -0.19017279
000360 5e 9a 12 be ca be 7f be 13 67 83 3e 3e d0 8d be
       -0.14316699 -0.24975124 0.25664577 -0.2769794
000370 e5 87 b4 bd 9e d9 40 3e 72 fd 28 3e 8a c8 b0 3c
       -0.08814982 0.18833014 0.16502932 0.02158
000380 17 10 de 3d ab ff 8b be 86 6e 9a bd 01 68 32 be
       0.10842913 -0.27343497 -0.07540612 -0.17422487
000390 27 e5 b0 bd df 79 40 3e a1 e4 bd 3c 80 91 59 bb
       -0.08637457 0.1879649 0.023180308 -0.0033198297
0003a0 79 5a ef bd 71 70 21 be 48 83 6e be 64 0b 10 3e
       -0.11687178 -0.15765549 -0.23292267 0.14066845
0003b0 92 be 4c be fd 22 9a bd ed 2a ec 3d 20 a5 71 3d
       -0.19994572 -0.07526205 0.11531625 0.058995366
0003c0 a4 b6 84 3e 7d e3 0e 3e 52 63 71 be 37 5a 76 be
       0.25920594 0.13953967 -0.23573044 -0.24057852
0003d0 91 ee 73 3e f9 cc 37 3e 68 eb de 3d a2 ae 25 be
       0.23821475 0.17949285 0.10884744 -0.16179898
0003e0 e6 d3 1f be 95 76 17 be 10 64 43 3e fa c4 7d 3e
       -0.15608177 -0.14791329 0.1908114 0.24782172
0003f0 4b 38 69 3e 4c 92 83 3d f6 cb 93 3d 5a 4e 7c be
       0.2277538 0.06424388 0.07216637 -0.24639264

body.2.weight f4 [256, 256]
000000 86 7b 2e 3d 0c 80 f7 bc 17 d9 04 bb 5e 91 42 3c
       0.04259827 -0.030212425 -0.0020270997 0.011875479
000010 fa bc d5 3c 34 28 06 bd 54 26 39 3d 4a 04 24 3d
       0.026091088 -0.032753184 0.04520257 0.040043153
000020 cf 99 b8 bc 78 92 04 bd 8b ca 12 ba 1f ad 89 3c
       -0.02253428 -0.032366246 -0.0005599639 0.016806183
000030 a0 ef 42 3c 22 c1 1a 3d 90 dd d1 bc ce bb 91 bd
       0.011897951 0.037781842 -0.025618345 -0.07115899
000040 dc 0a af 3c a2 93 1b 3d 00 e3 ab 3c f1 b8 ca 3b
       0.021367483 0.03798259 0.020982265 0.0061865975
000050 fc ba 4f 3d f0 f5 31 3d 4d f8 d8 bc 7e 45 59 3d
       0.05071543 0.043447435 -0.026485587 0.05304479
000060 52 39 2a 3d 60 0b 3d 3c 3b 06 94 bc 44 0d c1 3c
       0.04155857 0.011538357 -0.018069377 0.023565896
000070 39 6c 70 3d 65 73 37 bd 14 d1 e6 bc 9a 78 f5 3c
       0.05869696 -0.044787783 -0.028175868 0.029964734
000080 03 67 ba 3c 37 50 bd 3a 92 30 20 bc 11 3b ef bb
       0.022754198 0.0014443462 -0.009777205 -0.0073007424
000090 fc a5 a3 bc ce a5 9f bb 97 6a 67 bd 80 d3 f2 3a
       -0.019976608 -0.0048720604 -0.056498136 0.0018526167
0000a0 b8 74 6c 3d b0 d2 ed 3c 1e c0 21 3d d8 7b 2b bd
       0.0577285 0.029031128 0.039489858 -0.041866153
0000b0 dd bd 19 bc 09 cd b7 3c 31 da 73 bd e7 5a a5 3d
       -0.009383646 0.022436636 -0.059534255 0.08073979
0000c0 d8 11 b9 bb 57 4f c3 bc a0 eb 27 bc 60 59 26 3b
       -0.005647879 -0.023841543 -0.0102490485 0.0025382861
0000d0 ce e8 42 3d 00 4a ec ba a4 f2 96 3c 59 64 5d 3d
       0.0475853 -0.0018027425 0.018426247 0.054050777
0000e0 50 f9 34 3c c2 f8 5e 3d 97 62 4f bd d9 1c 13 bd
       0.011045769 0.054436453 -0.050631132 -0.035916183
0000f0 88 97 fb bc cb b1 e0 bc a7 c3 5c 3d ea b8 54 3c
       -0.030711904 -0.027428528 0.053897526 0.01298354
000100 f1 de 79 3d de ae 26 3d ff 64 3d bd a3 0f 34 3d
       0.06100363 0.04069411 -0.046238896 0.043960225
000110 02 bc 13 3c c1 6a 64 3c 55 a0 45 bc 8a 09 e1 bb
       0.0090169925 0.013941468 -0.012062152 -0.006867592
000120 80 99 3f 3d f4 82 d0 bc c4 2e 1f 3d 4f 4d 95 bd
       0.04677725 -0.025453068 0.03886296 -0.07290136
000130 b1 44 86 3c 68 6b 33 bd 11 73 16 bd 30 d4 df 3c
       0.016390176 -0.043803602 -0.03673083 0.027322859
000140 9a 47 1d bd a0 6a a9 3b b0 98 f5 3c 14 19 82 3b
       -0.038398363 0.0051701814 0.029980034 0.0039702747
000150 d2 1b d1 bc d6 d3 54 3d cf 40 00 3b 04 35 d5 bc
       -0.025525961 0.051959835 0.001956988 -0.026026256
000160 54 b5 e6 3c 28 c4 de 3c 2c c4 9a bb 94 7e db bc
       0.028162636 0.027193144 -0.0047230925 -0.026793756
000170 c5 82 1a 3d 40 25 8f 3c 84 bb 04 bd 12 5e 96 bc
       0.037722368 0.017473817 -0.03240539 -0.018355403
000180 ac 90 84 3c bc b5 66 bd 2e 26 69 bc da 3e 5b bd
       0.016182266 -0.05632566 -0.014230294 -0.053526737
000190 86 c1 5d bd 60 74 54 bd aa 3d 5b bc 97 c7 3e 3d
       -0.054139636 -0.051868796 -0.013381401 0.046577062
0001a0 34 c6 00 bd c7 68 36 bd 39 8e 72 bd e2 85 66 3d
       -0.03143902 -0.044533517 -0.059217665 0.056280024
0001b0 46 f1 15 bd ae ea 8e 3c bc 66 cd 3c 7d bd ee bc
       -0.03660705 0.017445888 0.025073402 -0.02914309
0001c0 e6 ad 15 3d 2c f7 56 bd dc df 64 3d 5f 58 20 bd
       0.036542796 -0.052481815 0.05587755 -0.039146777
0001d0 46 ac e4 3c a8 ac 2b bd f9 63 4a 3c a7 29 44 bd
       0.027914178 -0.041912705 0.012352937 -0.047891285
0001e0 b1 87 74 3c 60 fa 8f 3c 89 44 75 b9 12 f4 59 3c
       0.0149249295 0.017575443 -0.00023390552 0.01330282
0001f0 b6 41 5d 3d bd 5d 03 bd 64 7d 6c 3d e9 c0 12 bd
       0.054017745 -0.032071818 0.05773677 -0.035828505
000200 8e fc 64 bd 0d 82 ac 3c 91 6a 56 bd 10 d1 f3 bb
       -0.055904917 0.021058107 -0.052347723 -0.0074406937
000210 38 49 9f bc c6 a8 fe 3c 4b 12 0b 3d 4c 11 33 bb
       -0.019444093 0.031086337 0.033952992 -0.0027323542
000220 18 24 8d 3c 08 33 51 3d 90 ea 9a 3c 60 41 5c bc
       0.017229125 0.051074058 0.018910676 -0.013443321
000230 bc 35 b4 bc 42 3b 1c bd 18 56 58 3d 5e 72 a5 3c
       -0.021998279 -0.03814245 0.05281648 0.020196136
000240 0c ae 9d bc ac a3 79 3d 09 0e 47 3d 17 f8 b9 3c
       -0.019248031 0.060947105 0.04859737 0.022701306
000250 ac 6d a2 bc b1 f9 3c bc 63 9b e0 3c 6a 8c 46 bd
       -0.019827686 -0.01153414 0.027417844 -0.048473753
000260 2c c1 62 bd 44 76 9f 3c 4d 89 0a bc 1f 54 0c 3d
       -0.055360004 0.019465573 -0.008455587 0.03425991
000270 50 31 8e 3b 20 65 8f 3c 7f df 21 3d 86 5a 5d 3d
       0.0043393746 0.017504275 0.039519783 0.054041408
000280 2e c3 07 3b fd 18 77 bd 68 c1 29 bd 62 e3 5a bd
       0.0020715701 -0.060326565 -0.041444212 -0.053439505
000290 48 87 20 bc 80 bb c0 3c 68 6d be 3c f2 6f 30 3d
       -0.009797879 0.023526907 0.023245528 0.04307551
0002a0 56 67 93 3d c8 d0 0a bc c8 a4 36 bd e1 70 f6 39
       0.07197444 -0.008472629 -0.04459074 0.00047004878
0002b0 e4 5b ea 3c 18 fc 8c bc b4 34 8f bd 5c a2 d7 bc
       0.02860827 -0.017210051 -0.06992474 -0.026322536
0002c0 10 a9 6e 3d 80 46 30 3b 44 55 3f bd ad f3 08 3d
       0.0582667 0.002689749 -0.046712175 0.033435512
0002d0 f3 4a a8 3c 34 91 15 3d 00 7f 6f bd b8 88 b7 3c
       0.020543551 0.03651543 -0.058470726 0.02240406
0002e0 4c 7a f3 3c 20 67 1a bd f4 cd 20 3d f8 d4 62 bd
       0.029721402 -0.037696004 0.039258912 -0.055378884
0002f0 d9 d0 18 3d a0 d0 29 3d fc bf 8a 3c ff e1 44 bc
       0.037308548 0.041458726 0.016937248 -0.012016772
000300 04 b3 ed 3c f6 44 02 3d 49 66 0c bd ce 89 0e 3c
       0.029016025 0.031804048 -0.034277234 0.008699847
000310 b3 bd 0d 3d e9 5d 1e bd 6e 7b 66 3d 7e 61 8d 3c
       0.03460474 -0.03866378 0.056270055 0.017258402
000320 60 e9 50 3c 1a a1 c6 3c 38 d9 06 3c 78 cf 58 bb
       0.012750953 0.024246741 0.0082305 -0.0033082645
000330 2b 5d 45 3d 5c 8d a1 3c 74 67 72 3d 90 1b 65 bd
       0.048184555 0.019720726 0.05918069 -0.05593449
000340 13 86 8a bc eb 15 5d 3d 2c c0 dd 3c fc 0f c6 3c
       -0.016909635 0.05397598 0.027069174 0.024177544
000350 bd c2 0a 3d f8 ae b5 3b d2 cd 21 bd a0 09 b1 bb
       0.033877123 0.0055445395 -0.039502926 -0.0054027587
000360 9a 74 49 bd 80 36 04 bb 60 8f 25 3d d0 fa 79 bd
       -0.049183466 -0.0020174086 0.040419936 -0.06103021
000370 bb 5f 59 bd b0 ad 90 bd 87 76 ae 3c 71 0c de bb
       -0.05306981 -0.07064378 0.021296753 -0.0067763855
000380 3d 79 62 3d aa 25 1d 3d 50 ba 83 bb db 3b 51 3d
       0.055291403 0.038365997 -0.004020013 0.051082473
000390 c1 0b e5 3c c3 85 e4 3c cb b3 3e 3c d2 0b 7f 3d
       0.027959706 0.027895814 0.011639546 0.062267132
0003a0 4c b0 45 bd c3 62 49 bb 58 30 70 3c ee 01 70 3d
       -0.048263833 -0.0030729033 0.014659964 0.05859559
0003b0 af e7 9a bb 3e 85 2e bd ea a8 c0 3c 4f 80 87 bd
       -0.004727326 -0.04260754 0.023518045 -0.0661627
0003c0 c4 69 0c bd 34 09 2a 3c bc d6 55 bd 80 3c 69 3d
       -0.034280553 0.010378171 -0.05220674 0.056942463
0003d0 fa 80 e9 3c 48 d1 15 3d 80 9c 33 ba 48 68 08 3d
       0.028503884 0.03657654 -0.00068516284 0.033302575
0003e0 cc 08 ee bc 58 48 38 bc e6 f4 19 bd 11 26 c2 3c
       -0.029056929 -0.011247717 -0.03758707 0.023699792
0003f0 bc c0 c0 3c e2 25 6b 3d 70 a5 84 bc e6 8a ce bc
       0.023529403 0.057409175 -0.016192168 -0.025212716

body.2.bias f4 [256]
000000 6c cf 12 3d 73 6a 22 3d cc 18 22 bd 88 a8 93 bc
       0.035842344 0.0396523 -0.03957443 -0.018024698
000010 14 41 3f 3d e8 c2 3f 3c a0 da b6 bc ac 7a 27 3d
       0.046692923 0.011704184 -0.022321045 0.040888473
000020 e0 52 65 3d c1 92 b0 3b f4 06 ef 3c de 1e ee bc
       0.05598724 0.005388588 0.02917812 -0.029067453
000030 dd 65 da bb ca ce 61 3d ea 2b 0c bd 46 bc 2b 3d
       -0.006664975 0.05512885 -0.034221567 0.0419276
000040 e7 4c dd ba 1d a1 11 3d 30 57 ac 3c 3c 98 39 3c
       -0.0016883881 0.03555404 0.021037668 0.011327799
000050 11 6d 67 3c 54 80 1e 3d c8 c1 67 3d ec a3 64 3d
       0.014125125 0.038696602 0.05658129 0.05582039
000060 fb ea 24 3d 5e e0 1f bd 3c 43 b2 3b 02 0b 27 3d
       0.040263157 -0.039032333 0.005440144 0.040781982
000070 81 a3 65 3c a2 90 78 bd 34 96 2a bd 7a 31 28 bd
       0.014016033 -0.060684808 -0.04164715 -0.04106281
000080 06 3d 5b bd 91 db 65 bd 4d 9d 7f bd 6e b5 72 3d
       -0.053524993 -0.056117598 -0.062405873 0.059255056
000090 dc 71 56 3d 9f fd 2b bc 56 88 45 3d 80 5b 53 3a
       0.05235468 -0.01049748 0.048225723 0.0008062646
0000a0 61 ca 1d bc 28 4e 5a 3c d0 72 5b 3c ad 47 4c 3b
       -0.00963077 0.013324298 0.013394073 0.0031170652
0000b0 9f 3b 3f 3d 36 2d 1f bd 68 01 9a 3c 9e a5 0e bc
       0.04668772 -0.038861476 0.018799499 -0.008706478
0000c0 7e 85 3b bb 1c cf 94 3c 7e 30 08 3d b2 82 21 3d
       -0.0028613503 0.018165164 0.03324937 0.03943128
0000d0 b8 b2 0c bd e0 72 81 3b e5 4f ca 3c 65 54 25 3c
       -0.034350127 0.0039504617 0.0246963 0.010090922
0000e0 a1 ec fe 3c e3 7f 1d bd 6c 5e 78 3b ce 1d 16 3d
       0.031118693 -0.03845204 0.0037898077 0.036649518
0000f0 e0 fa 11 3d 24 03 ff bb 90 4a 27 bc d6 c5 58 bd
       0.035639644 -0.007782357 -0.010210648 -0.052923046
000100 92 48 d7 bc b4 12 e4 bb 41 6e 3a 3d 20 2e d2 3c
       -0.026279721 -0.0069602374 0.045515303 0.02565676
000110 ea e6 53 3d 16 02 7f bd b2 cb 19 3d 1c 3f 9f bc
       0.05173389 -0.06225785 0.037547775 -0.019439273
000120 0e d3 08 bc 70 d8 6f bc e5 57 14 bd 9a 47 18 bd
       -0.008351101 -0.014639005 -0.036216635 -0.03717766
000130 ea d1 5c bd af 76 49 bd ee c9 0d bd 00 28 bc 3c
       -0.053911127 -0.04918545 -0.034616403 0.022968292
000140 38 4a 61 3c a0 60 62 bb 98 72 93 3c 8e 38 16 3d
       0.013750605 -0.0034542456 0.017998978 0.03667503
000150 6a 53 35 bd 7b ce 3c bb 6f 55 5f 3d 28 7f 6e bc
       -0.044269003 -0.0028809595 0.054524835 -0.014556684
000160 9e 70 07 3c 2c ab 3a 3d 94 7b 8c bc 2c 51 04 3d
       0.008266596 0.0455734 -0.01714877 0.032303974
000170 42 8b 20 3d de e9 65 bd 98 be 63 bd f0 0e 06 3d
       0.039195307 -0.056131236 -0.055601686 0.03272909
000180 58 69 c2 bc 3e 19 d1 3c 40 22 49 3d 01 15 77 bc
       -0.023731872 0.025524732 0.04910493 -0.015080691
000190 b0 47 38 3c 6a b9 78 bd 2a 1a c4 bc 80 2d e7 bb
       0.01124756 -0.0607237 -0.023938257 -0.0070549846
0001a0 d6 11 76 bd 9f 32 ec 3c 20 c5 5b bd 38 69 23 3d
       -0.060075603 0.028832732 -0.05365479 0.039895266
0001b0 0c 93 27 bd 5e 59 68 3d bf 13 23 3d 17 88 68 bd
       -0.04091172 0.056725852 0.039813753 -0.05677041
0001c0 64 03 a6 3c 2d b1 b2 3c 72 54 5f bd f0 81 3e bb
       0.020265289 0.021813 -0.054523893 -0.0029069148
0001d0 34 0d 90 3c 9c 25 38 3d 75 b6 4c 3d 13 32 00 3d
       0.01758442 0.044957742 0.049978692 0.031297754
0001e0 34 4c 91 3c 37 33 cd 3c 6c a2 64 3d 7c 6c 59 bd
       0.017736532 0.025048835 0.05581896 -0.053081974
0001f0 d1 ee 5b bd 70 e5 84 bb 00 74 15 39 04 ad 52 3d
       -0.05369455 -0.0040556714 0.0001425296 0.05143453
000200 cf 43 94 3c 4a 85 19 3d 58 d4 70 3d ba b1 00 3d
       0.01809874 0.03748063 0.058796257 0.031419493
000210 cf fa 60 bd 93 9e 6a 3c ce 9c 43 bc 58 88 f5 bc
       -0.05492669 0.014320034 -0.011939241 -0.02997224
000220 2c 58 3b 3d 2e 94 66 3a 20 2d f2 3c 2e 04 6f bd
       0.045738384 0.0008795884 0.029562533 -0.058353595
000230 70 ae 6a bc ad 02 07 bd 49 09 47 bd b6 cd d1 bc
       -0.014323816 -0.032961536 -0.04859284 -0.025610786
000240 48 62 56 bd 34 1f 2b 3d a3 ff 20 bc b7 62 6f 3d
       -0.052339822 0.041777804 -0.009826574 0.05844375
000250 c6 1c b3 3c bc bb 43 3d 00 b5 0c 3a a3 7a 14 3d
       0.021864306 0.04778646 0.0005367547 0.036249768
000260 82 4c 18 3d ca 8c 19 3d e8 15 b9 3c 6c 8e 53 3d
       0.03718234 0.037487783 0.022593454 0.051649496
000270 10 f2 2b bd ed c7 e0 bc 3c e8 32 3d fa 53 59 bd
       -0.041978896 -0.027439082 0.043678507 -0.053058602
000280 30 10 42 bd ef 58 78 bd ed 6f 08 3d 98 c5 03 3c
       -0.04737872 -0.06063169 0.033309866 0.0080427155
000290 1b a4 57 3d 57 11 61 bd 3a de 2c 3d dc 09 25 3c
       0.052646738 -0.054948177 0.04220412 0.010073151
0002a0 42 c3 25 bd d1 57 19 bd 9a fb 79 bd 60 52 5a bd
       -0.040469415 -0.037437264 -0.06103096 -0.053301215
0002b0 9c f5 14 bd 90 d6 d0 bc a9 d4 14 bd bb 62 5d 3d
       -0.036367044 -0.025492936 -0.03633562 0.054049235
0002c0 71 8c 71 3d d8 28 ac 3b b6 a3 28 bd 58 cc 69 3a
       0.058971826 0.0052538924 -0.041171752 0.0008918694
0002d0 36 99 19 bc d0 a5 66 bd d8 95 25 3c ec 8d 7d bd
       -0.009374907 -0.056310475 0.010106526 -0.061902925
0002e0 ee 23 11 bd e8 6d 92 39 90 d1 09 bd 02 70 7e 3d
       -0.035434656 0.00027929177 -0.03364712 0.062118538
0002f0 26 96 08 bd f4 eb 37 3d 57 05 35 bd eb f4 49 3d
       -0.033346318 0.044902757 -0.044194546 0.049305838
000300 c0 d7 0e 3d 06 e6 42 3d a8 9c 1b 3d 95 43 d9 3b
       0.034873724 0.04758265 0.037991196 0.006630371
000310 c1 08 32 3d da 70 07 3d 3f 1b 50 3c 88 e3 bb bc
       0.04346538 0.033066608 0.0127018085 -0.022935644
000320 86 42 c8 bc 20 1d 20 3d e0 37 2a bc a3 a4 38 bc
       -0.024445783 0.039090276 -0.010389298 -0.011269721
000330 ac b9 54 3d 77 fd b8 3c af 57 a2 3c 1a 19 1b 3d
       0.051934883 0.022581799 0.019817201 0.037865736
000340 0e 0f 60 3d d8 0b 05 3c 38 e8 68 bd 4c 2f 1c bd
       0.054701857 0.0081205 -0.056862086 -0.038131043
000350 7a 32 69 3d 07 45 72 3d 58 3c e7 bc 4b d3 80 3c
       0.056932904 0.05914786 -0.028227016 0.015725752
000360 82 a8 ea 3c 02 a8 63 bc 69 01 aa 3c 48 7f 0a bd
       0.028644804 -0.013895037 0.020752626 -0.03381279
000370 91 27 f9 3b fe c9 0a bd 46 89 71 bd ec 15 83 bd
       0.0076035936 -0.03388404 -0.058968805 -0.06400666
000380 58 00 75 bd aa d4 39 3d 0d 2c ba 3c 18 49 50 bc
       -0.05981478 0.045368828 0.022726083 -0.012712739
000390 78 96 5e bc c1 b7 b4 3c c4 c0 07 3d e8 16 31 3d
       -0.013585679 0.022060277 0.03314282 0.043234736
0003a0 70 5e 77 3d 00 ef 43 3c c8 79 59 bd 8c cc 43 bd
       0.060392797 0.0119588375 -0.053094655 -0.047802493
0003b0 30 53 f8 bb 50 7e e1 bc 10 66 28 3d b0 c2 d1 3b
       -0.007578276 -0.02752605 0.04111296 0.0064013824
0003c0 c5 92 14 3d dc b6 5b bd 54 9e 09 3c 00 99 0c 3d
       0.036272783 -0.053641185 0.008399565 0.0343256
0003d0 38 4e 6b bc 8c 15 e9 bc 84 67 ba bc c4 dd fc bc
       -0.0143619105 -0.028452657 -0.022754438 -0.030867465
0003e0 bc 32 e1 bc d9 ca 42 bb ce 16 c3 bb 6a 08 0b 3d
       -0.027490012 -0.0029722957 -0.0059536463 0.03394357
0003f0 f0 e5 5e bd 5c 48 a6 bc 66 1a 6c 3d 69 26 73 3d
       -0.054418504 -0.020298176 0.057642363 0.059362803

mu_head.weight f4 [2, 256]
000000 75 92 55 3d 91 60 5d bc 48 8a 08 bd d4 e3 3b bd
       0.052141625 -0.013511793 -0.033335 -0.04587157
000010 72 09 74 bd 04 e5 7d 3d f8 e4 51 bd 26 19 52 3d
       -0.05957932 0.061985984 -0.051243752 0.051293515
000020 80 71 27 bb 69 6e b3 bc b8 8f e4 bc 02 7d d8 bc
       -0.002554983 -0.021903234 -0.027900562 -0.026426796
000030 36 33 97 3c ba e6 0e 3d 62 03 70 bd 4a 38 36 bc
       0.018457036 0.034888007 -0.058596976 -0.011121819
000040 5b 96 39 3d bb 9a 8d 3c fa 88 24 3d c0 9c 9f bb
       0.045309406 0.017285695 0.040169694 -0.004870981
000050 f6 99 39 bd 20 09 5e bd d2 b0 af bb 1a 70 2b bd
       -0.045312844 -0.05420792 -0.005361655 -0.041854955
000060 2c 1a 56 3d ca 87 3f 3d 38 3b 16 bd 66 23 03 bd
       0.052271053 0.046760358 -0.03667757 -0.03201618
000070 9b a4 fb 3c 88 05 44 bc 28 90 73 3c ed 1d 24 bd
       0.030718138 -0.011964209 0.0148659125 -0.040067602
000080 00 65 53 ba ea 53 0a 3d 22 5b e8 3c d4 c4 85 bc
       -0.00080640614 0.033771433 0.028363768 -0.016329207
000090 d0 6d 03 3b d9 74 9d bb 0e 12 37 3d b0 74 bb 3b
       0.0020054467 -0.004805189 0.044694953 0.0057206973
0000a0 2b f8 15 3d d8 d2 6c bc 78 f2 7d 3c 30 ae fa 3c
       0.036613625 -0.014454566 0.015499704 0.030600637
0000b0 f8 1c 9e 3c a3 e7 f6 bc 6e c7 7f 3d 11 ae a1 bc
       0.019300923 -0.03013975 0.06244605 -0.019736322
0000c0 32 59 26 3d 60 65 60 3c f4 cc ac bc 6e 0a 4a 3d
       0.040612407 0.013696045 -0.021093823 0.049326353
0000d0 86 d5 24 3d b8 a2 14 3c a1 c5 cd bc 85 45 e3 bc
       0.040242694 0.009071998 -0.02511865 -0.02774311
0000e0 52 21 ea 3c c0 29 66 bd a0 ae da 3c 1a 2c 54 bd
       0.028580341 -0.05619216 0.026694596 -0.05179987
0000f0 80 40 91 bc 92 41 00 bd 90 b2 5f bd 4e 6c 54 3d
       -0.017730951 -0.031312533 -0.05461365 0.0518611
000100 3f ca 1c 3d c5 7c 23 bd ae e5 d6 bc 3a 2c 53 3d
       0.038278814 -0.03991391 -0.026232567 0.05155585
000110 e9 76 1c 3d d2 3d 71 3d f1 14 17 bd d0 db 7b 3c
       0.03819934 0.058896847 -0.036885206 0.015372232
000120 61 e8 2f 3c b8 9f 30 bc 50 99 1f bd a0 12 56 3c
       0.010736556 -0.010780267 -0.03896457 0.013065964
000130 fa 1f 3f bd b3 e6 8e 3b bd ed be bc c0 82 04 bc
       -0.046661355 0.0043609976 -0.023306722 -0.008087814
000140 dc 3c 6d 3d de e9 10 bd 58 cd c1 3c 55 79 69 bd
       0.05791937 -0.035379283 0.023657486 -0.057000477
000150 a0 b8 5e bd b3 8e 32 bd 1b f7 45 3d 14 c4 73 bd
       -0.05437529 -0.04359312 0.04833136 -0.059513167
000160 5f da b9 3c 20 94 d2 3c 40 ab 4b 3b 2c 49 74 3d
       0.022687135 0.025705397 0.0031077415 0.059640095
000170 97 4b 58 3d 88 68 8b 3c 5a bd 5d 3d 7e c3 57 bb
       0.052806463 0.017017618 0.054135658 -0.003292292
000180 b7 46 52 bb b0 d1 27 3d f5 c7 82 3c 9a 34 03 bd
       -0.0032085606 0.040971458 0.015964488 -0.032032587
000190 a0 a3 f8 3c c0 b9 8d 3b 59 e0 ec ba 88 bb be bc
       0.03035146 0.0043251216 -0.0018072232 -0.023282781
0001a0 30 b5 a2 3b b4 46 b0 3c 7e d6 80 3c 19 52 09 bd
       0.004965447 0.021518089 0.015727278 -0.03352556
0001b0 06 6b 55 bd 71 f6 ac bc e0 76 40 3d ab f2 ab ba
       -0.05210402 -0.021113606 0.046988368 -0.0013118585
0001c0 d8 8c 65 bd 10 0f 26 bd e0 70 2d bd 20 55 2f 3c
       -0.056042522 -0.04054171 -0.042343974 0.010701448
0001d0 74 89 b8 bc fe 21 15 3d f3 8f 3d 3d 96 53 ec 3c
       -0.02252648 0.03640937 0.04627986 0.02884845
0001e0 00 21 aa 3c 5f c1 86 3a 45 99 e0 3c a0 eb fc 3b
       0.020767689 0.0010281018 0.027416835 0.0077185184
0001f0 4e 58 5b 3a ca 0d 0a bd 90 28 82 bc 9d 72 26 bb
       0.00083673454 -0.033704557 -0.015888482 -0.0025397905
000200 90 35 5d bd 64 54 d7 3c ad 5e a0 bc e8 a5 8c 3c
       -0.05400616 0.026285358 -0.019576395 0.017168954
000210 24 e2 7e 3d 4a c9 1f 3d ab 3e 63 3c c6 32 41 3d
       0.062227383 0.039010324 0.013869922 0.047167562
000220 60 39 42 3b 7c 83 2f 3b fc f7 e2 bc 90 8a df bc
       0.002963625 0.0026781252 -0.027706139 -0.027287751
000230 a8 42 c8 bc 47 91 61 bd 6e 7e 2b bd 02 4c 10 bd
       -0.024445847 -0.055070188 -0.04186862 -0.035228737
000240 2a 5b 65 3d 5a 08 b2 bc 1b 73 02 3d 5c 10 27 bd
       0.055995144 -0.021732498 0.031848054 -0.040787086
000250 2c 66 78 bd f1 83 2f 3c 58 b5 40 bd 3b 78 1d bd
       -0.060644314 0.01071261 -0.047047943 -0.03844474
000260 d0 b0 08 bd 2e 6b b4 3c 00 99 3f bd ac f0 ad 3c
       -0.033371747 0.022023764 -0.04677677 0.021232925
000270 e6 34 69 bd f5 61 0d bd 90 54 1f bd 8c 19 86 bc
       -0.056935214 -0.034517247 -0.038899004 -0.016369604
000280 28 d9 34 bc f3 16 39 3d 10 eb 48 bd ee 11 0c bd
       -0.011038102 0.0451879 -0.049052298 -0.034196787
000290 a9 fc c5 3c a5 41 7f 3d fb 8c 78 3c 8c 94 76 3c
       0.02416833 0.062318463 0.015170331 0.015050065
0002a0 c4 97 4f bd 3f 1b 80 3c 60 11 ec bb 3c 96 17 3d
       -0.050681844 0.015637992 -0.0072042197 0.03700851
0002b0 a0 cb c0 3c 62 37 03 3d 2c ce 0a 3d 86 55 fc ba
       0.023534596 0.03203524 0.033888027 -0.0019251562
0002c0 86 6b cd 3c 4c a3 42 3d 18 d0 5e 3d 1a 52 f0 3c
       0.025075685 0.047519013 0.054397672 0.029336024
0002d0 13 f0 96 3b eb bc f7 3c c0 6f 78 bb 00 38 0b 3c
       0.004606256 0.03024145 -0.0037908405 0.008497238
0002e0 d8 91 2d 3d 0f 92 3b 3d e2 08 50 bd 5c 63 6b 3d
       0.042375416 0.04579359 -0.05078972 0.057467803
0002f0 00 23 5b 3d 80 c7 22 3c ab f8 97 bc 4f 40 02 3d
       0.053500175 0.00993526 -0.018551191 0.03179961
000300 dc dd 25 bd 03 fb 5d bd 1d 35 31 bd 66 36 5f bb
       -0.040494785 -0.05419446 -0.043263543 -0.0034059524
000310 25 ba 00 bb 21 e6 00 bd 1c 03 ce bc f8 cc ac bc
       -0.00196422 -0.031469468 -0.025147967 -0.02109383
000320 d6 ba ce bb 68 c6 8b bc 80 c4 5b bd 38 17 2d bd
       -0.0063088937 -0.01706238 -0.053654194 -0.04225847
000330 4a 1b 4b bd d8 ed 62 bd f1 9d 1f 3d e6 12 3c 3d
       -0.04958657 -0.055402607 0.038968984 0.04591646
000340 63 34 2d bd f0 dc 28 3d 58 2f 28 3d d8 e6 2d 3c
       -0.042286288 0.041226327 0.041060776 0.0106141195
000350 1c fa f9 3b 6d c7 63 3d f7 9a 66 3d 6c 4b ed 3a
       0.0076286923 0.05561011 0.05630013 0.0018104143
000360 f3 c4 d4 3b c5 05 1a 3d 06 b3 08 bd 96 2b 15 bd
       0.0064932047 0.03760316 -0.033373855 -0.03641852
000370 62 f0 d5 3c 86 b5 c0 bc 00 a9 36 3a 90 39 d6 3c
       0.0261156 -0.023524057 0.0006967932 0.026150495
000380 08 e4 31 3c 5c de fc bc 74 ee 0b 3b ee 0f 72 3d
       0.01085759 -0.030867748 0.0021351846 0.059097223
000390 6c 47 8e 3c 78 ed ae 3c 20 df 39 bd ee 0d 36 3c
       0.017368041 0.021353468 -0.045378804 0.0111117195
0003a0 4c ab 53 bc 2a 7a 53 3c f3 bc c0 bc e4 ef 42 3d
       -0.012919258 0.012907544 -0.023527598 0.04759206
0003b0 69 3d 75 3d ea 26 59 bd 37 66 17 bd 2a 40 49 3d
       0.05987302 -0.053015627 -0.036962714 0.049133457
0003c0 68 59 1c bd 2e fc c0 3c 37 38 5a bd 18 e3 51 bc
       -0.038171202 0.023557749 -0.053276267 -0.012810491
0003d0 46 85 46 bd 32 fb 19 bd 0e 84 15 bc 80 b4 b3 ba
       -0.048466943 -0.037593074 -0.009125723 -0.0013710409
0003e0 8e 1d 5c bd 7b f7 1a bd 1e 4a 34 bd 28 17 9c 3c
       -0.053739123 -0.037833672 -0.044015996 0.01905401
0003f0 c2 53 12 3d 08 7d 5a 3d 52 40 09 bd 80 dc 38 3d
       0.03572441 0.053341895 -0.033508606 0.04513216

mu_head.bias f4 [2]
000000 db 2f 45 bd 97 3e 78 3c
       -0.04814134 0.015151641

model.0.weight f4 [256, 39]
000000 f8 71 04 3e 7c a7 d0 3d c0 e8 f1 3c 0a e8 89 3d
       0.129341 0.10188195 0.02952993 0.06733711
000010 e0 6a 69 3c 06 67 c3 bd e6 e9 19 3e 60 94 b6 bc
       0.014246672 -0.095411345 0.15030631 -0.022287548
000020 1e a2 0a 3e 5a 09 1d be 28 6f 1e bd 29 9e 0b be
       0.13538405 -0.15335599 -0.038680226 -0.13634552
000030 30 b8 d6 bd 2c 58 22 3e 02 75 be bd e4 d8 1c 3d
       -0.1048435 0.15853947 -0.09299661 0.03829278
000040 d8 03 be 3d 38 66 a2 3d 2c 2c d3 3d 04 cf 37 bd
       0.09278077 0.07929653 0.103111595 -0.04487516
000050 dc 04 ab 3d d3 e4 c1 bd 98 09 e1 bd 16 8c 64 bd
       0.08350536 -0.09467473 -0.10988158 -0.05579766
000060 76 1b 16 3e 14 b2 09 be 46 2b c5 bd b2 6f 89 bd
       0.14658913 -0.13446838 -0.096273944 -0.06710757
000070 08 ac de bd 04 f2 b9 3d 5e 8c 17 3e fc 45 e3 bd
       -0.10872656 0.09079364 0.1479964 -0.11097333
000080 97 49 11 be 80 58 96 3d 47 77 03 be f8 60 f6 3d
       -0.14188229 0.07341099 -0.1283847 0.12030214
000090 9c 90 8f 3d a4 88 50 bd d4 f4 ff bd 63 2d dd bd
       0.07010004 -0.05091156 -0.12497869 -0.107996725
0000a0 a9 06 19 bd df ff c8 bd 50 b1 33 bd 8e 21 1a be
       -0.037359867 -0.098144285 -0.04387027 -0.15051863
0000b0 ed 39 4b 3c 6d 41 a9 bd 71 45 0a 3e 1a 8b 1a 3e
       0.012403947 -0.08264432 0.13503052 0.15092126
0000c0 d4 72 e1 3d 98 52 28 3d 57 01 42 3d bd c7 1f be
       0.1100823 0.041094393 0.04736456 -0.15603538
0000d0 d4 23 92 bd e7 41 15 3e d5 3e 7c 3c 32 5c 9b 3d
       -0.0713574 0.14575921 0.01539584 0.07585944
0000e0 34 40 82 3b a8 7a 25 bd b7 1d 1b 3e c5 e6 c3 bd
       0.0039749388 -0.040400177 0.15148054 -0.095655
0000f0 ce 4c 95 bd f7 66 c1 3c fb 19 0a be 92 f9 13 3e
       -0.0729004 0.023608668 -0.13486473 0.14450672
000100 bc b8 0e be d7 ac bb bd 98 13 e4 3d d5 a7 a4 bc
       -0.13937658 -0.09163826 0.1113655 -0.02009956
000110 c2 3f 02 bd da 07 c4 3d 52 37 cb 3a 4b ae ca 3c
       -0.031799085 0.0957181 0.0015504158 0.024741312
000120 16 78 c1 3d b4 a4 8a 3d c2 35 b3 bc ef c5 c7 3c
       0.09446733 0.06769696 -0.02187622 0.024386374
000130 c2 e6 07 3e c7 86 b0 bd 35 98 ab 3c b9 fa 25 3d
       0.13271621 -0.08619457 0.020946601 0.04052231
000140 a9 f8 82 3d 25 e3 0f 3e 7b dc c8 bc 9a f7 7f bd
       0.063950844 0.14051493 -0.024519196 -0.06249199
000150 44 94 70 3d 25 e5 c3 bd 31 4e c7 3d 70 56 67 bc
       0.058735147 -0.0956519 0.09731711 -0.014119729
000160 ae 26 bd bd 39 0e 92 bd d7 d5 a1 bd b4 a7 b1 3d
       -0.09235893 -0.07131619 -0.07902115 0.08674565
000170 35 03 d1 3d 97 76 09 3d 44 b0 c6 3d c3 5d d4 3b
       0.1020569 0.03356036 0.09701589 0.006480904
000180 e0 f5 14 bd 99 9e ee 3c 4c d3 9e 3d 11 03 8e 3d
       -0.036367297 0.02912836 0.077551454 0.069341786
000190 60 57 24 3c 4b 0b d4 3a 4e 13 57 bd 32 7c 8c bc
       0.010030597 0.0016177682 -0.052508645 -0.017149065
0001a0 be 19 22 be 46 b9 1d 3e b6 9a ee 3b 11 80 ef 3d
       -0.15830132 0.15402707 0.0072816266 0.116943486
0001b0 43 2a 25 be ea 5f 29 3d 78 8c ac 3d 25 ee 61 3d
       -0.16129403 0.041351236 0.0842523 0.055158753
0001c0 a1 d1 ee 3d b6 f0 2e 3c 39 bc 8e bd 67 28 a0 3d
       0.11661077 0.010677507 -0.069694944 0.07820206
0001d0 38 3f ab 3d c9 0a 8e bd d9 d9 ec 3d 09 2d 90 3b
       0.083616674 -0.06935651 0.11564989 0.0043999
0001e0 d9 ec f2 3d 69 9f 0b bd 0c 8c 07 3e 8d 3e 01 3e
       0.11861581 -0.034087572 0.13237017 0.12621517
0001f0 c0 2b 03 be 08 0a 18 be 70 ef 4f 3d 60 ac 75 3d
       -0.12809658 -0.14847577 0.050765455 0.059978843
000200 eb 02 af 3d c9 ed 78 bd 30 85 42 bd 79 93 da bd
       0.085454784 -0.060773645 -0.0474903 -0.106726594
000210 3a 39 86 3d 04 57 27 bd c5 47 0a be 6c 24 31 bc
       0.06553884 -0.04085447 -0.1350394 -0.010811906
000220 60 9c 18 3e ca 28 8e ba 02 bb 69 bd 6e 8d fb 3d
       0.14903402 -0.0010845896 -0.05706311 0.12282835
000230 5b ec 0a be 27 4f 1d 3e 47 b9 aa bd f7 9c e5 3c
       -0.13566725 0.15362225 -0.0833612 0.028028948
000240 e9 af df bd 65 77 0b 3e 39 6a 07 3e 4c f1 a3 bd
       -0.10922224 0.13619764 0.13224114 -0.08005008
000250 22 8b 67 3d 77 df 4a 3d 82 0e 77 bd 9b 46 5e 3d
       0.05652917 0.04952952 -0.06031657 0.054266553
000260 0e c1 22 be 0e bc 99 3d b0 41 fe bd c3 f3 55 3d
       -0.15893957 0.07506572 -0.12414873 0.052234422
000270 d0 26 3e bc 60 dc be bb e0 2a f3 3d 76 8e 3e bd
       -0.011605933 -0.0058246106 0.11873412 -0.04652258
000280 e0 be df 3d a1 d2 8e bd ca 0c e0 bd ac b5 d5 bd
       0.109250784 -0.06973768 -0.10939939 -0.10435042
000290 64 08 d0 bd bc 80 99 3d 34 03 1b 3d 84 99 16 3d
       -0.101578504 0.07495257 0.03784485 0.036767498
0002a0 1a c4 16 be 9c b9 09 3d 85 66 0e be 76 62 97 3d
       -0.14723244 0.033624277 -0.13906296 0.07391827
0002b0 49 78 00 be 74 cb 9e 3d 5c 4c f8 3d bd 7d 10 be
       -0.12545885 0.07753649 0.121239394 -0.14110465
0002c0 a6 8a 72 bd 28 6b a3 bc 0e 73 17 3e b3 1a a2 bd
       -0.059214257 -0.019948557 0.14789984 -0.07915249
0002d0 c4 d8 d7 3d 10 7a 5f 3d 65 41 a7 bd 18 6c a4 3c
       0.10539392 0.054559767 -0.0816677 0.020071074
0002e0 d0 a6 17 3c 00 ef 98 3d fa d6 15 3e e2 0f 09 3e
       0.00925608 0.07467461 0.14632788 0.13384965
0002f0 60 20 72 3c a0 ea ce 3d 92 8f 44 bd 7b c2 8d bd
       0.014778227 0.10103345 -0.04798848 -0.0692186
000300 c7 4c e7 bd 20 23 b8 bd ea e9 0a be cc 5b fc 3d
       -0.11293941 -0.089910746 -0.13565794 0.12322196
000310 74 97 e4 bd b0 5f 63 bc e0 04 6f 3d 2f cd f0 bd
       -0.111617 -0.013877794 0.05835426 -0.11757886
000320 1c 4e f3 3d 79 bc 92 bd 80 61 b9 3d 18 ae a4 bc
       0.118801326 -0.071648546 0.090518 -0.020102546
000330 d4 fb 1c 3e 4c 12 21 3e 7a 8b 11 be b8 fa 0e bd
       0.1533044 0.15729636 -0.14213362 -0.034907073
000340 00 3c de 39 e6 0a d6 bd 40 c3 13 3d 00 9d c9 3d
       0.00042387843 -0.104512975 0.036074877 0.098443985
000350 a8 04 af bd 74 a8 c0 3d 26 6c b5 3d 90 8c b5 bd
       -0.0854581 0.0940713 0.08858518 -0.08864701
000360 00 c5 63 bb e7 c8 d4 bd a0 4d 77 bd 0b 7c 22 be
       -0.0034754872 -0.103898816 -0.060376763 -0.15867631
000370 78 b9 e7 3c 34 25 d6 bd 40 fc b5 3c 50 9e 1a 3e
       0.02828668 -0.10456315 0.022215009 0.15099454
000380 e8 af 3a 3d 2c 0a c7 3d 74 7c 11 3e 1e b4 9b 3d
       0.045577914 0.09718737 0.14207631 0.07602714
000390 25 61 18 be 2c 09 13 be 74 89 78 3d ac b4 d9 3d
       -0.14880808 -0.14358968 0.06067796 0.106301636
0003a0 64 5d d3 3d 1c e9 0a be 45 74 1e 3e aa 20 99 ba
       0.10320547 -0.13565487 0.15474041 -0.0011682708
0003b0 f7 ea 19 bc 1c 5e d1 bd 19 63 f9 bc 57 21 aa 3d
       -0.009394399 -0.10223028 -0.030442761 0.0830714
0003c0 d7 fd 81 bd bc 8d 29 3e 6b 15 f4 3d e3 07 8c 3d
       -0.06347244 0.16557974 0.11918148 0.06837442
0003d0 d6 2b d0 bd 0b 89 ae bb 65 59 ba 3d 7d 89 e5 bc
       -0.10164611 -0.0053263954 0.09099082 -0.028019661
0003e0 9d 62 02 3e 6d 1b 42 3d ed 28 0c be c7 3b 8f 3d
       0.1273293 0.047389437 -0.13687487 0.069938235
0003f0 9b 91 e9 bd a4 bd 01 3e 97 c6 08 3d 02 a0 6e 3d
       -0.11404725 0.12669998 0.033392515 0.058258064

model.0.bias f4 [256]
000000 fc ff ec 3d c1 15 7c 3c 0f ae e8 3d 23 5f 67 bb
       0.11572263 0.015386046 0.11361324 -0.0035304509
000010 27 72 e4 bd 1d 99 ad bd 73 e1 95 3b 20 7f a4 3d
       -0.11154585 -0.0847647 0.004573995 0.0803206
000020 33 51 5f bd f6 0d 0c 3e 3b 7b 84 bd 01 e2 b8 3d
       -0.054520797 0.136772 -0.06468817 0.09027482
000030 2c 15 97 3d 7b 0d 7e 3c 46 7a b3 3d 48 97 00 be
       0.07377085 0.015506144 0.08763556 -0.12557709
000040 4e 0c 2f bd cd 17 18 be ac de 07 be d3 72 a3 bd
       -0.042736344 -0.1485283 -0.13268536 -0.07980885
000050 f3 27 e7 3d c5 e1 0f 3e eb 84 d1 3d ec 14 b9 3d
       0.112869166 0.14050968 0.1023043 0.09037194
000060 53 74 b1 bd d4 34 14 be e6 93 10 be b9 b4 52 bd
       -0.08664765 -0.14473277 -0.14118919 -0.05144188
000070 dc 18 44 bd 0a a8 d7 3d 78 75 75 bd 10 97 3e 3d
       -0.04787527 0.10530098 -0.05992648 0.046530783
000080 18 ca 48 3d 7b 9c 85 bd 3b 78 b8 bc 66 9b b6 3d
       0.049020857 -0.06523987 -0.022518268 0.08916359
000090 26 f7 0d be 0f ea c9 3b 40 98 0b be a0 39 0f be
       -0.13863811 0.006161935 -0.13632298 -0.13986826
0000a0 c9 87 0d bd 20 86 db 3b 16 d8 e3 bd 14 62 4e bd
       -0.034553323 0.0066993386 -0.111251995 -0.050386503
0000b0 48 5e 13 be 72 29 94 bd f0 70 1c 3e 88 67 ea bd
       -0.14391434 -0.072344676 0.15277457 -0.11445528
0000c0 d3 18 da bd 3a c7 09 3e c8 3f cd bd 92 52 d5 bd
       -0.10649266 0.13454905 -0.10021931 -0.1041614
0000d0 14 b8 58 3d 40 15 6d bd 1b 12 f0 bd 4e 02 8d 3a
       0.052909926 -0.057881594 -0.11722203 0.0010758133
0000e0 1a 8a f1 3d ee b8 b5 bd f7 83 1d bd bd 6a f1 bd
       0.11793919 -0.08873163 -0.03845593 -0.11787937
0000f0 50 ae 85 bc d4 58 cf 3d c8 3e ca 3d 9f 13 11 3e
       -0.01631847 0.101243645 0.09875256 0.14167641
000100 ae db 53 bc 0f 26 8e 3d 56 d4 d2 3d e4 30 ac 3d
       -0.012930794 0.06940853 0.10294406 0.08407763
000110 aa 27 fa 3d 80 cc 56 bc 47 e3 89 bd b8 f6 f3 bc
       0.122145966 -0.01311028 -0.06732803 -0.02978073
000120 bc 41 bd 3d 48 52 33 3d a5 df ba bd e0 1e 1b 3c
       0.092410535 0.04377964 -0.09124688 0.00946781
000130 e2 62 bc bd e1 9e 1e bc 63 9e 3c 3d c1 a9 92 3c
       -0.09198548 -0.009681434 0.046049487 0.01790321
000140 ec ae d1 3d 70 d4 cd ba 9d 07 84 bd c8 31 1c 3e
       0.10238442 -0.001570357 -0.064467646 0.15253365
000150 c4 dd 49 3d 0c 55 13 3e 53 f8 11 3e 0d 34 19 3e
       0.049283758 0.14387912 0.14254884 0.14961262
000160 d4 56 58 3d 1c eb d8 bd 97 da 22 bc 3a 69 8c bc
       0.05281718 -0.105917186 -0.009939811 -0.01714002
000170 a1 11 ed bc b1 25 c7 3d bc c8 13 be 68 3e 0c be
       -0.02893907 0.09723986 -0.14432043 -0.13695681
000180 14 c4 f9 3d e0 ee b7 bc 1d cc db 3d 06 2f f3 bd
       0.12195602 -0.022452772 0.10732291 -0.118742034
000190 20 9d fd 3c 8f 22 90 3d 7e 60 e1 bd 6e c4 59 3d
       0.030958712 0.070378415 -0.110047325 0.053165846
0001a0 70 b1 ef bd 07 d2 c3 3b 37 e2 ec bd a4 9b a5 3d
       -0.117037654 0.005975965 -0.115665846 0.08086327
0001b0 e7 5a 02 3e e8 32 00 be 8e ce cb bd f4 1d 03 be
       0.12729989 -0.12519419 -0.099515066 -0.12804395
0001c0 86 47 f8 bd 2e 09 7c bd cc 60 8c 3d 4b 3d d4 ba
       -0.12123017 -0.061532192 0.068544 -0.0016192583
0001d0 7b cd 99 bd ea b5 df bd c3 cc 91 3d 3f 6f 20 be
       -0.075098954 -0.10923369 0.07119133 -0.15667437
0001e0 12 56 22 3e e8 ef 93 3c 49 3e 98 3c b4 a6 91 3d
       0.15853146 0.018058732 0.018584387 0.07111874
0001f0 01 ce a1 3d 21 d4 92 bd 60 4e 91 3d c8 33 0c 3e
       0.0790062 -0.07169367 0.07095027 0.13691628
000200 44 31 bf bd 78 d9 bd bc 46 e5 fd bd 2d ae 06 be
       -0.093355685 -0.023174986 -0.12397246 -0.1315238
000210 cc 99 a2 3c 37 b7 30 bc 0d a7 13 3d 70 2b a5 3d
       0.019848727 -0.010785869 0.036047984 0.08064926
000220 f4 86 0d be 90 d9 0b 3e 19 83 ee 3d 66 b3 2e 3d
       -0.13821012 0.13657212 0.11646099 0.042651556
000230 4d 5f 1a 3e df 92 1e 3e ce 1b 01 bd a7 14 df bd
       0.15075417 0.15485714 -0.031520657 -0.10892611
000240 99 58 38 3d a4 79 a2 bc b1 8e f8 bd 96 ab f8 bd
       0.04500637 -0.019833393 -0.12136591 -0.121421024
000250 2d f3 05 be b0 a8 1b 3e 3b 04 99 3c c2 73 cc bd
       -0.13081045 0.15201068 0.018678775 -0.099830166
000260 16 fc 27 3e 1e 0b 16 3e 66 7f a1 3d 30 37 0f bd
       0.16404757 0.14652678 0.078856274 -0.03496474
000270 5b 2b 00 3e d0 86 e6 3c 9e 1f af bd 82 85 58 3d
       0.12516539 0.028140455 -0.085509524 0.052861698
000280 6e 4d e6 bd 61 22 1b 3e b7 27 d1 3d b8 38 eb 3d
       -0.11245237 0.15149833 0.10212653 0.114854276
000290 bc 8d 96 3d 6a 91 92 3d f2 e2 17 be 85 8c 05 bc
       0.073512524 0.07156642 -0.14832667 -0.008151178
0002a0 50 a3 e4 bd c7 11 35 3d a9 79 1f be b8 f0 9b 3d
       -0.11163962 0.044206407 -0.15573753 0.07614273
0002b0 8c ca 89 bc a3 a2 71 3d dd b1 c8 3d 61 52 04 be
       -0.016820215 0.058992993 0.0979955 -0.1292205
0002c0 12 f4 89 3d 3a f6 90 3d 60 7c 94 bd f8 3f b3 3d
       0.06736006 0.07078214 -0.07250285 0.087524354
0002d0 28 7c ee bd 92 00 fc bd 80 fd 56 3d f0 33 65 3d
       -0.11644775 -0.12304796 0.05248785 0.055957735
0002e0 95 e5 d5 bd 33 eb 9a 3d af c5 f9 3d 12 38 a6 bd
       -0.1044418 0.07564392 0.12195908 -0.08116163
0002f0 a0 a6 cb 3b b2 81 2e 3d 47 96 bb bd c3 c4 1b be
       0.0062149316 0.042604156 -0.091595225 -0.15211777
000300 e1 8c 10 be 34 61 b0 3d 26 a3 bd bc 8b 53 76 bd
       -0.14116241 0.0861229 -0.023149084 -0.060138267
000310 88 7c a9 3d 95 b7 97 3c 06 3a c7 ba be d3 c6 bd
       0.082757056 0.018520156 -0.0015199787 -0.09708355
000320 34 86 fa bd 48 29 fa bd 06 9a 0c 3e 19 5d 17 bc
       -0.122326285 -0.12214905 0.1373063 -0.009238505
000330 db c9 c5 bd 32 8e 96 bd 25 c2 54 bd 38 ea 20 3e
       -0.096576415 -0.0735134 -0.051942963 0.15714347
000340 52 2f 4a bd a5 92 00 3e 80 82 a9 3c 41 c3 c0 3d
       -0.049361534 0.1255594 0.02069211 0.09412242
000350 3e 83 e5 3c 2a 94 91 3d b0 a5 d8 3d 2f d5 ea 3c
       0.028016683 0.07108338 0.105784774 0.028666107
000360 dc 77 73 3d c6 41 94 bd 6e fb 04 be 6b 23 ea bd
       0.05944048 -0.07239108 -0.12986538 -0.11432537
000370 71 44 05 be ef 8a 90 bd 28 eb 8c bd bc 2c f1 bd
       -0.1301439 -0.070577495 -0.0688079 -0.117761105
000380 e7 e0 8d 3d 32 d3 db 3c 29 e1 4f 3c d8 58 9f 3d
       0.06927662 0.026834104 0.01268796 0.077806175
000390 b7 48 aa 3d cb 65 cb bd f8 17 60 bd 16 62 15 3d
       0.083146505 -0.09931525 -0.05471036 0.036470495
0003a0 e8 c9 d8 bd 8e 8a 01 be 6b df 88 bd 5e 8c b5 3d
       -0.105853856 -0.1265051 -0.066832386 0.088646635
0003b0 db 94 65 3d 6d 35 19 3e 24 4b 23 3e cf 06 13 be
       0.056050163 0.14961787 0.15946633 -0.14358066
0003c0 5c f2 1f be 80 18 bc bb 60 26 14 be a0 9a 03 bd
       -0.15619797 -0.0057402253 -0.14467764 -0.032129884
0003d0 16 8b 0c 3e 35 31 8f bd bf c6 cb 3b 51 19 1e 3e
       0.13724932 -0.06991807 0.0062187607 0.15439345
0003e0 c8 33 90 bd 87 84 1b be 94 26 09 bd 90 6f 5b 3d
       -0.070411265 -0.15187274 -0.033484057 0.05357319
0003f0 b8 be 8a 3c 2c 17 d9 bd 2a d3 9f bd 37 a9 b6 bc
       0.016936645 -0.10600123 -0.07803948 -0.022297485
