models/mappo_best_stage2.pt (torch, 853735 bytes, 14 tensors)

log_std f4 [2]
0	0xbe301b17	-0.17197834
1	0xbd7ac9e8	-0.06122771

body.0.weight f4 [256, 13]
0	0xbe1d8fbe	-0.15386865
1	0x3e4b6a6c	0.19864815
2	0xbe05124c	-0.12995261
3	0x3e6c2166	0.23059615
4	0xbd389064	-0.045059577
5	0x3d484a10	0.048898757
6	0xbe6327d0	-0.22183156
7	0xbe175a49	-0.14780535
8	0x3e8a7d8d	0.27048913
9	0x3e835f2d	0.2565855
10	0x3d8149c4	0.06312898
11	0x3db46b6c	0.088095516
12	0xbe8ab7b2	-0.27093273
13	0x3e7757d6	0.241546
14	0xbe25d3ce	-0.16194078
15	0x3e3d2b5a	0.18473569
16	0xbe6297e0	-0.22128248
17	0x3e860d93	0.2618223
18	0xbe2c7732	-0.16842344
19	0x3e386160	0.18005896
20	0xbe2ea460	-0.17054892
21	0xbd84d086	-0.06485085
22	0xbe8a111c	-0.26966178
23	0xbe2326f0	-0.15932822
24	0x3d580ad8	0.052744716
25	0xbe26f31d	-0.16303678
26	0x3e42837c	0.1899547
27	0xbc02b342	-0.007977309
28	0xbea439dd	-0.32075396
29	0x3e832987	0.2561762
30	0x3e81ba7f	0.25337598
31	0xbdf8b3b8	-0.12143654
32	0xbe842ddc	-0.25816238
33	0x3ed7b00e	0.42126507
34	0xbe500ee8	-0.20318186
35	0x3df23b7c	0.11827752
36	0xbb83810b	-0.004013186
37	0x3e70b1ef	0.23505376
38	0xbe949c78	-0.29025626
39	0xbe939f24	-0.28832352
40	0x3db706ea	0.08936866
41	0xbe896307	-0.26833364
42	0x3e039da1	0.128531
43	0x3e193a20	0.14963579
44	0xbe276a94	-0.1634925
45	0x3d353b69	0.04424611
46	0x3e66ce05	0.22539528
47	0xbf027ee8	-0.50974894
48	0xbd4e920f	-0.05043226
49	0xbdab8e96	-0.083768055
50	0x3cf8ab9a	0.030355264
51	0xbe409ce7	-0.18809853
52	0x3ce0cfb0	0.027442783
53	0xbc976430	-0.01848039
54	0xbe5bda77	-0.21470056
55	0x3d3ea958	0.046548218
56	0xbe0605cd	-0.1308815
57	0x3ddffad8	0.109365165
58	0x3d8a78c8	0.067613184
59	0xbdb9395e	-0.09044145
60	0xbdd64060	-0.10461497
61	0xbc066540	-0.008202851
62	0x3dfd0b60	0.12355685
63	0xbe68ecfd	-0.22746654
64	0xbdef215a	-0.11676283
65	0xbd97f602	-0.07419969
66	0xbe391644	-0.180749
67	0x3d715f08	0.05892852
68	0xbc46df00	-0.012138128
69	0xbd2758a4	-0.04085602
70	0x3d2c5868	0.0420765
71	0x3cf58850	0.029972225
72	0x3d273e20	0.04083073
73	0x3e47cada	0.19510975
74	0x3e5d448e	0.21608183
75	0x3d45ec20	0.04832089
76	0xbe502e6c	-0.20330209
77	0xbd93fb10	-0.07225621
78	0x3d467763	0.0484537
79	0x3e9bff23	0.3046809
80	0xbed0713a	-0.40711385
81	0x3e9bc377	0.30422565
82	0xbdb01495	-0.08597676
83	0xbdf082f0	-0.11743724
84	0xbdb081a9	-0.08618481
85	0xbdb76190	-0.089541554
86	0x3e7993e2	0.24372819
87	0xbe36a11f	-0.178349
88	0xbe29cb62	-0.1658149
89	0xbe16b271	-0.14716507
90	0xbddcbff5	-0.107788004
91	0xbe87c32c	-0.26516092
92	0xbe8ec8b9	-0.27887514
93	0x3e1b3d55	0.15160115
94	0x3e16a5b8	0.14711654
95	0x3de98071	0.114014514
96	0xbd173e38	-0.03692457
97	0xbde1744c	-0.1100851
98	0xbcfc8049	-0.03082289
99	0x3e140de4	0.14458424
100	0xbe4855f7	-0.19564043
101	0x3e35d2e0	0.17756224
102	0xbe502f8c	-0.20330638
103	0x3e713ed1	0.23559119
104	0xbd211db2	-0.03933496
105	0x3e1472ae	0.14496872
106	0x3e6a4391	0.22877337
107	0xbdc4374a	-0.09580858
108	0xbdd413ab	-0.10355314
109	0x3b77209f	0.0037708653
110	0xbc1798e6	-0.009252762
111	0xbea56918	-0.32306743
112	0xbede858e	-0.4346127
113	0x3e2b0aaf	0.16703294
114	0xbeb71d15	-0.35764375
115	0x3d46cdc7	0.04853609
116	0xbe6f8e65	-0.23394163
117	0x3e3f5174	0.18683416
118	0x3e140ca6	0.1445795
119	0x3cd4b7f0	0.025966614
120	0xbe102622	-0.14077047
121	0xbd08baa0	-0.033381104
122	0x3e09fbbc	0.13474935
123	0x3debfb30	0.115225196
124	0xbe842a67	-0.258136
125	0x3e2af6c8	0.16695702
126	0x3e65f1de	0.22455546
127	0xbd022bc8	-0.031780034
128	0x3e86defb	0.26341996
129	0xbe18a008	-0.14904797
130	0xbd701c18	-0.058620542
131	0xbe8e840a	-0.27835113
132	0x3e3147e7	0.17312585
133	0xbecb03d2	-0.39651352
134	0x3e492f1d	0.19646879
135	0x3ea97ce8	0.33103108
136	0xbe61d01b	-0.22052042
137	0xbdca6ddc	-0.09884235
138	0x3e9f7168	0.3114121
139	0x3eb544de	0.35404104
140	0x3e875d3f	0.2643833
141	0x3dddce2a	0.10830338
142	0xbe05e320	-0.13074923
143	0x3e6e1afa	0.23252478
144	0xbe3d3602	-0.18477634
145	0xbe635171	-0.22199036
146	0xbe03c2dc	-0.12867302
147	0x3df60da4	0.120143205
148	0x3dda50c0	0.10659933
149	0xbe56b9c6	-0.20969304
150	0xbde95f22	-0.11395098
151	0xbe53d2fd	-0.20685954
152	0xbdecf82a	-0.11570771
153	0x3e1c3072	0.15252855
154	0x3e442f6a	0.19158712
155	0xbe87929d	-0.26479045
156	0xbe4b911e	-0.19879577
157	0x3d509e40	0.05093217
158	0x3e96408b	0.29346117
159	0x3e87ac96	0.2649886
160	0xbde30154	-0.11084238
161	0x3dd1b4ee	0.10239588
162	0xbd9e0c38	-0.07717174
163	0xbe1ed1e3	-0.15509753
164	0x3e0fec7c	0.14055055
165	0xbeca00ae	-0.39453644
166	0x3e991263	0.2989684
167	0x3c41d66a	0.011830905
168	0xbda5cc10	-0.080955625
169	0x3e772dc1	0.24138547
170	0x3e1b7fca	0.15185466
171	0x3d7e20bf	0.062042948
172	0x3cdbee54	0.026847042
173	0x3e878190	0.26466036
174	0xbd067a8d	-0.032831717
175	0x3cddf55b	0.027094534
176	0x3d976c41	0.07393695
177	0xbe5a171f	-0.21297882
178	0x3e846ae9	0.25862816
179	0x3e9f914c	0.3116554
180	0x3e37c764	0.17947155
181	0x3d58bd79	0.05291507
182	0xbe4001e2	-0.18750718
183	0xbe1357d8	-0.14388978
184	0xbed9d8e6	-0.42548293
185	0x3e0d2eed	0.13787432
186	0x3e9df1dd	0.3084859
187	0x3d8ed56e	0.06974302
188	0x3dc94759	0.098280616
189	0x3d2364a3	0.039890897
190	0xbeafd478	-0.34341788
191	0xbe62e368	-0.22157061
192	0x3d225c1b	0.03963862
193	0x3e50b747	0.20382415
194	0xbe093972	-0.1340082
195	0xbca4ce60	-0.020117939
196	0x3df58fb0	0.11990297
197	0x3e85f2f5	0.26161924
198	0x3d7e3938	0.062066287
199	0xbdb6114e	-0.08890019
200	0xbe52b1f9	-0.20575704
201	0x3e4d232a	0.20032945
202	0x3e05d638	0.13069999
203	0x3e7306ee	0.23733112
204	0x3e53fbd0	0.20701528
205	0xbe3fc280	-0.1872654
206	0x3d2dd0a0	0.04243529
207	0xbe771aa4	-0.24131256
208	0x3b230157	0.0024872625
209	0x3b82200f	0.003971107
210	0x3dc7cedb	0.097562514
211	0x3e0c7cff	0.13719557
212	0x3e73a368	0.23792803
213	0x3d1e0039	0.03857443
214	0xbe49b49e	-0.19697806
215	0xbe28d80e	-0.16488668
216	0x3e069206	0.13141641
217	0xbcc5a56c	-0.02412673
218	0x3e495a1d	0.19663282
219	0x3e0f52bb	0.13996403
220	0x3e0a7678	0.13521755
221	0x3bd4424d	0.00647763
222	0xbd8e18bc	-0.069383115
223	0x3d6cc961	0.057809237
224	0xbdaed506	-0.08536725
225	0xbdc56e2a	-0.09640153
226	0xbe2ba295	-0.16761239
227	0xbe2044c9	-0.1565124
228	0xbe5c9ea8	-0.21544898
229	0x3ed44ab7	0.41463253
230	0xbd1a9624	-0.03774084
231	0xbe070249	-0.13184465
232	0x3e60508d	0.21905728
233	0x3e708f15	0.23492081
234	0x3de88bfd	0.11354826
235	0x3dcbf8c5	0.099595584
236	0xbda7ca01	-0.08192826
237	0xbcf0efa6	-0.029411148
238	0xbe280b48	-0.16410553
239	0x3c6b100f	0.01434709
240	0x3d8acdf7	0.06777566
241	0x3d911b9a	0.07085343
242	0xbe443e24	-0.1916433
243	0xbe18b6ec	-0.14913529
244	0x3d33018f	0.04370266
245	0xbe2b6f41	-0.16741659
246	0x3d094c5b	0.033520084
247	0xbe3ececb	-0.18633573
248	0xbccd404c	-0.025055073
249	0xbe7fe5b7	-0.24989973
250	0x3e24dab6	0.16099057
251	0x3e3b70ad	0.18304701
252	0x3dd52c80	0.10408878
253	0xbe0c3c5f	-0.13694905
254	0x3ec8e29b	0.39235386
255	0x3daa10b4	0.08303967

body.0.bias f4 [256]
0	0xbd70b1a0	-0.058763146
1	0xbe50fef0	-0.20409751
2	0x3e27f699	0.16402663
3	0x3e35f117	0.1776775
4	0x3df24b54	0.11830774
5	0x3d11d1b0	0.035600364
6	0x3e44f465	0.19233854
7	0xbdb39b1a	-0.08769818
8	0x3e3dbb8a	0.18528572
9	0xbe8564a7	-0.26053354
10	0x3df560d4	0.11981359
11	0xbe14792f	-0.14499353
12	0x3dd57547	0.104227595
13	0xbe747b8a	-0.23875251
14	0xbd079e3c	-0.03310989
15	0xbdc7de6e	-0.09759222
16	0xbde32da1	-0.110926874
17	0xbe391c89	-0.18077292
18	0xbc9caee4	-0.019126363
19	0x3c6fa3b1	0.014626429
20	0x3c87ab70	0.01656124
21	0xbd9933bc	-0.07480571
22	0x3e2c8657	0.16848122
23	0xbca62b17	-0.020284219
24	0x3d20ee4f	0.03928977
25	0xbcb32758	-0.021869346
26	0xbe86d6c6	-0.26335734
27	0xbe5d723f	-0.21625613
28	0xbcb6c2bf	-0.022309659
29	0x3d728852	0.059212036
30	0xbe534c4f	-0.20634578
31	0xbe878a83	-0.26472864
32	0x3e5369e1	0.20645858
33	0xbe2bcff2	-0.16778544
34	0x3d5723ad	0.052524257
35	0xbe8331b5	-0.2562386
36	0xbdcce853	-0.1000525
37	0x3ddb895a	0.10719557
38	0xbd5f7795	-0.0545574
39	0xbe32fdd6	-0.17479643
40	0xbd697098	-0.056992143
41	0xbc909f00	-0.017653942
42	0x3c9df1aa	0.019280273
43	0x3deb8b50	0.11501181
44	0xbd587f34	-0.052855685
45	0x3e538385	0.2065564
46	0xbe7217c5	-0.2364188
47	0x3e6adf39	0.22936715
48	0x3e27a833	0.16372757
49	0x3dfb0022	0.12255885
50	0x3e6385f9	0.22219075
51	0xbddf6b30	-0.10909116
52	0x3de93e30	0.113888144
53	0x3d39a8ca	0.045326985
54	0x3ccb9d15	0.024855176
55	0xbd6f5388	-0.05842927
56	0x3e55cc30	0.20878673
57	0x3e113174	0.14179021
58	0xbd589914	-0.05288036
59	0x3d8a3f54	0.0675036
60	0xbe33ee6e	-0.17571422
61	0xbe005469	-0.125322
62	0x3e5037e3	0.20333819
63	0x3e65b7c9	0.2243339
64	0xbe8a05ed	-0.26957646
65	0xbe8b1b57	-0.27169296
66	0x3e80b493	0.25137767
67	0x3e3b9ebf	0.18322276
68	0x3e690cba	0.22758761
69	0x3d199850	0.037498772
70	0xbe3dca45	-0.18534191
71	0xbe86bcc0	-0.2631588
72	0xbe596782	-0.21230891
73	0xbd7296c5	-0.059225816
74	0xbe11a12e	-0.14221641
75	0x3e7b1deb	0.24523132
76	0x3e35483e	0.1770334
77	0x3d7f0d20	0.062268376
78	0xbe1054b7	-0.14094816
79	0xbdd9dfd2	-0.106383935
80	0xbd26d714	-0.04073246
81	0xbd09e2b5	-0.03366347
82	0x3e80a2e7	0.25124285
83	0xbe23e8a9	-0.16006722
84	0xbcba94a0	-0.022775948
85	0x3905e44a	0.00012768913
86	0xbd384b3c	-0.044993624
87	0xbdfaa3e8	-0.12238294
88	0xbe39eda3	-0.18157057
89	0xbded89f2	-0.115985766
90	0xbe0211d4	-0.12702113
91	0xbe129b61	-0.14317085
92	0x3e4a0f50	0.19732404
93	0xbe7dc799	-0.24783172
94	0x3e26d3a8	0.16291678
95	0xbe74ef30	-0.23919368
96	0xbe692cc1	-0.22770979
97	0xbd2b563a	-0.04183028
98	0x3d881ce0	0.066461325
99	0xbe3e133a	-0.18562022
100	0xbaf69d08	-0.001881511
101	0xbd8e8a8e	-0.06960021
102	0x3dff68e7	0.124711804
103	0xbd7108bf	-0.05884623
104	0xbcfcca60	-0.030858219
105	0xbbe4a78a	-0.00697798
106	0x3e12a97f	0.1432247
107	0xbe03305a	-0.12811413
108	0xbe02fa2c	-0.12790745
109	0x3e1862ac	0.1488139
110	0xbdbd730a	-0.092504576
111	0x3c8212c2	0.015878085
112	0x3d1fd358	0.039019912
113	0xbe7875cc	-0.24263686
114	0xbc0a6344	-0.008446518
115	0xbe2f0b79	-0.1709422
116	0x3c62ac3e	0.013835011
117	0xbd9fab71	-0.07796372
118	0x3e4bbfda	0.19897404
119	0x3e0746ef	0.13210653
120	0xbd027de0	-0.031858325
121	0x3e28c058	0.16479623
122	0x3e1f2160	0.15540075
123	0x3e6be5c7	0.23036872
124	0x3df86598	0.121287525
125	0xbe590e97	-0.21196972
126	0x3bc248ab	0.005929073
127	0x3e369398	0.1782974
128	0x3e30176c	0.17196435
129	0xbe0bf5db	-0.13668005
130	0x3e5180fe	0.20459363
131	0xbd80379f	-0.06260609
132	0xbe17c80c	-0.14822406
133	0xbe55b801	-0.20870973
134	0xbce702e0	-0.028199613
135	0xbe02baca	-0.12766567
136	0x3e1089f0	0.14115119
137	0xbe8bf441	-0.27334788
138	0x3e4097b2	0.18807867
139	0xbe1e49d6	-0.15457854
140	0xbd9c0952	-0.07618965
141	0xbdef8da9	-0.116969414
142	0x3dfb178f	0.12260353
143	0x3d2a8c45	0.041637678
144	0xbd012b2c	-0.031535313
145	0x3d152760	0.036414504
146	0x3cde3e88	0.027129427
147	0x3dd83571	0.10557068
148	0xbd3a7e0c	-0.045530364
149	0x3d033724	0.032035008
150	0xbb0f25df	-0.0021842641
151	0x3db1f8b7	0.08690017
152	0xbdbea7fd	-0.09309385
153	0xbe375d61	-0.17906715
154	0x3e0c1f99	0.13683929
155	0x3e1d165f	0.15340565
156	0xbd64c87d	-0.055855263
157	0xbca1ce60	-0.019751728
158	0xbe7bc95a	-0.24588528
159	0xbd690b3e	-0.056895487
160	0xbe3f4120	-0.18677187
161	0x3e010a2d	0.12601538
162	0xbe5dcd88	-0.21660435
163	0x3e60b2fc	0.21943277
164	0xbd5893ef	-0.052875455
165	0xbdc45d67	-0.095881276
166	0xbdce5530	-0.10074842
167	0x3e121310	0.14265084
168	0xbe550ab2	-0.20804861
169	0x3d0b3191	0.033982817
170	0x3e0fc760	0.140409
171	0x3e2d8f9a	0.16949311
172	0xbd8bcc7a	-0.0682611
173	0xbe0c5f4f	-0.13708232
174	0x3d4abcd8	0.0494965
175	0x3e1a37b7	0.15060316
176	0x3e214c4c	0.15751761
177	0x3e10d0b2	0.14142111
178	0x3dbf28a8	0.093339264
179	0x3e015178	0.12628734
180	0x3e5a9082	0.21344188
181	0x3de52462	0.1118858
182	0x3dd8ed08	0.10592085
183	0x3e71bb8e	0.23606703
184	0x3e3f24fa	0.18666449
185	0x3e0e1573	0.1387537
186	0xbdeba55c	-0.11506149
187	0x3c85c4ac	0.016329132
188	0xbd32316a	-0.043504156
189	0x3e194591	0.14967944
190	0xbe6ddd05	-0.23228844
191	0xbde95a4c	-0.11394176
192	0xbd71788c	-0.058952853
193	0xbe5873e5	-0.2113796
194	0xbdc43f33	-0.09582367
195	0xbe860a58	-0.26179767
196	0xbe697d9e	-0.22801825
197	0xbe87c2c4	-0.26515782
198	0x3d30bf16	0.043150984
199	0x3e2bdbed	0.16783114
200	0x3da52dbc	0.08065364
201	0x3d74dca3	0.059780728
202	0x3e3d53bf	0.18488978
203	0x3e41cd2d	0.18925925
204	0x3e1c0947	0.15237914
205	0x3e05b630	0.1305778
206	0xbdcb0386	-0.099127814
207	0x3db29f2f	0.08721768
208	0xbe0c1bda	-0.136825
209	0xbe31af0a	-0.17351928
210	0x3df7fe50	0.12109053
211	0xbdb358fe	-0.08757208
212	0x3e246a1c	0.16056103
213	0xbe739e8a	-0.23790947
214	0x3e05f87d	0.13083072
215	0x3dae0ffa	0.08499141
216	0xbd6d8455	-0.05798753
217	0xbe8a3d7a	-0.27000028
218	0x3e679544	0.22615534
219	0x3b703413	0.0036652132
220	0x3d5d9230	0.054094493
221	0xbe598fcd	-0.21246262
222	0xbc505600	-0.0127158165
223	0xbe4b9d88	-0.19884312
224	0x3e183748	0.14864838
225	0x3d0d22fd	0.034457196
226	0xbdd5b6ee	-0.10435282
227	0xbdebd9d6	-0.11516158
228	0xbe8bea22	-0.27327067
229	0x3e43ea41	0.1913233
230	0x3d4e9dc8	0.05044344
231	0x3e8fa787	0.280575
232	0xbe59776f	-0.21236967
233	0xbe47ef78	-0.19524944
234	0x3e765d27	0.24058972
235	0xbe3fe66d	-0.18740244
236	0x3c83f362	0.016107265
237	0xbe37c008	-0.17944348
238	0x3d309881	0.04311419
239	0xbd8f3b8e	-0.06993781
240	0x3de44515	0.11145989
241	0x3bff06ce	0.0077827936
242	0xbe0e1855	-0.1387647
243	0xbe51359a	-0.20430604
244	0x3c28193e	0.010259924
245	0x3df21e13	0.118221425
246	0xbd9e4286	-0.07727532
247	0x3e7e9574	0.248617
248	0x3dfe5f41	0.12420512
249	0x3e241570	0.16023803
250	0xbe2e947b	-0.17048828
251	0x3ddaf9d8	0.10692185
252	0xbe7c6c6a	-0.24650732
253	0xbcdebeb7	-0.02719055
254	0x3e628f40	0.22124958
255	0xbe716f7d	-0.23577686

body.2.weight f4 [256, 256]
0	0x39872f00	0.00025784224
1	0xbc472718	-0.012155317
2	0xbd0f4bd8	-0.03498444
3	0x3c73f0fa	0.014888996
4	0xbc2e1c88	-0.01062692
5	0x3be03030	0.006841682
6	0xbbee4460	-0.0072713345
7	0x3c6e1fab	0.014533917
8	0x3d370be1	0.044689063
9	0x3d491f7a	0.049102284
10	0x3cbe7b77	0.023252232
11	0x3c97db0c	0.018537067
12	0x3d210323	0.039309632
13	0xbd1ae440	-0.037815332
14	0x3d024262	0.03180159
15	0x3c9788cc	0.018497847
16	0xbc662f4b	-0.014049361
17	0xbcaa4f71	-0.020789834
18	0xbc49cad0	-0.012316421
19	0x3d15735d	0.036486972
20	0xbd68c6b8	-0.056830138
21	0x3d3267dc	0.04355608
22	0xbbb2dc34	-0.005458379
23	0xbd073c40	-0.033016443
24	0xbce80ba4	-0.028325863
25	0xbd7dfb42	-0.062007196
26	0xbc8924ec	-0.016741239
27	0xbd6b62fe	-0.057467453
28	0xbcf62538	-0.030047044
29	0x3d21c236	0.039491855
30	0x3d5303f4	0.051517442
31	0xbd07c96a	-0.033151068
32	0x3d009ac0	0.03139758
33	0xbc800b28	-0.01563032
34	0x3c0bedf8	0.008540623
35	0xbd69f4c0	-0.057118177
36	0xbcdb583f	-0.026775477
37	0x3c2bb8d8	0.010481082
38	0x3d122490	0.0356794
39	0xbd4c5409	-0.04988483
40	0x3d4a5ac4	0.049402967
41	0xbd6e5cde	-0.058194034
42	0x3d01d104	0.031693473
43	0xbc1cd438	-0.009572081
44	0xbcda1adc	-0.026624136
45	0x3c51c569	0.012803414
46	0xbc1d5228	-0.009602107
47	0xbc314cac	-0.010821503
48	0x3d14cfe0	0.036331058
49	0x3d361200	0.04445076
50	0x3ad9c2bd	0.0016613823
51	0x3c614abe	0.01375073
52	0x3ab81e80	0.0014047176
53	0x3c46f99b	0.0121444715
54	0xbc5120be	-0.012764154
55	0x3cdbea34	0.026845075
56	0xbcfb37b6	-0.030666213
57	0xbc3ebfbd	-0.011642394
58	0xbc5c1705	-0.013433223
59	0x3d44cd83	0.048047554
60	0xbd7bdc10	-0.061489165
61	0xbd6221c5	-0.055207986
62	0x3d561916	0.052270018
63	0x3cd81bf8	0.026380524
64	0x3c1eb120	0.009685785
65	0x3b1740e0	0.002307944
66	0x3d22489c	0.039620027
67	0x3b8c62a0	0.004284218
68	0xbc94d311	-0.01816705
69	0x3d246a00	0.040140152
70	0x3cedd5f5	0.029032687
71	0xbc8645bc	-0.016390674
72	0x3c8db930	0.017300218
73	0x3d2ac64c	0.041693017
74	0x3ccbe49c	0.024889283
75	0xbd1c38d8	-0.038140148
76	0x3bd74f50	0.006570734
77	0x3bc35c80	0.0059619546
78	0x3d1d8605	0.03845789
79	0x3d054208	0.032533675
80	0xbd40478c	-0.046943232
81	0x3c021a80	0.007940888
82	0xbbba5a04	-0.005687
83	0x3c292610	0.010324016
84	0xbd318a30	-0.043344676
85	0xbd6cccfe	-0.057812683
86	0xbd12008e	-0.03564506
87	0x3ad270b4	0.0016055317
88	0x3d5b7e38	0.05358717
89	0xbc7963f3	-0.015221584
90	0xbca49edc	-0.020095281
91	0xbc726000	-0.014793396
92	0xbce23b08	-0.027616039
93	0xbce670d4	-0.028129973
94	0xbba13b96	-0.0049204333
95	0xbc595ca8	-0.01326672
96	0xbd15fbe2	-0.036617167
97	0x3d2c2d59	0.042035434
98	0x3d2f673c	0.04282306
99	0x3d36a8de	0.044594638
100	0x3d27e385	0.040988464
101	0xbc0b0350	-0.0084846765
102	0xbd6fed67	-0.058576014
103	0xbc9cfb40	-0.019162774
104	0x3c285b20	0.010275632
105	0xbd0c924e	-0.034319215
106	0xbd8c6ec6	-0.06857066
107	0x3c90f730	0.017695993
108	0xbc14108b	-0.009037147
109	0x3cdce31d	0.026963765
110	0x3cf447b3	0.029819345
111	0x3cf0ff77	0.02941869
112	0xbd6bd540	-0.057576418
113	0x3c85f800	0.016353607
114	0x3cd7bb3e	0.026334401
115	0xbd35598e	-0.04427486
116	0xbc4c8c5a	-0.012484634
117	0xbd65c902	-0.0560999
118	0x3cf79600	0.030222893
119	0xbd32d4d8	-0.043660015
120	0xbc0fcd4f	-0.008776977
121	0xbc49fe7d	-0.012328741
122	0xbca93b8b	-0.020658275
123	0xbd731449	-0.059345517
124	0x3c48f630	0.012265727
125	0xbc594108	-0.013260134
126	0xbd364908	-0.04450324
127	0xbd38d106	-0.045121215
128	0x3c8857a3	0.016643351
129	0xbcba82b9	-0.022767412
130	0xbd5477b8	-0.051871985
131	0x3b75064d	0.0037387789
132	0x3c9d8270	0.019227237
133	0x3aac6d00	0.0013155043
134	0x3d5cf4da	0.053944446
135	0x3d611cc4	0.054959074
136	0x3d0d81b4	0.034547523
137	0xbc6d4a88	-0.014483102
138	0xbd7a5820	-0.0611192
139	0xbd637163	-0.055528056
140	0xbd3a1409	-0.045429263
141	0xbc5e5020	-0.013568908
142	0x3cb7d6a4	0.022441216
143	0x3bf76d17	0.0075508463
144	0xbcd60c24	-0.026128836
145	0xbc1a14c0	-0.009404361
146	0x3d0813e1	0.033222083
147	0x3d5c7007	0.053817775
148	0x3bf112a0	0.0073569566
149	0xbd77589a	-0.06038723
150	0xbd8ef056	-0.06979434
151	0xbc82bfec	-0.015960656
152	0x3c8501a8	0.016236141
153	0xbbcb30ad	-0.006200871
154	0xbd48e5d0	-0.04904729
155	0x3d21ded5	0.03951915
156	0xbcb95a02	-0.022625927
157	0xbd41f0ff	-0.047348972
158	0x3caa372c	0.020778261
159	0x3d47b092	0.048752375
160	0x3ab39d00	0.0013703406
161	0x3cb372ae	0.02190527
162	0x3d40eefe	0.04710292
163	0xbd0eeb2e	-0.034892254
164	0xbcfd4728	-0.030917719
165	0x3cc957ae	0.024577942
166	0x3cd5e13c	0.026108377
167	0x3d6d2fc4	0.05790688
168	0xbbe46610	-0.0069701746
169	0xbd469da2	-0.048490174
170	0xbc084058	-0.008316122
171	0xbd4e4ade	-0.050364368
172	0xbd59dc42	-0.05318857
173	0xbd3113ca	-0.043231763
174	0xbd75007e	-0.059814923
175	0xbd388d81	-0.045056824
176	0xbb935fd8	-0.0044975094
177	0xbd0ba6f9	-0.034094784
178	0xbd841a89	-0.06450374
179	0xbd7c3b22	-0.06157983
180	0xbcf8ef90	-0.03038767
181	0xbd287744	-0.041129366
182	0xbc4df192	-0.012569802
183	0x3bd41e24	0.0064733196
184	0x3c9c7498	0.019098565
185	0xbd79abc0	-0.06095481
186	0x3bdec350	0.0067981854
187	0xbd882274	-0.066471964
188	0xbd56498c	-0.052316234
189	0xb9dbbc6f	-0.0004191133
190	0x3d396128	0.04525867
191	0xbd2d8b64	-0.04236926
192	0x3b35d1a0	0.0027743354
193	0xbade5900	-0.001696378
194	0xbb886030	-0.004161857
195	0x3d6d7b44	0.057978883
196	0x3cc8272c	0.024432741
197	0xbd76a416	-0.06021508
198	0xbcc01d4a	-0.023451466
199	0x3c970591	0.018435271
200	0x3c7cb35d	0.015423623
201	0x3bcb57b0	0.0062055215
202	0xbc2ffbc5	-0.010741179
203	0xbd6d33b5	-0.05791064
204	0x3d11bbc3	0.035579454
205	0x3d21d3f3	0.03950877
206	0x3cce74c4	0.025202163
207	0xbc643e35	-0.013930847
208	0xbcbbf9b4	-0.022946216
209	0xbd420e1a	-0.04737673
210	0x3c8557c0	0.016277194
211	0x3b501397	0.0031749958
212	0xbd462025	-0.0483705
213	0xbbab93e0	-0.005236134
214	0x3b4908ac	0.0030675335
215	0xbd4c9931	-0.049950782
216	0x3c4d1fbd	0.012519774
217	0xbc058f90	-0.008151904
218	0xbd168c9c	-0.03675519
219	0x3c00bdc8	0.007857747
220	0xbd61d516	-0.055134855
221	0xbc99581c	-0.018718772
222	0xbd4b49a6	-0.049630783
223	0x3d215aba	0.039393164
224	0x3d2aa9f6	0.041665994
225	0xbd00aeae	-0.031416588
226	0xbbb9b960	-0.0056678504
227	0xbd108fc8	-0.03529337
228	0x3c2c3fe0	0.010513276
229	0xbd04256e	-0.03226226
230	0xbd8d4bd8	-0.06899232
231	0x3d1b44ef	0.037907537
232	0xbcf9ec54	-0.030508198
233	0xbceffc60	-0.029295146
234	0xbd2f4407	-0.042789485
235	0x3cd2bbf0	0.025724381
236	0x3cec90d9	0.028877662
237	0x3ccc211c	0.024918132
238	0xbd13f3b1	-0.036121074
239	0x3d5329c0	0.051553488
240	0x3b57ddf5	0.0032938693
241	0xbc2f1cb8	-0.010687999
242	0x3cda0480	0.026613474
243	0xbceac7dc	-0.028659754
244	0xbd6d8c3c	-0.057995066
245	0xbd221238	-0.039568156
246	0x3bc96a06	0.006146672
247	0xbd29e040	-0.041473627
248	0xbd5da23d	-0.0541098
249	0xbd2778e2	-0.040886767
250	0x3be394b0	0.006945215
251	0x3d0e625f	0.034761783
252	0x3d21439a	0.03937111
253	0x3cb8ef14	0.022574939
254	0x3d21fce3	0.039547812
255	0x3d42fc9a	0.04760418

body.2.bias f4 [256]
0	0xbcdeee5b	-0.027213266
1	0xbd513cf6	-0.051083528
2	0xbc341b62	-0.010992857
3	0xbd6ef1dc	-0.058336124
4	0xbbb358d9	-0.005473238
5	0x3d3d8ebe	0.046278708
6	0xbd366d48	-0.044537812
7	0x3d031aa9	0.032007847
8	0xbc951257	-0.018197222
9	0xbd56e208	-0.052461654
10	0x3cda0a13	0.026616132
11	0xbd1ffb0a	-0.03905777
12	0x3c1a0955	0.009401639
13	0xbd6eac3c	-0.058269724
14	0xbcdbc768	-0.026828483
15	0xbcf623db	-0.030046394
16	0x3c0ba0ae	0.008522196
17	0xbb851d94	-0.004062364
18	0xbd43d20e	-0.047807746
19	0xbd210d51	-0.03931934
20	0xbd59656e	-0.053075247
21	0xbcade8f6	-0.021229248
22	0x3bafeea2	0.0053690234
23	0xbc0133de	-0.007885901
24	0xbd105844	-0.035240427
25	0xbd5fbcc8	-0.054623395
26	0xbc055d60	-0.008139938
27	0x3d683573	0.0566916
28	0xbc214d35	-0.009845068
29	0xbc9715d4	-0.018443026
30	0xbb89efdf	-0.004209503
31	0xbc3aed46	-0.011409109
32	0x3cb98da4	0.022650547
33	0xbc41ca2f	-0.0118279895
34	0xbc891070	-0.01673147
35	0xbd32ceb4	-0.04365416
36	0xbbae91e0	-0.0053274482
37	0x3b1a22c1	0.002351925
38	0xbc828760	-0.015933692
39	0xbcd5ab7f	-0.026082752
40	0xbd066fe9	-0.03282157
41	0xbd4bcc0c	-0.04975514
42	0x3cfd0ebc	0.030890815
43	0xbd6acf7c	-0.05732678
44	0xbc24d727	-0.010061062
45	0x3c9e963d	0.019358749
46	0x3d3a91be	0.045549147
47	0x3d50e203	0.05099679
48	0x3bdbb2ec	0.0067046788
49	0xbba5c8db	-0.005059344
50	0x3c8a8c0d	0.016912485
51	0x3cfccfae	0.030860748
52	0x3cd79f7a	0.026321162
53	0xbd1a6a6a	-0.03769914
54	0x3d648159	0.055787418
55	0xbd319a0c	-0.0433598
56	0x3d359fea	0.04434196
57	0xbd883b6c	-0.06651959
58	0xbd45ba2a	-0.048273243
59	0x3bd478e0	0.006484136
60	0xbb177b38	-0.0023114216
61	0x3d20d4a9	0.03926531
62	0xbd7a349b	-0.061085325
63	0x3d756c8b	0.059917968
64	0x3c97e7a7	0.018543078
65	0xbd11d814	-0.03560646
66	0x3d5cad68	0.05387631
67	0xbd5a6dd0	-0.05332738
68	0xbd3bfe32	-0.045896716
69	0xbc1eb833	-0.009687471
70	0xbd8512b3	-0.06497707
71	0x3d67ea1f	0.05661976
72	0x3d088d5e	0.033337943
73	0x3caf436b	0.021394452
74	0xbd27fb51	-0.04101116
75	0x3d1a2c54	0.03763993
76	0xbc9af6ce	-0.018916514
77	0x3ac4bbc0	0.0015009567
78	0xbd6b6533	-0.057469558
79	0x3c67e67f	0.014154076
80	0x3c990e1d	0.018683488
81	0x3d19fb9c	0.03759347
82	0x3d4c0cc3	0.049816858
83	0x3d567f49	0.052367482
84	0xbc9b982c	-0.01899346
85	0x3cc96838	0.024585828
86	0xbcd4b2fb	-0.02596425
87	0xbc36b770	-0.011152133
88	0xbd330c28	-0.043712765
89	0x3c1c7ed3	0.009551722
90	0xbd555baa	-0.05208937
91	0xbc678419	-0.014130616
92	0xb9d8df00	-0.00041364878
93	0xbd64997c	-0.055810437
94	0xbd774772	-0.06037087
95	0x3b9b29aa	0.0047351914
96	0xbb8d80e0	-0.0043183416
97	0x3d3d2082	0.04617358
98	0x3d83c6d5	0.064344086
99	0xbd5b386c	-0.053520605
100	0x3d392f6d	0.045211244
101	0xbd8ae64e	-0.067822084
102	0x3c224180	0.009903312
103	0xbba18ef7	-0.004930373
104	0xbc96454a	-0.018343586
105	0xbcc38125	-0.023865292
106	0xbacec60a	-0.0015775573
107	0x3ca26661	0.019824209
108	0xbd119741	-0.035544638
109	0xbd39a7cf	-0.04532605
110	0xbb3bc680	-0.002865225
111	0xbcf593c3	-0.029977685
112	0xbd40aaa8	-0.04703775
113	0x3d55ea9f	0.052225705
114	0xbcb03092	-0.021507535
115	0xbd8a4853	-0.06752076
116	0x3c7b577b	0.015340681
117	0x3b735fb8	0.003713591
118	0x3b32a5d9	0.0027259497
119	0xbd36a46c	-0.0445904
120	0xbd568f43	-0.05238272
121	0xbd534699	-0.051581
122	0xbcff4736	-0.031161886
123	0x3b62da07	0.0034614818
124	0xbcc25a11	-0.023724588
125	0xbd6ce967	-0.057839777
126	0xbd3e6054	-0.046478584
127	0x3d322b26	0.04349818
128	0x3c76b199	0.015056991
129	0x3d39ebc4	0.04539086
130	0x3cda9dba	0.026686538
131	0x3cf4404a	0.029815812
132	0xbcccf0f0	-0.025017232
133	0x3d0d2eed	0.03446858
134	0x3d05e553	0.032689404
135	0x3ca1ab03	0.019734865
136	0xbd524978	-0.051339597
137	0x3d543d6a	0.05181638
138	0x3d88906c	0.06668171
139	0x3c97f158	0.018547699
140	0xbd3f7cf0	-0.04675001
141	0x3d11f6e4	0.035635844
142	0xbd68bc01	-0.05681992
143	0xbd76821b	-0.060182672
144	0x3d5e69ca	0.054300107
145	0x3d543deb	0.051816862
146	0x3ceaf376	0.028680544
147	0xbd2fc1fe	-0.042909615
148	0xbd374654	-0.044744805
149	0x3c81ee66	0.015860748
150	0xbca1ac8e	-0.0197356
151	0xbd627540	-0.0552876
152	0x3d0b874e	0.034064583
153	0xbd2ae46f	-0.041721758
154	0x3d3673a9	0.044543896
155	0xbbf53fd9	-0.007484418
156	0x3cd9947a	0.026560057
157	0x3cebedb1	0.028799864
158	0x3d639056	0.05555757
159	0xbd4deb55	-0.05027326
160	0xbd17df6d	-0.03707831
161	0xbbe2e9ec	-0.0069248583
162	0x3d49534d	0.049151707
163	0x3c90a5be	0.017657157
164	0x3d0ff551	0.03514606
165	0xbc95e8ab	-0.018299421
166	0x3d0a1ad4	0.03371699
167	0x3bf3e96e	0.0074435985
168	0xbd27d446	-0.040973924
169	0xbcb4bc7a	-0.022062529
170	0x3d243fd5	0.040099937
171	0x3bc934c0	0.0061403215
172	0x3c9d7819	0.019222306
173	0x3d366b2a	0.044535793
174	0x3cee407e	0.029083487
175	0xbccff687	-0.025386108
176	0xbbe42a32	-0.006963038
177	0xbc2e9d8a	-0.010657677
178	0x3d067270	0.03282398
179	0x3c2d04de	0.010560242
180	0x3ce1733c	0.027520768
181	0x3d2f9e53	0.0428756
182	0x3b416be3	0.0029513768
183	0x3c2f1a01	0.010687352
184	0x3d40b8f0	0.04705137
185	0x3c16f1fa	0.009212965
186	0xbb98b590	-0.004660316
187	0x3d92de46	0.071713015
188	0xbd34e97f	-0.04416799
189	0xbd511856	-0.0510486
190	0xbc5f9d60	-0.013648361
191	0xbb318c42	-0.0027091657
192	0xbcd0e43c	-0.025499456
193	0xbd4e1ef8	-0.050322503
194	0x3c83ac43	0.016073352
195	0xbbd6bdfe	-0.0065534106
196	0x3d24f5ba	0.040273406
197	0xbd5c2236	-0.053743564
198	0xbd0d9b4a	-0.034571923
199	0xbd37eedc	-0.04490553
200	0xbd669efb	-0.05630396
201	0x3d1ac103	0.037781727
202	0xbd447a2a	-0.047968067
203	0xbd1fd4d0	-0.039021313
204	0x3c4bcf5f	0.012439578
205	0xbc9781a7	-0.01849444
206	0x3ce87095	0.028373996
207	0x3d23c2f9	0.039980862
208	0xba4cb03c	-0.00078082434
209	0xbd1b8c20	-0.03797543
210	0xbd0c96ac	-0.03432338
211	0xbc5b79ed	-0.013395769
212	0xbd15b398	-0.036548227
213	0xbc9f5c2d	-0.019453133
214	0x3d0582a3	0.032595288
215	0xbced37ad	-0.028957212
216	0x3c8fe5dd	0.017565662
217	0xbcf1ee0e	-0.029532459
218	0xbd46ac5b	-0.048504215
219	0x3c89d0d7	0.016823215
220	0x3c9c2924	0.019062586
221	0x3d61fae4	0.05517091
222	0xbd15a162	-0.03653086
223	0xbcfb47ec	-0.030673943
224	0x3c908f5c	0.017646484
225	0x3b2d6592	0.0026458246
226	0x3c4d74b0	0.0125400275
227	0xbd14db62	-0.036342032
228	0xbcff8738	-0.031192407
229	0xbc5c1cb8	-0.013434581
230	0x3d7506e1	0.059821013
231	0x3d4324b8	0.04764244
232	0x3ca8a321	0.020585598
233	0x3d20e374	0.039279416
234	0xbd3aa884	-0.045570865
235	0xbd314ae4	-0.043284312
236	0x3c453e25	0.012038742
237	0x3ce4efe3	0.027946418
238	0xbd843f83	-0.064574264
239	0x3d31edd1	0.04343969
240	0xbd022dd6	-0.031781994
241	0x3d1bbdab	0.03802268
242	0x3d4caa36	0.049967013
243	0xba82743e	-0.0009952856
244	0xbcab1226	-0.020882677
245	0xbd4606e3	-0.04834641
246	0x3acb141a	0.0015493662
247	0x3c237378	0.00997626
248	0xbcac5140	-0.021034837
249	0x3c738490	0.014863148
250	0xbd762b3c	-0.060099825
251	0xbcd935e1	-0.02651495
252	0xbd818830	-0.06324804
253	0x3c8b17f1	0.01697919
254	0x3cce8c2f	0.02521333
255	0x3abf2337	0.0014582638

mu_head.weight f4 [2, 256]
0	0x3d493ab9	0.049128268
1	0xbcfe6f68	-0.031058982
2	0xbd5c3416	-0.05376061
3	0xbcecc530	-0.02890262
4	0xbbf9631f	-0.007610693
5	0xbda96594	-0.082713276
6	0xbd319b9e	-0.0433613
7	0x3c89b22a	0.016808588
8	0xbc02d6a4	-0.007985745
9	0xbcedfec3	-0.029052144
10	0xbda08b9b	-0.07839128
11	0xbcea35d8	-0.028590128
12	0xbd1e6fef	-0.038680967
13	0x3c328efa	0.010898346
14	0xbd711204	-0.05885507
15	0xbd431892	-0.047630854
16	0x3b156519	0.0022795855
17	0x3cd1a1b7	0.025589807
18	0x3c50b648	0.012738772
19	0xbc9fe0c3	-0.019516354
20	0xbd5a2d62	-0.053265937
21	0xbd2cb630	-0.042165935
22	0x3d0c8848	0.034309655
23	0xbcf2ea3a	-0.029652704
24	0xbde2d2c0	-0.110753536
25	0x3d62d97a	0.055383183
26	0xbc9690fc	-0.01837968
27	0x3d0a7808	0.033805877
28	0xbd173e14	-0.036924437
29	0xbcd76b20	-0.026296198
30	0x3dca3560	0.09873462
31	0x3d9d770e	0.076887235
32	0xbc909634	-0.017649747
33	0xbd259a01	-0.040430073
34	0x3c4c638d	0.012474907
35	0xbd4c6a86	-0.049906276
36	0xbd501ebe	-0.050810568
37	0x3d073888	0.033012897
38	0x3c9f7dbf	0.01946914
39	0xbc7689e3	-0.015047523
40	0x3b4088e4	0.0029378468
41	0x3d757a12	0.05993087
42	0x3d8680d0	0.06567538
43	0x3d1d59da	0.038415767
44	0xbd608c3e	-0.054821245
45	0xbd98aec2	-0.074552074
46	0xbc0e4156	-0.0086825695
47	0x3d14d9f6	0.036340676
48	0x3d5ee6ef	0.054419454
49	0x3bd44bd1	0.0064787646
50	0x3d9a4109	0.07531936
51	0x3cf1a3ac	0.02949699
52	0x3d590695	0.052984793
53	0x3d88b35f	0.06674837
54	0x3ded33cf	0.11582147
55	0xbd165106	-0.036698364
56	0x3ca771d7	0.020440025
57	0xbb942d53	-0.0045220046
58	0x3b9916f2	0.0046719247
59	0x3d558e40	0.052137613
60	0x3c8a53ef	0.016885726
61	0x3bdb8715	0.0066994526
62	0xbd430336	-0.047610484
63	0x3d25b5f6	0.040456735
64	0xbd02a6c9	-0.03189734
65	0xbd006080	-0.03134203
66	0x3d1cfc72	0.038326688
67	0xbc3a38ac	-0.011366051
68	0xbcfe7f34	-0.031066515
69	0x3c230146	0.009949034
70	0x3d358110	0.044312537
71	0xbcd565e7	-0.026049567
72	0x3d8ccd73	0.06875124
73	0xbd01961c	-0.031637296
74	0xbcc5ca67	-0.024144365
75	0xbd2c65e4	-0.042089358
76	0x3d2f7269	0.04283372
77	0x3bcf1ba0	0.006320432
78	0xbd671f8e	-0.056426577
79	0xbd0d7d3b	-0.034543257
80	0x3c938b8a	0.018010873
81	0xbd3ff393	-0.04686315
82	0xbd8d8d8d	-0.06911764
83	0x3cffe833	0.03123865
84	0xbd6f1c29	-0.058376465
85	0x398de400	0.0002706349
86	0xbcaf4b5d	-0.02139824
87	0xbb8ffcb4	-0.004394138
88	0x3c8d54bc	0.017252319
89	0xba63c672	-0.00086889334
90	0xbda55dfc	-0.08074567
91	0xbd0dc747	-0.034613874
92	0x3baaf0d0	0.0052166954
93	0x3cefdec8	0.029281035
94	0x3cf42154	0.029801048
95	0xbc6c7485	-0.014432077
96	0x3c30dce0	0.010794848
97	0x3ce3fa44	0.027829297
98	0xbdcadca9	-0.09905369
99	0x3d223654	0.039602593
100	0xbc52bfef	-0.012863143
101	0x3d649923	0.055810105
102	0x3ca96684	0.020678766
103	0xbd669d27	-0.056302216
104	0x3d098e13	0.03358276
105	0x3c835358	0.016030952
106	0xbc8ccbd6	-0.01718704
107	0xbdbdea62	-0.092732206
108	0xb8f88b8f	-0.00011851556
109	0xbd383182	-0.04496909
110	0x3c36e958	0.011164032
111	0x3ce7e7fe	0.028308865
112	0x3d106c42	0.035259493
113	0xbd79a8a8	-0.06095186
114	0xbd8f8228	-0.07007247
115	0xbd79e3d8	-0.061008304
116	0xbd143942	-0.036187418
117	0x3c2eda3c	0.010672148
118	0x3ac888b3	0.0015299529
119	0xbd2a9156	-0.04164251
120	0x3cae54f9	0.021280752
121	0x3c81f1e1	0.015862407
122	0xbbd19844	-0.0063963253
123	0x3d5baf24	0.053633824
124	0xbb93fe53	-0.004516402
125	0xbc1ce7ea	-0.009576777
126	0x3d963c74	0.07335749
127	0xbc9f77ea	-0.01946636
128	0xbd321b85	-0.043483276
129	0x3d3cd969	0.046105776
130	0xbd47d78c	-0.048789546
131	0xbcf337ba	-0.029689658
132	0x3c871d5b	0.01649349
133	0xbd306d40	-0.04307294
134	0xbc887db9	-0.016661512
135	0x3cb320e3	0.021866268
136	0x3dba6114	0.091005474
137	0xbd9244d7	-0.071420364
138	0xbd2f1cb9	-0.042752
139	0xbc05bed8	-0.0081631765
140	0x3bab71c4	0.005232068
141	0x3d1caaf6	0.03824898
142	0xbbb2315e	-0.005438014
143	0xbcc5d4bb	-0.02414929
144	0xbc7da70f	-0.015481724
145	0x3d093e4b	0.033506673
146	0xbdefff3e	-0.117186055
147	0x3dff45b6	0.12464468
148	0xbcb18d74	-0.021673895
149	0x3d5a6026	0.05331435
150	0xbd6e5bb9	-0.058192942
151	0x3d05dd52	0.03268177
152	0xbd0b0af1	-0.03394598
153	0x3d1800c0	0.03711009
154	0x3d9653fb	0.07340237
155	0xbcc6e133	-0.024277305
156	0xbdbce939	-0.09224171
157	0x3d036551	0.032079045
158	0x3bdc4f02	0.0067232857
159	0xbd90e758	-0.07075375
160	0x3cdeddb7	0.027205331
161	0xbc54376e	-0.012952669
162	0xbdc7c7cc	-0.09754905
163	0x3d4fa00d	0.050689746
164	0x3d9fe03d	0.07806442
165	0x3d362483	0.044468414
166	0xbd90c90e	-0.07069598
167	0xbcfc5259	-0.030800985
168	0xbcf67ed4	-0.030089773
169	0xbc280e1b	-0.010257269
170	0x3d7d6ec4	0.061873212
171	0x3d5e3212	0.05424697
172	0xbd08e592	-0.03342206
173	0xbc199709	-0.0093743885
174	0x3cdacd03	0.026709085
175	0x3da46271	0.08026589
176	0x3d09fed5	0.033690292
177	0xbd8a3620	-0.06748605
178	0xbcc9773d	-0.02459299
179	0xbd43f3b7	-0.047839846
180	0x3d565ff0	0.052337587
181	0xbdd0c635	-0.10194055
182	0xbc2b6e27	-0.010463274
183	0x3d4df312	0.050280638
184	0xbc99e553	-0.018786108
185	0xbc421e1c	-0.011847999
186	0xbd40380c	-0.04692845
187	0xbd0a5267	-0.03376999
188	0xbd479ef0	-0.04873556
189	0x3d287ac3	0.0411327
190	0xbd4958bc	-0.04915689
191	0xbb0104fc	-0.0019686809
192	0x3d5eba61	0.054376964
193	0xbcf8da2c	-0.03037747
194	0x3c9dba67	0.019253923
195	0x3d243d14	0.04009731
196	0x3d188a22	0.03724111
197	0xbd52ba96	-0.051447473
198	0x3cdad840	0.026714444
199	0x3d110304	0.035403267
200	0xbd2505e1	-0.04028881
201	0x3d186d9c	0.037213907
202	0xbb8c6240	-0.0042841733
203	0x3cd088f0	0.025455922
204	0x3cd1208d	0.025528217
205	0xbd8d151a	-0.068887904
206	0x3caea23c	0.021317594
207	0xbdacabdc	-0.08431217
208	0x3cddc107	0.027069582
209	0x3c7d87f8	0.015474312
210	0xbc4ee0e0	-0.012626857
211	0xbceabb0f	-0.02865365
212	0x3ccea728	0.02522619
213	0x3da077d7	0.07835358
214	0xbc9f4c3a	-0.019445527
215	0x3c7ccf21	0.015430243
216	0x3d534f85	0.051589508
217	0x3d64efe8	0.055892855
218	0xbd5abac5	-0.053400774
219	0xbd5b8686	-0.05359509
220	0x3b3067c2	0.0026917313
221	0xbd408779	-0.047004197
222	0xbd0afc06	-0.033931755
223	0x3ca81234	0.020516492
224	0x3b9ee410	0.0048489645
225	0xbca80ac1	-0.02051294
226	0x3a831bc0	0.0010002777
227	0xbde0bd3e	-0.10973595
228	0xbc8ce0f8	-0.017197117
229	0x3cb6b7d8	0.02230446
230	0x3a120a40	0.00055709854
231	0xbd0bebc0	-0.034160376
232	0x3d06780f	0.03282934
233	0xbc442812	-0.011972444
234	0x3d06e900	0.03293705
235	0x3d1661f8	0.036714524
236	0x3a3cbf40	0.00072001293
237	0x3d5e2381	0.054233078
238	0x3dc69f74	0.09698382
239	0x3c9909cb	0.018681427
240	0xbc9f76e0	-0.019465864
241	0xbcb8cb94	-0.022558011
242	0xbd604c42	-0.054760225
243	0x3dc2e9c7	0.09517246
244	0xbdb5d77f	-0.08878993
245	0xbc5b6d93	-0.013392824
246	0x3dca07fc	0.09864804
247	0x3d647580	0.05577612
248	0xbc690551	-0.014222459
249	0xbd13f8e2	-0.036126025
250	0xbca8c0c4	-0.02059973
251	0xbc9d8ffd	-0.019233698
252	0xbc1a946b	-0.0094348
253	0x3c7cdfc3	0.015434208
254	0xba3f1828	-0.00072896713
255	0x3d237cc0	0.039913893

mu_head.bias f4 [2]
0	0xbd3d089f	-0.0461508
1	0xbd2d41e9	-0.042299185

model.0.weight f4 [256, 39]
0	0xbd26b0ec	-0.04069607
1	0x3d0bf674	0.034170583
2	0xbe03daf9	-0.128765
3	0xbd314cbe	-0.043286078
4	0xbddb7f65	-0.10717658
5	0xbe160697	-0.14650951
6	0x3e3977cb	0.18112104
7	0xbd4085f9	-0.047002766
8	0xbda75a38	-0.08171505
9	0x3daeb699	0.085309215
10	0xbdda22ed	-0.10651193
11	0x3d1feccb	0.039044183
12	0x3e11fca9	0.14256538
13	0x3df5cb4f	0.12001669
14	0x3cabc246	0.02096666
15	0x3df05ce5	0.11736468
16	0x3d86d3bb	0.06583353
17	0x3e40a00b	0.18811052
18	0xbe07185d	-0.13192888
19	0x3d303a83	0.04302455
20	0xbdbfafdf	-0.093597166
21	0x3d733e8f	0.059385832
22	0xbd8477b3	-0.06468143
23	0x3cddf024	0.027092047
24	0x3e1f421f	0.15552567
25	0x3de9fc29	0.11425049
26	0xbbbc5069	-0.0057468903
27	0xbd3c9108	-0.04603675
28	0xbd9dd68d	-0.07706938
29	0xbe2f0687	-0.17092334
30	0x3dc17323	0.09445789
31	0xbe0090a9	-0.12555183
32	0x3e86cec0	0.26329613
33	0x3e187327	0.14887677
34	0xbc5caddc	-0.013469186
35	0x3d3329f0	0.043741167
36	0xbd3407de	-0.043952815
37	0xbde9f040	-0.11422777
38	0x3e13d2eb	0.14435928
39	0x3dd7e018	0.10540789
40	0x3de0e73e	0.10981606
41	0x3db1f4d9	0.08689279
42	0x3dd4d8b7	0.103928976
43	0x3ea89004	0.32922375
44	0xbeae98e9	-0.34101036
45	0x3e820a2b	0.25398383
46	0xbe068716	-0.13137469
47	0x3df0a7f6	0.11750786
48	0xbdd2e6dc	-0.10297939
49	0x3dbc7a26	0.092029855
50	0x3daf4d8e	0.08559714
51	0xbd83127f	-0.06400012
52	0x3d9904cd	0.07471619
53	0x3e0adfdc	0.13561958
54	0x3d8e9127	0.06961279
55	0xbd474d73	-0.048657846
56	0x3e8f9ece	0.28050846
57	0xbe63722e	-0.22211525
58	0x3e9724fb	0.295204
59	0xbbdba52f	-0.006703041
60	0x3da7c92e	0.08192669
61	0x3e0e9c3a	0.13926783
62	0xbdc74d70	-0.09731567
63	0x3dfb1876	0.12260525
64	0x3c32aa6b	0.010904889
65	0x3e8da0a4	0.27661622
66	0x3c0be238	0.0085378215
67	0x3d591a2d	0.05300348
68	0x3b8e4044	0.004341157
69	0x3e1da408	0.15394604
70	0xbea703d7	-0.32620117
71	0x3ea5a93c	0.32355678
72	0xbdfb7d6e	-0.12279783
73	0xbcbd3147	-0.023094786
74	0xbe1326c1	-0.14370252
75	0x3dcb6f79	0.09933371
76	0x3d79235e	0.060824744
77	0xbde4dbdf	-0.111747496
78	0x3de65548	0.11246735
79	0xbdee56c8	-0.11637646
80	0xbd7107e6	-0.058845423
81	0xbda41b00	-0.08012962
82	0x3d8dd4d4	0.06925359
83	0xbdabb316	-0.08383767
84	0xbe0a63f4	-0.13514692
85	0x3a46f300	0.00075893104
86	0x3d35201c	0.044220075
87	0xbde54750	-0.111952424
88	0xbbd3dae0	-0.006465301
89	0xbcfeccc0	-0.031103492
90	0xbdae9335	-0.08524171
91	0xbd3a74fa	-0.045521714
92	0x3df1cfc8	0.11807209
93	0x3cddb310	0.027062923
94	0xbbcdc580	-0.0062796474
95	0xbc3b9b00	-0.011450529
96	0xbd83bc6e	-0.064324245
97	0xbda1a5f5	-0.07892982
98	0xbc173320	-0.009228498
99	0xbdc0c2c5	-0.09412149
100	0x3e0894a6	0.13337955
101	0xbd7d2a4a	-0.061807908
102	0x3dcc6754	0.09980646
103	0xbe03ef9a	-0.1288437
104	0xbd8e013e	-0.06933831
105	0x3df35c70	0.118828654
106	0xbdcf3152	-0.10116829
107	0xbe0fd526	-0.14046153
108	0x3d6fe658	0.058569282
109	0xbe02b8a8	-0.12765753
110	0x3e0b2e26	0.13591823
111	0xbd8bea16	-0.06831758
112	0x3db4aeb8	0.088223875
113	0x3e0dcca2	0.13847592
114	0x3e152174	0.14563543
115	0xbca120b0	-0.019668907
116	0x3d96c536	0.07361834
117	0x3d9e140c	0.077186674
118	0xbe177d32	-0.14793852
119	0xbe094256	-0.13404211
120	0xbe1e9678	-0.15487087
121	0x3d989a93	0.07451358
122	0xbe71e643	-0.23622994
123	0x3ea135e7	0.31486437
124	0x3d6670f1	0.056260053
125	0x3bab469c	0.005226923
126	0x3d81dca7	0.06340914
127	0xbdfd9dba	-0.123835996
128	0xbdab7a1c	-0.083729
129	0x3e0a78f5	0.13522704
130	0xbdb7bfcc	-0.08972129
131	0xbcf61c1b	-0.030042699
132	0xbd97117b	-0.07376381
133	0xbd856fc2	-0.06515457
134	0xbcaa9138	-0.020821199
135	0xbe859082	-0.26086813
136	0x3e440ead	0.19146223
137	0x3c6eebdf	0.014582603
138	0xbdfd90d4	-0.123811394
139	0xbce54bf3	-0.027990317
140	0xbdea6aff	-0.11446189
141	0xbd99b3ee	-0.07505022
142	0xbd12ac49	-0.035808835
143	0x3da58672	0.08082284
144	0xbd9298fd	-0.071580864
145	0xbe213982	-0.15744594
146	0xbe34849a	-0.17628708
147	0x3e79da02	0.2439957
148	0xbd27f969	-0.04100934
149	0x3e69ee52	0.22844818
150	0xbe0cac12	-0.13737515
151	0xbcf1c378	-0.029512152
152	0xbe003396	-0.12519678
153	0x3dc12dc6	0.09432559
154	0x3dd238c9	0.10264737
155	0xbe224722	-0.15847448
156	0xbdeeb376	-0.11655323
157	0xbe1cf828	-0.15329039
158	0xbe42cd8d	-0.19023724
159	0xbe196627	-0.14980374
160	0x3d339ae9	0.043848906
161	0xbe2384c6	-0.15968618
162	0x3e643390	0.22285295
163	0xbda67f14	-0.08129707
164	0x3cb929c2	0.02260292
165	0x3e14bb58	0.14524591
166	0x3c9d1cf5	0.019178847
167	0xbdbe1811	-0.09281934
168	0x3deb43d8	0.114875495
169	0xbd03b43e	-0.032154314
170	0x3d980899	0.07423515
171	0x3d153c36	0.036434375
172	0xbe35e399	-0.17762603
173	0xbb9b58e3	-0.0047408207
174	0xbe307d92	-0.17235401
175	0x3e4cd16c	0.20001763
176	0x3de05f76	0.10955708
177	0x3d5d94c8	0.054096967
178	0x3e2f2d15	0.17107041
179	0xbd794f9c	-0.060866937
180	0x3d4ace04	0.049512878
181	0xbe1b30a4	-0.15155274
182	0x3e18b1e8	0.14911616
183	0xbe370480	-0.1787281
184	0x3caddd7b	0.021223774
185	0xbe2ef9e0	-0.17087507
186	0x3b422b9d	0.0029628046
187	0xbcc0406d	-0.02346822
188	0x3e0ea36f	0.13929532
189	0xbd022291	-0.031771246
190	0xbdd54c9a	-0.10415001
191	0x3c6175df	0.013761013
192	0xbdc7fb65	-0.097647466
193	0x3e04048f	0.12892364
194	0xbc35f24c	-0.011105131
195	0x3e0e515c	0.13898224
196	0xbdabed7c	-0.08394906
197	0xbe300b1e	-0.17191741
198	0xbd718619	-0.058965776
199	0x3d915aa5	0.07097367
200	0xbe0b693d	-0.13614364
201	0x3ecebbf7	0.4037778
202	0xbde04ab8	-0.109517515
203	0x3d0499b4	0.032373145
204	0x3ccc7012	0.024955783
205	0x3d949860	0.07255626
206	0x3da41b40	0.0801301
207	0xbd74465c	-0.059637412
208	0xbd542bbc	-0.05179952
209	0xbd1e2f9b	-0.03861962
210	0xbd394b8a	-0.045238055
211	0x3b295e4c	0.0025843559
212	0x3e763791	0.24044634
213	0xbebd214e	-0.36939472
214	0x3ea38ca6	0.31943244
215	0xbda44730	-0.080213904
216	0xbd3b033e	-0.04565739
217	0xbdb5a67f	-0.08869647
218	0x3d15147d	0.036396492
219	0x3b502c8e	0.0031764838
220	0x3dc0ee25	0.094204225
221	0x3dfd8d43	0.12380459
222	0x3d148f4d	0.036269475
223	0xbdc56ab7	-0.09639495
224	0xbd18abd1	-0.037273232
225	0x3d7fc115	0.062439997
226	0xbe4176a4	-0.18892914
227	0x3ed74602	0.420456
228	0x3e1964a3	0.14979796
229	0xbdc62ccb	-0.09676512
230	0xbe008f33	-0.12554626
231	0x3daf7efe	0.08569144
232	0xbd80ca9b	-0.06288644
233	0xbdd58c83	-0.10427191
234	0xbe0ea387	-0.13929568
235	0x3de66cac	0.11251196
236	0xbd37707a	-0.044785
237	0x3d87dc84	0.06633857
238	0xbdb42369	-0.087958165
239	0xbcaf57f0	-0.021404237
240	0xbe014e66	-0.12627563
241	0x3b9a96ec	0.0047176983
242	0xbcc83eb7	-0.024443967
243	0x3dee011a	0.11621304
244	0xbe35d231	-0.17755963
245	0x3defefd5	0.11715666
246	0x3dd4025a	0.10352011
247	0xbdb29bd9	-0.08721132
248	0x3de12425	0.10993222
249	0x3b8a0e91	0.004213162
250	0xbdd08952	-0.10182442
251	0x3db8c2c0	0.090215206
252	0x3e749953	0.23886614
253	0x3cf89899	0.030346202
254	0x3e2a3764	0.16622692
255	0x3dd58e28	0.10427505

model.0.bias f4 [256]
0	0x3d8f9f9b	0.07012864
1	0xbda2735b	-0.079321586
2	0xbe09df9c	-0.13464206
3	0x3dcf1b22	0.10112597
4	0x3b531d2a	0.0032213428
5	0x3c02a0d5	0.007972916
6	0x3ddd0762	0.10792424
7	0xbdd2d8f8	-0.1029529
8	0x3d289609	0.04115871
9	0x3e0ad2b2	0.13556936
10	0x3e0583ce	0.13038561
11	0x3d6808dc	0.056649074
12	0x3d3092b3	0.043108653
13	0xbd49c5f0	-0.049261034
14	0xbe113abc	-0.14182562
15	0x3e07001e	0.13183638
16	0xbda407ba	-0.08009286
17	0xbe1001a1	-0.14063121
18	0xbc8054b9	-0.015665399
19	0x3d5b40b8	0.053528517
20	0x3de709d0	0.112811685
21	0x3d0bbcd7	0.03411564
22	0xbdccb757	-0.09995907
23	0xbdd22d4a	-0.102625445
24	0x3d8f5213	0.06998076
25	0xbd3fc8d0	-0.04682237
26	0xbdeefcfc	-0.11669347
27	0x3b9d785c	0.0048056077
28	0x3d414832	0.04718799
29	0x3deda10a	0.116029814
30	0xbdd85a6b	-0.10564121
31	0x3d82cec4	0.06387094
32	0x3be014a0	0.006838396
33	0x3dd7c053	0.1053473
34	0x3d2f3a3c	0.042780146
35	0xbe02b785	-0.1276532
36	0xbe01df6b	-0.12682883
37	0xbdd6b081	-0.10482884
38	0xbd916027	-0.07098418
39	0x3ccfed09	0.025381582
40	0xbdaa77ce	-0.08323632
41	0x3dc87b79	0.097891755
42	0xbe06bca0	-0.13157892
43	0x3d096324	0.033541813
44	0xbd44dead	-0.048063923
45	0x3dbf765a	0.09348746
46	0xbdad41cd	-0.08459816
47	0x3de628b0	0.11238229
48	0xbbd5ac60	-0.006520793
49	0xbc913828	-0.017726973
50	0xbdeb0ef7	-0.11477464
51	0xbb9aa143	-0.004718931
52	0xbc5670e0	-0.013088435
53	0xbde0f64a	-0.10984476
54	0x3d477eb6	0.048704825
55	0xbcc74f90	-0.02432993
56	0x3c4dca5a	0.012560451
57	0xbda5083c	-0.08058211
58	0x3d0e2350	0.034701645
59	0xbd890a92	-0.06691469
60	0x3d9eeea4	0.07760361
61	0xbe003ba2	-0.12522748
62	0x3ce5e430	0.02806291
63	0xbd842475	-0.06452266
64	0x3d84a710	0.06477177
65	0x3e0ef9dc	0.13962501
66	0x3e171053	0.14752321
67	0x3e23bee4	0.15990788
68	0xbd82ef47	-0.06393295
69	0x3d6e9838	0.058250636
70	0xbbc3cbe6	-0.0059752343
71	0x3c17a713	0.009256142
72	0xbcec92c0	-0.02887857
73	0xbca4f7e8	-0.020137742
74	0xbdc2493e	-0.09486626
75	0xbdee864e	-0.1164671
76	0xbe14077f	-0.14455985
77	0xbe1e4969	-0.15457691
78	0xbdb1b99d	-0.08677981
79	0xbd780dae	-0.06055992
80	0xbd20fca1	-0.039303426
81	0xbc92d346	-0.017923009
82	0x3db5dbf8	0.08879846
83	0x3d28182c	0.041038677
84	0xbe1ff227	-0.15619718
85	0x3e249c1a	0.16075173
86	0x3d8377f6	0.06419365
87	0xbdd27b4a	-0.10277422
88	0x3b82c6d7	0.0039909887
89	0x3d9c63b9	0.07636208
90	0xbd02c985	-0.031930465
91	0xbc74a230	-0.014931247
92	0xbd81ba78	-0.06334394
93	0x3d14ecbd	0.036358584
94	0xbdb4649c	-0.08808252
95	0xbdd8d483	-0.105874084
96	0x3e2ad907	0.16684352
97	0x3e0bd272	0.13654497
98	0x3ddb3f6a	0.10705455
99	0x3d710e28	0.05885139
100	0xbe11f4c3	-0.14253525
101	0xbdea21bc	-0.114322156
102	0x3d2ebb4c	0.04265909
103	0x3cec1dc8	0.028822795
104	0x3d9d2842	0.07673694
105	0xbe139682	-0.14412883
106	0x3dfc9e07	0.12334829
107	0xbdcc2b21	-0.09969164
108	0x3dfae656	0.12250964
109	0x3cb53ca9	0.022123652
110	0xbd237a24	-0.039911404
111	0x3d7fd650	0.062460244
112	0xbe0c1f8c	-0.13683909
113	0x3d304af0	0.043040216
114	0x3c4bf834	0.012449313
115	0xbdedf89f	-0.11619686
116	0x3dbb8b78	0.09157461
117	0x3cd6934b	0.026193282
118	0xbd165cc4	-0.036709562
119	0xbd9c3780	-0.07627773
120	0xbdacf6ed	-0.08445535
121	0xbdc7dc01	-0.09758759
122	0xbd8a5f88	-0.067565024
123	0x3c5eb6af	0.01359336
124	0x3e1bc001	0.15209962
125	0xbd440cab	-0.047863644
126	0x3dd55a6c	0.10417637
127	0x3d3bcf66	0.045852087
128	0x3dab3233	0.08359184
129	0x3da9d1fc	0.082920045
130	0x3d2573c9	0.040393624
131	0xbe02ddbb	-0.12779896
132	0xbd9c33dc	-0.07627079
133	0xbddc856d	-0.107676364
134	0x3cfa7fd4	0.030578531
135	0x3d5c0c44	0.053722635
136	0xbdfc36e7	-0.12315159
137	0xbd2c2bdc	-0.042034015
138	0x3d86013d	0.06543205
139	0xbd88ae64	-0.06673887
140	0x3ddfe8a6	0.10933046
141	0x3d3adb80	0.045619488
142	0x3e0b6838	0.13613975
143	0xbd8c0078	-0.06836027
144	0xbe0c08a5	-0.13675173
145	0xbd96e70d	-0.07368288
146	0x3cbce399	0.023057746
147	0xbd6ded2a	-0.058087505
148	0x3d210708	0.039313346
149	0x3b5a93bb	0.0033352214
150	0xbdea5e44	-0.11443761
151	0xbddcc7b1	-0.107802756
152	0xbdf542d7	-0.11975639
153	0xbe12ae69	-0.14324345
154	0xbcca700e	-0.024711635
155	0xbda44b2c	-0.080221504
156	0x3e113c7d	0.1418323
157	0x3e199080	0.14996529
158	0xbe2458c8	-0.16049492
159	0xbdc28fa3	-0.09500053
160	0xbe0b0bdb	-0.13578741
161	0x3e11da82	0.1424351
162	0x3dd49a19	0.10380954
163	0xbd4c660e	-0.049902014
164	0x3e1516ad	0.14559431
165	0xbdf0ca99	-0.117573924
166	0xbd6cfd43	-0.057858717
167	0xbe17e844	-0.14834696
168	0xbd37dedc	-0.04489027
169	0xbda6d4fd	-0.08146093
170	0x3d3963b7	0.04526111
171	0x3cf7a96e	0.030232158
172	0xbd29320c	-0.041307494
173	0x3a5a0acc	0.0008317649
174	0xbe1f3ddd	-0.15550943
175	0x3dbeada0	0.0931046
176	0x3ddff565	0.10935477
177	0xbc8c4ea0	-0.017127335
178	0xbd78a6ee	-0.06070607
179	0x3e3942c9	0.18091883
180	0x3e4482bf	0.191905
181	0x3c741cde	0.014899461
182	0x3c9d573d	0.019206638
183	0x3d75b211	0.05998427
184	0xbdf927af	-0.12165772
185	0xbe0ece80	-0.13945961
186	0x3d83981f	0.06425499
187	0x3c076ae8	0.0082652345
188	0xbdfc015c	-0.12304947
189	0xbe2ce24f	-0.16883205
190	0xbe280c20	-0.16410875
191	0xbc2739f0	-0.0102066845
192	0xbddbf105	-0.1073933
193	0xbd978c07	-0.07399755
194	0xbde781fd	-0.1130409
195	0xbdcfbac4	-0.101430446
196	0xbe02fc78	-0.12791622
197	0x3e1488f5	0.1450537
198	0x3d8672c6	0.0656486
199	0xbcbe1e60	-0.023207843
200	0xbdd02731	-0.10163725
201	0x3d668d55	0.05628713
202	0xbe117fb4	-0.14208871
203	0x3dc8d9a9	0.098071404
204	0x3e1c05b3	0.15236549
205	0xbdcbb01e	-0.09945701
206	0x3df7fab0	0.12108362
207	0x3e0abf6f	0.13549589
208	0xbdaf1fc5	-0.085509814
209	0xbe0228da	-0.12710896
210	0x3cb4b178	0.02205728
211	0x3d0bdb28	0.03414455
212	0x3df99508	0.121866286
213	0xbdb88f52	-0.09011711
214	0xbd9fa5a5	-0.07795266
215	0x3db8997f	0.09013652
216	0xbc49203b	-0.012275751
217	0x3e2b42b0	0.16724658
218	0xbdde02a1	-0.10840345
219	0x3d87aad5	0.066243805
220	0xbde3a792	-0.11115946
221	0xbdcc8d68	-0.099879086
222	0x3dae3d9d	0.085078456
223	0x3cfdf18a	0.030998964
224	0xbbfa0592	-0.0076300586
225	0x3c91148d	0.017709995
226	0x3e18a21e	0.14905593
227	0x3dfc0870	0.12306297
228	0xbdbfc20e	-0.09363185
229	0xbe1b093d	-0.15140243
230	0xbc4a066d	-0.012330634
231	0xbddcbbad	-0.10777984
232	0x3e18f4e9	0.14937176
233	0xbd9f0004	-0.07763675
234	0xbdd7a6c9	-0.105298586
235	0x3c7f34eb	0.0155765815
236	0x3d6d42fc	0.05792521
237	0x3d419238	0.047258586
238	0x3daac7c3	0.08338883
239	0xbe197235	-0.14984973
240	0xbe0b5154	-0.13605243
241	0x3deaf618	0.1147272
242	0xbe28aa0b	-0.16471116
243	0xbdd82bb8	-0.10555214
244	0xbde521e0	-0.11188102
245	0x3ceb5a92	0.02872971
246	0x3ddbae2c	0.1072658
247	0x3e051dd0	0.12999654
248	0xbde9271e	-0.11384414
249	0x3e16c966	0.14725265
250	0xbe070c35	-0.1318825
251	0x3da6884f	0.081314676
252	0x3ddbf7b3	0.10740604
253	0xbd7ed31c	-0.06221305
254	0x3dc56c10	0.09639752
255	0x3d471d4b	0.04861192
