models/mappo_interrupted.pt (torch, 853671 bytes, 14 tensors)

log_std f4 [2]
-1.1113342 -0.6011537
00000000: 3340 8ebf 35e5 19bf

body.0.weight f4 [256, 13]
0.21941283 -0.13559388 0.14106892 0.34953603 -0.3458429 0.16819797 0.009021802 -0.4218807
-0.34165123 -0.106539674 -0.273304 -0.1444686 0.08144526 0.2763057 -0.26320654 0.04265952
-0.22513582 0.2377176 -0.11301604 -0.07334539 0.05384305 -0.012452811 0.046489984 -0.25079763
0.021035314 -0.24177513 0.015647076 -0.16464774 -0.14357156 -0.055750232 0.3493825 0.04146556
-0.2789652 0.4303132 -0.30385143 0.2532332 0.22593988 -0.13134624 0.11160201 -0.13114148
-0.117504396 -0.14914623 0.21090576 -0.3775328 -0.04372092 0.09842823 -0.17202233 -0.34203914
-0.14071928 -0.10138004 -0.29309034 0.108652435 -0.09938716 0.053507693 0.14304543 -0.17681648
0.21611837 0.019454962 -0.25172 0.25912842 0.21140213 0.25131842 -0.08507042 -0.05121025
0.024634894 -0.16121927 0.031581197 0.42231163 -0.08312839 0.17047408 0.19697794 0.117352225
0.2968511 0.21405433 -0.057895828 0.4561751 0.17615551 0.07748028 0.06655822 0.09396741
-0.12171168 0.15926433 -0.020928647 -0.33919173 0.1308672 -0.13186717 -0.3252254 0.25178578
-0.12868674 -0.1277662 0.18352656 -0.17522335 0.22938618 -0.10591854 0.15350965 -0.069371775
-0.22183812 0.043427348 0.038215935 0.12970385 -0.23340917 -0.129942 -0.13788293 0.091858506
-0.2758694 0.24952301 -0.0264678 -0.15911564 0.07431999 -0.17482865 0.2345384 -0.011592388
-0.011102945 -0.055631146 -0.13331059 -0.12142405 -0.19165361 0.18039177 -0.083257236 0.25653422
0.0007557503 -0.11939074 -0.11484726 -0.3799527 -0.13907127 -0.06625791 0.0031860243 -0.36822194
0.13595453 -0.037746575 0.0055646147 -0.24258958 -0.091048345 0.06525581 -0.17444594 0.04295142
0.19224754 0.04193964 0.17246164 0.041446485 -0.19440125 -0.032110006 -0.19202578 0.16860491
0.01591642 0.09918724 -0.44199836 0.073525846 -0.14633669 0.17851123 -0.31629643 -0.17273565
0.006156618 -0.29869464 -0.06923299 0.27486697 0.17370085 0.14143912 -0.24758087 0.015704
-0.13903606 -0.12608817 0.10661621 0.07247531 -0.59868574 0.039691597 -0.48668808 0.025853232
-0.1324155 -0.10418022 -0.13227053 -0.006648766 0.17948294 0.09007548 -0.123422235 -0.06300311
0.45696706 -0.09617493 0.14287262 0.10327906 0.015789896 -0.08031884 -0.26962796 -0.23893884
-0.24968594 0.16413543 0.2652575 0.16832638 -0.25531423 0.16535327 -0.06329264 -0.07435611
0.1890963 -0.08267631 -0.11364496 0.21895447 0.10405685 0.111910254 -0.013604667 -0.34851372
-0.118334904 -0.3417072 -0.2830907 0.2898372 -0.05662596 -0.12600018 0.09351791 -0.31879237
-0.20121525 -0.0064365226 -0.0826691 0.2314221 -0.25237775 0.018962353 0.081245445 -0.42818648
-0.052511867 -0.41406417 -0.06317552 -0.011861289 0.13313589 0.27031597 -0.022726357 -0.053138345
-0.052855104 -0.10370317 0.20019782 0.09729749 0.14320445 0.06881258 0.10437524 -0.033912778
-0.1531541 -0.07082078 0.08978813 -0.16723531 0.009352069 0.16889761 0.019130468 -0.20032881
-0.028864885 0.43396074 -0.2758677 0.41068733 0.20375016 0.095419124 -0.08237002 -0.025147393
-0.17230316 0.067263834 0.139547 -0.07500509 -0.06366712 -0.0895136 -0.10674092 -0.09298835
00000000: c2ad 603e 1fd9 0abe 5f74 103e 63f6 b23e
00000010: 5212 b1be 173c 2c3e 2ed0 133c bf00 d8be
00000020: e9ec aebe 7931 dabd 80ee 8bbe 94ef 13be
00000030: c6cc a63d f177 8d3e 02c3 86be c0bb 2e3d
00000040: 018a 66be 3e6c 733e f474 e7bd 1c36 96bd
00000050: 888a 5c3d e006 4cbc 486c 3e3d 8c68 80be
00000060: 4052 ac3c e693 77be 4c2e 803c 6b99 28be
00000070: 6c04 13be 5b5a 64bd 43e2 b23e cbd7 293d
00000080: 87d4 8ebe 0352 dc3e 6a92 9bbe c8a7 813e
00000090: c95c 673e a17f 06be 988f e43d f449 06be
000000a0: 25a6 f0bd cab9 18be aef7 573e fb4b c1be
000000b0: b514 33bd bd94 c93d 9f26 30be c11f afbe
000000c0: b718 10be 57a0 cfbd f00f 96be 2b85 de3d
000000d0: 7f8b cbbd e22a 5b3d 807a 123e 610f 35be
000000e0: 224e 5d3e 0360 9f3c 72e1 80be 7bac 843e
000000f0: cd79 583e cfac 803e 6639 aebd d7c1 51bd
00000100: 1ecf c93c aa16 25be 495b 013d 3b39 d83e
00000110: 383f aabd c290 2e3e 96b4 493e 5d56 f03d
00000120: defc 973e 0f31 5b3e 2d24 6dbd c88f e93e
00000130: 1c62 343e fbad 9e3d ad4f 883d fc71 c03d
00000140: f943 f9bd 3016 233e 8e72 abbc 8aaa adbe
00000150: 0d02 063e 3008 07be f283 a6be 11ea 803e
00000160: 75c6 03be 25d5 02be 63ee 3b3e c06d 33be
00000170: 36e4 6a3e d2eb d8bd a231 1d3e ca12 8ebd
00000180: 8829 63be e0e0 313d 5088 1c3d 16d1 043e
00000190: d002 6fbe 840f 05be 2f31 0dbe 5020 bc3d
000001a0: c13e 8dbe f682 7f3e 00d3 d8bc 36ef 22be
000001b0: 1435 983d 4806 33be d62a 703e 00ee 3dbc
000001c0: 20e9 35bc 7cdd 63bd 9282 08be 2cad f8bd
000001d0: d840 44be 9fb8 383e c582 aabd 7458 833e
000001e0: 8b1d 463a 2283 f4bd 0a35 ebbd 2989 c2be
000001f0: b368 0ebe 3ab2 87bd 9ecc 503b 9687 bcbe
00000200: aa37 0b3e 279c 1abd 5f57 b63b 6769 78be
00000210: 8e77 babd d7a4 853d f5a1 32be d4ed 2f3d
00000220: 8adc 443e e6c8 2b3d c999 303e cac3 293d
00000230: 1f11 47be c885 03bd 68a2 44be c4a6 2c3e
00000240: 2763 823c ae22 cb3d 9c4d e2be b894 963d
00000250: 49d9 15be a6cb 363e 9bf1 a1be 9de1 30be
00000260: 74bd c93b 81ee 98be 07ca 8dbd 5dbb 8c3e
00000270: a3de 313e 6bd5 103e d785 7dbe ada5 803c
00000280: 785f 0ebe 421d 01be 9959 da3d ef6d 943d
00000290: 7843 19bf a893 223d 2e2f f9be 28ca d33c
000002a0: ee97 07be 705c d5bd ed71 07be e4dd d9bb
000002b0: 60ca 373e 7e79 b83d ccc4 fcbd c607 81bd
000002c0: 96f7 e93e 5df7 c4bd 334d 123e f983 d33d
000002d0: d059 813c 347e a4bd ad0c 8abe 62ac 74be
000002e0: acad 7fbe 1e13 283e d5cf 873e c05d 2c3e
000002f0: 8cb8 82be 5e52 293e 929f 81bd 0448 98bd
00000300: 76a2 413e 3252 a9bd b0be e8bd 9a35 603e
00000310: c21b d53d 3431 e53d 1ce6 5ebc 6470 b2be
00000320: 9259 f2bd 3ff4 aebe 44f1 90be 8b65 943e
00000330: 9ff0 67bd 3106 01be 5186 bf3d c138 a3be
00000340: 5f0b 4ebe 77e9 d2bb 6b4e a9bd eaf9 6c3e
00000350: a837 81be f056 9b3c 0364 a63d 423b dbbe
00000360: af16 57bd 3800 d4be 2b62 81bd da55 42bc
00000370: c654 083e db66 8a3e a02c babc 98a7 59bd
00000380: 987e 58bd 5462 d4bd a800 4d3e e843 c73d
00000390: 30a4 123e 9ced 8c3d b0c2 d53d 20e8 0abd
000003a0: 6ed4 1cbe 7c0a 91bd d7e2 b73d bc3f 2bbe
000003b0: 6c39 193c 7ff3 2c3e 80b7 9c3c ff22 4dbe
000003c0: 0d76 ecbc 1a30 de3e 883e 8dbe 9c45 d23e
000003d0: e2a3 503e 1a6b c33d 9db1 a8bd e801 cebc
000003e0: 3d70 30be 9fc1 893d 69e5 0e3e 459c 99bd
000003f0: e863 82bd e852 b7bd fc9a dabd ad70 bebd

body.0.bias f4 [256]
0.13624918 -0.21256673 0.09461729 0.19466045 0.09369887 -0.11392474 -0.01493582 -0.22458766
-0.15804298 0.089568734 -0.00763697 -0.21238734 0.16999045 0.13002934 -0.17700547 0.14864017
0.021442227 -0.00013414025 0.09879683 0.027410347 -0.117449015 0.071798876 -0.06392091 0.1613396
0.114668116 0.13135599 0.052642882 -0.100584365 0.05124623 -0.118960485 0.18480739 -0.10323474
-0.19314148 -0.00412637 0.01910443 -0.061859168 0.027961211 0.2661992 -0.0686395 0.11776086
0.031740345 0.21902876 0.23721832 -0.1703645 0.10497354 0.03842312 0.013421265 -0.252499
0.10745799 0.04352214 0.02249334 -0.15618658 0.024955668 0.27962908 -0.15120544 -0.15040977
-0.06869238 -0.025708608 -0.061937064 -0.2149054 0.10800671 -0.17159791 -0.07374765 -0.17216371
-0.104683846 -0.104536146 0.033830542 -0.22686914 -0.058330543 -0.0804414 0.01850283 -0.18447044
0.16943339 -0.09908864 -0.023218464 0.15321156 -0.17633384 0.10580683 0.04327094 -0.029500792
-0.009838134 0.18054126 0.041836835 -0.23681012 -0.24213141 -0.20617616 0.0040674615 -0.14794445
-0.11751211 -0.08339014 0.05252424 0.07313731 -0.14896992 -0.14405276 -0.14751506 -0.23991488
0.082463264 -0.25863275 -0.14307785 -0.2245997 0.18940096 0.20847607 0.059344456 -0.06817551
0.11351798 -0.21341848 0.090240784 0.06940236 -0.15448016 0.12334907 0.11233928 0.09484836
0.115311615 -0.14057814 0.08182719 -0.14771469 -0.087012954 -0.2517726 -0.021168798 -0.093144886
-0.16045469 -0.07522126 -0.0026983249 -0.09809615 0.022283498 -0.18404037 -0.00492692 0.16515829
0.1565377 0.17154844 0.07208035 -0.015922364 0.006820867 -0.2459027 0.16623865 0.12027751
-0.18938096 0.06904049 0.017943108 -0.10582946 0.04063233 0.021139681 0.19132453 0.010504149
-0.09135957 0.21302506 -0.05929324 -0.18290588 0.0045626923 0.033056617 0.08753256 0.0251697
0.030954272 -0.18436722 -0.022589538 0.06937211 -0.12297441 -0.23349728 -0.010429293 0.046364445
-0.0883121 0.092049055 -0.07356244 0.092429064 0.13411252 -0.24579322 -0.08815908 0.19196689
0.13646187 0.029263586 0.16751857 0.048549883 0.14200097 0.13414307 -0.15339877 0.15961172
-0.094894804 -0.13618927 0.057617486 -0.068343565 -0.23568726 -0.0126559045 0.21749577 0.19184992
-0.13230546 0.16073027 0.009444952 0.19470753 -0.23597112 0.23698473 0.2049682 -0.056075085
-0.059207764 -0.18156154 -0.12847872 -0.20765808 -0.15522388 -0.18523352 0.17620786 0.10767205
0.12664421 -0.22376798 -0.07906025 -0.15885277 -0.2731274 -0.0859485 0.112134695 -0.05367674
0.15691684 -0.26374355 0.24711555 0.04062345 -0.21672839 0.23317719 -0.027850028 -0.11518573
-0.21018139 0.059289664 0.13416047 -0.18442646 -0.030429378 0.017631488 -0.24108998 0.1711081
-0.12354112 -0.10165847 0.037221156 0.101652764 -0.0017697513 -0.14702286 0.009534252 0.15413931
-0.13900131 -0.23713355 0.08708024 -0.20037404 -0.044517547 0.12097802 -0.16162792 0.13693537
-0.14274716 -0.1360139 -0.2241779 -0.102153614 0.10250917 -0.22224607 -0.110428095 -0.11434675
-0.21029556 -0.26409778 -0.055788916 -0.093698494 -0.08737694 -0.16997468 0.10113088 -0.16706628
00000000: e884 0b3e 18ab 59be b6c6 c13d 1255 473e
00000010: 31e5 bf3d 6051 e9bd 5fb5 74bc 4ffa 65be
00000020: 05d6 21be d06f b73d 8c3f fabb 117c 59be
00000030: fa11 2e3e 6926 053e ec40 35be 2135 183e
00000040: 9ca7 af3c 00a8 0cb9 fe55 ca3d aa8b e03c
00000050: 1c89 f0bd 4a0b 933d f7e8 82bd 3536 253e
00000060: 1ed7 ea3d 2f82 063e 10a0 573d 2dff cdbd
00000070: 91e7 513d 8ea1 f3bd 263e 3d3e bc6c d3bd
00000080: e1c6 45be 8036 87bb e580 9c3c 0a60 7dbd
00000090: e90e e53c 434b 883e de92 8cbd 9b2c f13d
000000a0: 2a02 023d 1349 603e 5ce9 723e 0874 2ebe
000000b0: 5efc d63d 9061 1d3d dee4 5b3c 8d47 81be
000000c0: ef12 dc3d 4544 323d f443 b83c 60ef 1fbe
000000d0: d46f cc3c 8b2b 8f3e 99d5 1abe 0505 1abe
000000e0: 97ae 8cbd dc9a d2bc b8b1 7dbd 2910 5cbe
000000f0: 9f32 dd3d 5db7 2fbe 0209 97bd af4b 30be
00000100: 7c64 d6bd 0c17 d6bd e591 0a3d 6250 68be
00000110: 02ec 6ebd 76be a4bd 3f93 973c d2e5 3cbe
00000120: f27f 2d3e fcee cabd a634 bebc 7ee3 1c3e
00000130: dc90 34be 40b1 d83d df3c 313d a5ab f1bc
00000140: 2030 21bc cfdf 383e 1a5d 2b3d 5a7e 72be
00000150: 4cf1 77be d81f 53be 5748 853b c07e 17be
00000160: 30aa f0bd 73c8 aabd a823 573d 04c9 953d
00000170: 928b 18be 9182 13be 300e 17be 3fac 75be
00000180: 80e2 a83d 836b 84be 0083 12be 77fd 65be
00000190: 53f2 413e c07a 553e 2c13 733d 9a9f 8bbd
000001a0: 1d7c e83d 608a 5abe 29d0 b83d d322 8e3d
000001b0: 0c30 1ebe 709e fc3d 2312 e63d db3f c23d
000001c0: 7f28 ec3d b7f3 0fbe 0495 a73d 8542 17be
000001d0: d933 b2bd 57e8 80be 306a adbc bfc2 bebd
000001e0: 3c4e 24be 9b0d 9abd 61d6 30bb a2e6 c8bd
000001f0: e28b b63c 1475 3cbe 0072 a1bb 411f 293e
00000200: 6b4b 203e 65aa 2f3e dd9e 933d 9e6f 82bc
00000210: 9481 df3b ebcd 7bbe 773a 2a3e 0e54 f63d
00000220: 15ed 41be 1a65 8d3d 6dfd 923c 1ebd d8bd
00000230: 166e 263d 202d ad3c 94ea 433e 9819 2c3c
00000240: ba1a bbbd 3e23 5a3e 78dd 72bd ae4b 3bbe
00000250: a382 953b 6066 073d 4544 b33d b030 ce3c
00000260: d093 fd3c c3ca 3cbe b20d b9bc f712 8e3d
00000270: 02da fbbd e919 6fbe a0df 2abc a5e8 3d3d
00000280: f9dc b4bd 3784 bc3d e8a7 96bd 734b bd3d
00000290: cb54 093e 38b1 7bbe bf8c b4bd f892 443e
000002a0: a9bc 0b3e 30ba ef3c fd89 2b3e 3edc 463d
000002b0: b468 113e cd5c 093e 9114 1dbe 4171 233e
000002c0: 3558 c2bd 3375 0bbe 5000 6c3d b6f7 8bbd
000002d0: 0058 71be b65a 4fbc 36b7 5e3e 4e74 443e
000002e0: 157b 07be 7a96 243e 00bf 1a3c 6961 473e
000002f0: 6aa2 71be 20ac 723e 2fe3 513e fdae 65bd
00000300: d783 72bd 45eb 39be ed8f 03be 52a4 54be
00000310: 02f3 1ebe dbad 3dbe d56f 343e 2a83 dc3d
00000320: 05af 013e 6f23 65be 57ea a1bd 4daa 22be
00000330: 5bd7 8bbe c405 b0bd e0a6 e53d 24dc 5bbd
00000340: cfae 203e 6509 87be dc0b 7d3e c664 263d
00000350: 0cee 5dbe 00c6 6e3e be25 e4bc 7fe6 ebbd
00000360: ca39 57be b8d9 723d 5d61 093e 4ada 3cbe
00000370: 0847 f9bc e96f 903c 4be0 76be f636 2f3e
00000380: 2003 fdbd 5132 d0bd 3675 183d 532f d03d
00000390: 00f7 e7ba 298d 16be 8d35 1c3c b2d6 1d3e
000003a0: 5c56 0ebe 23d3 72be 2057 b23d da2e 4dbe
000003b0: 0858 36bd 53c3 f73d ca81 25be c938 0c3e
000003c0: 502c 12be 3a47 0bbe e48e 65be ea35 d1bd
000003d0: 54f0 d13d 7994 63be 2028 e2bd a12e eabd
000003e0: b857 57be d337 87be eb82 64bd ffe4 bfbd
000003f0: aef2 b2bd d80d 2ebe b51d cf3d 6c13 2bbe

body.2.weight f4 [256, 256]
0.02174083 0.00855495 -0.061179373 -0.050374363 0.005354357 -0.04761111 -0.035719007 -0.051856324
0.026629217 -0.026983261 -0.007576026 -0.027628273 -0.029737148 0.04445324 0.055461846 -0.04119717
-0.06813449 0.017944694 -0.021169666 0.058805577 -0.03744276 -0.065007195 -0.009880142 -0.01669119
-0.008191407 -0.044477563 0.035420433 0.02059784 -0.04843372 0.050592933 -0.052504376 -0.04515656
-0.05221588 -0.060216583 0.028189152 0.0032666514 -0.03908266 0.022016801 -0.05542147 0.033323087
0.0361941 -0.02985518 0.032431748 0.03419751 0.030706784 -0.045257915 0.0099523235 -0.02247002
0.02790035 0.004766767 0.03668487 0.03390237 -0.038384866 -0.015353426 0.011596233 0.0063365176
-0.012404136 0.0046438905 0.043244585 0.041302107 -0.0632872 0.01570347 0.011266656 -0.03613189
0.027703874 -0.0421691 -0.041830488 0.025714181 0.03077538 0.021461684 -0.065571114 -0.053183503
0.0051605 0.05025374 0.046037134 -4.825178e-05 0.050686754 -0.03467388 -0.02261347 0.011303127
0.059169374 0.052659348 -0.0034177154 -0.0071677417 0.04332184 -0.051804587 -0.016957235 0.0067744777
0.05778812 -0.0009100099 -0.057991527 -0.053272963 -0.03749337 -0.05828555 -0.06123676 0.05286756
0.057423815 0.03490273 0.044922486 -0.030606247 -0.035871986 0.035842918 0.03237885 0.03867671
-0.031754706 -0.04901634 -0.0018583614 -0.014692443 -0.045465134 0.017165741 0.038729597 0.017157262
0.04975503 0.00828965 0.0542325 0.0146855265 0.020713285 -0.035140797 -0.025856964 0.021564722
0.045234583 -0.03964539 -0.05562041 0.0073707327 0.013351932 -0.010946892 0.059747078 -0.061577283
-0.00044548346 -0.067962445 0.020525735 -0.046089273 0.053992204 0.0315028 -0.017190961 0.04927631
-0.050512984 -0.011428426 -0.048080903 -0.05413705 0.03688623 -0.05089955 -0.028228723 -0.010579601
0.01501435 -0.059595585 -0.0513822 0.044754796 0.035006233 -0.06527487 -0.028303891 -0.058032483
0.007036533 0.045082334 -0.0018115194 0.04811146 0.04440605 -0.057822205 -0.02170945 0.043647993
-0.01229021 -0.038818426 0.0048556775 0.032838974 -0.031314805 0.023018606 0.024408368 -0.041913405
-0.024514735 0.021783045 0.0028801323 -0.06141503 -0.032179736 0.052980594 0.051262304 -0.03690592
0.041394297 -0.03378199 0.030039012 -0.052200057 -0.024981827 0.0070413225 -0.009551096 -0.0012008324
-0.034063213 -0.016771475 -0.009506427 -0.056002237 0.04702609 0.050668493 -0.061516445 0.004118789
-0.013048179 -0.04807292 -0.036592185 -0.038084865 -0.009192102 0.017456267 -0.029048132 0.018221451
-0.060116205 0.030283712 0.017475989 -0.03230062 -0.062013894 0.055520676 0.000994727 0.026767135
0.047110215 0.010171592 0.0021695471 -0.018421032 -0.046144463 -0.025648925 -0.028318517 0.017829847
0.028112158 -0.05100973 -0.032550223 0.060527615 0.050843164 -0.056004517 0.027288835 -0.051898986
-0.03318643 -0.002613629 0.03345324 -0.005579509 -0.013702087 0.018531628 -0.02915129 0.034754653
0.055003908 -0.05021651 -0.031343963 0.045018554 -0.013518199 -0.028962538 0.016376186 0.0020015463
0.0068231174 -0.02279951 0.018735327 0.0036697462 0.02222455 -0.03563887 -0.008617513 0.016800286
-0.0014250427 -0.024157362 0.032458283 -0.031845715 -0.008212268 -0.03622836 -0.0071870163 -0.03109397
00000000: d319 b23c 102a 0c3c 3997 7abd 5955 4ebd
00000010: 9a73 af3b de03 43bd 184e 12bd 4c67 54bd
00000020: 8425 da3c 000c ddbc 5040 f8bb b054 e2bc
00000030: 529b f3bc 9a14 363d f62b 633d 5dbe 28bd
00000040: 188a 8bbd c000 933c 026c adbc 1ede 703d
00000050: 945d 19bd 7e22 85bd 52e0 21bc f6bb 88bc
00000060: 4035 06bc 1b2e 36bd 0415 113d cdbc a83c
00000070: 7062 46bd 893a 4f3d d40e 57bd 16f6 38bd
00000080: 52e0 55bd aaa5 76bd f0ec e63c 5115 563b
00000090: 2415 20bd 945c b43c a001 63bd ca7d 083d
000000a0: 4440 143d da92 f4bc 27d7 043d b012 0c3d
000000b0: cb8c fb3c 5d60 39bd 120f 233c 0c13 b8bc
000000c0: 468f e43c 8a32 9c3b e042 163d 36dd 0a3d
000000d0: 7339 1dbd f08c 7bbc 20fe 3d3c 90a2 cf3b
000000e0: b83a 4bbc c72b 983b 3c21 313d 662c 293d
000000f0: b89c 81bd 90a4 803c c897 383c 08ff 13bd
00000100: 3cf3 e23c 82b9 2cbd 7256 2bbd 8ca6 d23c
00000110: a61c fc3c 6ad0 af3c 264a 86bd f2d6 59bd
00000120: 6919 a93b ded6 4d3d 6f91 3c3d f461 4ab8
00000130: ea9c 4f3d 3306 0ebd e23f b9bc c030 393c
00000140: 965b 723d 54b1 573d c0fb 5fbb 60df eabb
00000150: 3e72 313d 0c31 54bd e6e9 8abc 70fc dd3b
00000160: 3cb3 6c3d bb8d 6eba 8688 6dbd c034 5abd
00000170: a692 19bd d4bc 6ebd 66d3 7abd a88b 583d
00000180: 3c35 6b3d 2af6 0e3d a400 383d f4b9 fabc
00000190: 81ee 12bd 06d0 123d af9f 043d 786b 1e3d
000001a0: 3911 02bd 5cc5 48bd 4394 f3ba 93b8 70bc
000001b0: a639 3abd 2b9f 8c3c eda2 1e3d 638d 8c3c
000001c0: eecb 4b3d 50d1 073c e622 5e3d 909b 703c
000001d0: e8ae a93c ccef 0fbd fcd1 d3bc 80a8 b03c
000001e0: e647 393d 3463 22bd 3ad2 63bd 3086 f13b
000001f0: 10c2 5a3c 985a 33bc 5ab9 743d 7638 7cbd
00000200: c78f e9b9 e52f 8bbd 9625 a83c 1bc8 3cbd
00000210: ee26 5d3d 1409 013d 0fd4 8cbc f5d5 493d
00000220: b4e6 4ebd 4b3e 3bbc 7bf0 44bd d0be 5dbd
00000230: 0416 173d 0c7c 50bd ec3f e7bc 1056 2dbc
00000240: c0fe 753c 801a 74bd 2476 52bd ce50 373d
00000250: b262 0f3d d5ae 85bd 90dd e7bc 78b3 6dbd
00000260: b892 e63b 41a8 383d 8170 edba 8610 453d
00000270: 1ee3 353d fad6 6cbd 04d8 b1bc 3dc8 323d
00000280: e15c 49bc 1200 1fbd 601c 9f3b 2982 063d
00000290: f443 00bd 8491 bc3c 0ff4 c73c 64ad 2bbd
000002a0: 20d3 c8bc 5b72 b23c 9ac0 3c3b 548e 7bbd
000002b0: e6ce 03bd 2e02 593d 6cf8 513d a92a 17bd
000002c0: 118d 293d fc5e 0abd 6014 f63c bacf 55bd
000002d0: b0a6 ccbc e5ba e63b 337c 1cbc 4065 9dba
000002e0: de85 0bbd 5564 89bc d8c0 1bbc 9a62 65bd
000002f0: 6e9e 403d c489 4f3d abf8 7bbd e8f6 863b
00000300: 08c8 55bc 1ce8 44bd b0e1 15bd e0fe 1bbd
00000310: 789a 16bc 7200 8f3c 59f6 edbc 2745 953c
00000320: 693c 76bd 8c15 f83c ce29 8f3c a84d 04bd
00000330: 4802 7ebd a669 633d 8061 823a c046 db3c
00000340: a4f6 403d c0a6 263c f62e 0e3b b4e7 96bc
00000350: fa01 3dbd b21d d2bc 3cfc e7bc e60f 923c
00000360: 784b e63c 94ef 50bd 6253 05bd ceeb 773d
00000370: ec40 503d fe64 65bd d68c df3c 0894 54bd
00000380: 7eee 07bd 6b49 2bbb 4406 093d 50d4 b6bb
00000390: b87e 60bc a4cf 973c b0ce eebc e55a 0e3d
000003a0: c74b 613d d4af 4dbd 8762 00bd 6065 383d
000003b0: 707b 5dbc d842 edbc 5a27 863c 602c 033b
000003c0: 7594 df3b 0ac6 babc d47a 993c 2080 703b
000003d0: 4210 b63c 10fa 11bd 7830 0dbc c1a0 893c
000003e0: 80c8 baba a9e5 c5bc faf2 043d a770 02bd
000003f0: c08c 06bc 3064 14bd 1081 ebbb c8b8 febc

body.2.bias f4 [256]
-0.008833337 -0.034060106 -0.06264365 -0.004067736 -0.051202424 0.038976286 -0.04071521 0.016700797
0.019263262 -0.043188885 -0.047328033 -0.019877002 -0.0055146064 0.02506831 -0.016725428 -0.022739524
-0.02225533 -0.01968035 0.027830955 0.013320889 -0.051781256 -0.022268146 -0.04377166 0.054830093
0.0053078015 -0.02786868 0.065233 -0.035023753 -0.003080273 -0.020369068 -0.007925548 -0.04818905
-0.031292956 -0.008623857 0.024880951 -0.048034936 -0.0121393595 0.0037932247 0.017246438 -0.00024224803
0.03442283 -0.050067954 -0.034445483 0.017054709 -0.023235925 0.05616289 0.0013603917 0.022390392
0.010890007 0.043734577 -0.0040110406 -0.047612876 -0.009334863 -0.0057644513 -0.011856029 -0.009943435
0.034134462 0.054453995 -0.028794592 -0.05628669 -0.015706629 0.006259367 0.039899897 0.023813352
0.051873505 0.03277217 -0.0465184 0.045400467 -0.005861684 -0.05029131 0.0075656916 0.008832192
0.027364608 6.60792e-05 -0.01696316 0.047123052 -0.05921383 -0.0060514566 0.03646025 -0.05801382
-0.006275106 0.037651192 0.06366515 0.00079757685 0.02310722 0.025851093 -0.04236382 0.05410975
-0.04889271 0.036238916 -0.02362144 -0.039924525 -0.040574923 0.03832839 -0.020114591 -0.019844078
0.029943382 -0.036819927 -0.00524676 -0.019676663 -0.007341991 -0.038141184 -0.043648995 0.0317041
-0.00033507723 0.002668294 -0.05010883 -0.013391535 -0.022392277 -0.011248066 0.011802569 -0.04805649
0.04309217 -0.011477208 -0.05816192 -0.01967751 -0.034292936 -0.008220571 -0.024499005 0.03584366
-0.003785939 0.03361947 0.0019523877 0.011253853 0.062137667 -0.032636404 -0.04681065 0.008884701
0.0006568134 0.040095963 -0.02564 -0.005759811 -0.0005505893 -0.05210486 -0.00788957 -0.042924426
-0.059310947 -0.035312794 0.036189534 -0.050250076 -0.061280504 0.0046409713 -0.054846786 0.055643983
-0.027743012 0.03331515 -0.00011303493 -0.041465033 -0.033586204 -0.05474713 -0.039430585 -0.039847933
-0.028852982 -0.0011821694 -0.06601823 0.0053568585 0.017847471 0.043793008 -0.06901852 0.014072529
0.003898822 0.008627053 0.032071784 -0.0361633 0.00509453 0.04471355 -0.006284086 0.009451064
0.042134553 0.02265391 0.03192524 0.023355424 0.028137282 -0.015448825 0.02876608 0.004766747
-0.008636682 -0.054953657 0.0001881142 -0.05837933 -0.02392727 -0.020844085 0.004306624 0.0033503037
0.0038337987 -0.0092411935 -0.048644025 0.018632522 -0.027174005 0.006392401 0.060310222 -0.05843974
0.04972816 -0.025017953 0.030571492 0.024215916 -0.014651347 -0.051871553 -0.04844617 -0.014326608
0.024382576 -0.029591288 0.06255738 0.003861009 -0.030162986 0.047020767 0.015002508 0.005518469
-0.018504465 -0.0041457983 -0.053707138 -0.059564896 -0.019550614 -0.039120007 0.007121019 0.07301807
0.031998478 0.022830596 -0.008541435 0.027054545 0.044587787 -0.013744155 -0.06302479 0.027327005
0.04009983 -0.050878726 0.042354967 0.04194457 -0.06658424 0.003061907 -0.08573432 0.010103732
-0.006684974 -0.05889117 0.044625245 0.032849133 0.046718035 0.05924123 -0.028009031 0.025239337
-0.05610452 -0.06677099 -0.031102754 0.029862424 0.023466209 -0.05599677 0.06305267 0.06530214
-0.03665117 -0.061124533 -0.03065897 0.04415683 0.013962101 0.0043242606 0.02683009 0.0023898005
00000000: b3b9 10bc 9c82 0bbd 504b 80bd a54a 85bb
00000010: a2b9 51bd 99a5 1f3d fec4 26bd 1cd0 883c
00000020: fdcd 9d3c d4e6 30bd 0adb 41bd 18d5 a2bc
00000030: dfb3 b4bb 0e5c cd3c c403 89bc 3d48 babc
00000040: cf50 b6bc af38 a1bc befd e33c dc3f 5a3c
00000050: 9518 54bd b06b b6bc ea49 33bd 8595 603d
00000060: 11ed ad3b dc4c e4bc e198 853d 1175 0fbd
00000070: 68de 49bb 08dd a6bc 28da 01bc e261 45bd
00000080: 0b2d 00bd 144b 0dbc 23d3 cb3c 48c0 44bd
00000090: 2ae4 46bc c097 783b 6748 8d3c f603 7eb9
000000a0: f4fe 0c3d 0e14 4dbd b516 0dbd 51b6 8b3c
000000b0: 4459 bebc 0f0b 663d 2c4f b23a 0e6c b73c
000000c0: 006c 323c 0723 333d 0c6f 83bb b805 43bd
000000d0: 41f1 18bc b9e3 bcbb ca3f 42bc cae9 22bc
000000e0: 94d0 0b3d 270b 5f3d a3e2 ebbc df8c 66bd
000000f0: 30ab 80bc 601b cd3b 136e 233d 3814 c33c
00000100: 5079 543d 1c3c 063d 148a 3ebd d7f5 393d
00000110: 5f13 c0bb 43fe 4dbd 9fe9 f73b e6b4 103c
00000120: be2b e03c 0094 8a38 53f6 8abc 1a04 413d
00000130: 338a 72bd 4c4b c6bb 5857 153d e69f 6dbd
00000140: 689f cdbb 2338 1a3d e062 823d 7a14 513a
00000150: 5a4b bd3c acc5 d33c af85 2dbd 2fa2 5d3d
00000160: b943 48bd 426f 143d c081 c1bc e687 23bd
00000170: e431 26bd 3bfe 1c3d 5bc7 a4bc 0c90 a2bc
00000180: d34b f53c 7ed0 16bd 03ed abbb f430 a1bc
00000190: 1695 f0bb ee39 1cbd 4ac9 32bd 29dc 013d
000001a0: 4ead afb9 8bde 2e3b eb3e 4dbd 2b68 5bbc
000001b0: 0270 b7bc cf49 38bc 905f 413c e2d6 44bd
000001c0: 6a81 303d e60a 3cbc 323b 6ebd bb32 a1bc
000001d0: c076 0cbd 93af 06bc 23b2 c8bc cdd0 123d
000001e0: 841d 78bb 92b4 093d 43e7 ff3a 1562 383c
000001f0: 1184 7e3d c0ad 05bd 86bc 3fbd 2391 113c
00000200: 002e 2c3a aa3b 243d fa0a d2bc ccbc bcbb
00000210: 6c55 10ba e86b 55bd 4143 01bc 86d1 2fbd
00000220: 09f0 72bd 26a4 10bd 7a3b 143d 06d3 4dbd
00000230: 4401 7bbd 4a13 983b 06a7 60bd f2ea 633d
00000240: 5045 e3bc 7775 083d 2a0d edb8 3dd7 29bd
00000250: b091 09bd 873e 60bd f781 21bd 9637 23bd
00000260: 175d ecbc 06f3 9aba 9134 87bd 9688 af3b
00000270: dc34 923c 4c60 333d 9559 8dbd 7790 663c
00000280: 6183 7f3b 7c58 0d3c b45d 033d f81f 14bd
00000290: 04f0 a63b 8e25 373d bcea cdbb a3d8 1a3c
000002a0: 4895 2c3d b194 b93c 0ac4 023d e053 bf3c
000002b0: 2880 e63c 121d 7dbc d8a6 eb3c 5f32 9c3b
000002c0: df80 0dbc 1617 61bd 8540 4539 2a1f 6fbd
000002d0: 1f03 c4bc 37c1 aabc 951e 8d3b c590 5b3b
000002e0: 7840 7b3b 6068 17bc f53e 47bd 3ba3 983c
000002f0: 059c debc 5977 d13b da07 773d 825e 6fbd
00000300: c1af 4b3d 73f2 ccbc 1171 fa3c 7560 c63c
00000310: 340c 70bc 4477 54bd 7e6f 46bd 26ba 6abc
00000320: f8bd c73c 6e69 f2bc 151e 803d fb08 7d3b
00000330: 5e18 f7bc d998 403d 14cd 753c 46d4 b43b
00000340: ad96 97bc 7ad9 87bb 04fc 5bbd 52fa 73bd
00000350: 9c28 a0bc 4d3c 20bd 7057 e93b 7f8a 953d
00000360: d610 033d 3b07 bb3c 60f1 0bbc 7ea1 dd3c
00000370: afa1 363d 2a2f 61bc 2413 81bd e2dc df3c
00000380: b83f 243d 3666 50bd 677c 2d3d 12ce 2b3d
00000390: 515d 88bd 46aa 483b 7a95 afbd 208a 253c
000003a0: a00d dbbb de37 71bd f6c8 363d d08c 063d
000003b0: 695b 3f3d efa6 723d 3273 e5bc bac2 ce3c
000003c0: dacd 65bd 3bbf 88bd 34cb febc 0ba2 f43c
000003d0: 353c c03c de5c 65bd c221 813d 21bd 853d
000003e0: 8a1f 16bd b85d 7abd 8528 fbbc cbdd 343d
000003f0: 4cc1 643c 87b2 8d3b c7ca db3c 339e 1c3b

mu_head.weight f4 [2, 256]
-0.04120207 0.050261706 0.036556944 -0.02298473 -0.057929456 0.049927782 -0.106490344 0.037830137
-0.03373177 -0.0010386407 0.056774173 -0.018304745 0.001276238 -0.088947274 0.024193842 0.061365284
-0.09531985 -0.050750885 0.048174866 0.094625756 -0.05498525 -0.039457757 -0.028147759 0.0588019
0.12980725 0.102189176 0.04186488 0.03338449 0.09811246 -0.03020113 -0.024292417 0.0022949502
-0.062801756 -0.12517534 -0.056093037 -0.15871046 -0.0020132523 0.039316818 0.0018420666 0.034075
-0.04804546 -0.046264462 0.004588915 0.04232701 -0.004267417 0.0015083135 0.05633549 0.0058037643
0.0111329425 0.015261918 -0.03340994 -0.0034642327 0.026026046 0.026058093 -0.118124016 0.011510994
0.015784323 -0.01579553 -0.062844485 0.043009758 -0.007116884 -0.011744462 0.012066828 -0.00042662237
0.035696298 0.027055154 0.04871148 -0.024360625 -0.066548616 -0.044909008 0.044583943 -0.026965054
0.021173494 0.00076205283 -0.079769544 -0.017839126 -0.048812676 -0.02100116 0.018718591 0.021432027
0.026496233 0.059404306 0.02437753 0.0032989131 -0.079849474 0.03817503 0.026647953 -0.056241427
-0.0044732844 -0.09115623 0.033726074 -0.009919307 -0.039261572 0.072044194 0.0064282482 -0.05291684
-0.025534883 0.026558265 0.049484365 -0.031343367 -0.020825874 -0.03029441 0.030021466 -0.056003667
0.029042697 0.0099426815 -0.11508112 0.05532677 -0.02320829 -0.017900223 0.032076824 -0.03404296
-0.046990655 -0.096408196 0.025086798 0.0010453783 0.052943297 0.018036703 0.04562885 -0.014542293
0.036907636 0.018180078 0.035385065 0.0471496 0.025024481 -0.044489767 0.011763461 -0.04422838
0.025293931 0.01715003 -0.038901147 -0.12276642 -0.01165461 0.06845086 -0.00013274308 -0.053912155
0.03624125 0.0046824813 -0.011180796 0.056888252 -0.0042301565 -0.00043894674 -0.0023096085 0.0318044
-0.060197763 -0.056752257 0.035457782 -0.014114882 0.018378155 -0.010363681 -0.046168245 -0.04136304
0.0012122174 -0.018976193 0.038806748 0.0058090845 -0.121603906 -0.0010625909 0.03719632 0.0118918475
0.058016263 0.0077037183 0.029358895 -0.0068685114 0.0024746007 0.05289103 0.025163412 -0.01093277
0.013626671 -0.0032581124 0.014504053 -0.013026061 -0.023541495 0.0035075352 0.058103 -0.00958503
-0.02998597 0.022176042 -0.026992664 -0.041029863 -0.055997163 -0.039490364 -0.042647347 -0.05294247
-0.06252239 -0.025126599 0.010303482 -0.042991333 -0.00396938 -0.06151375 0.02959741 0.062325366
-0.008219426 -0.0028183658 0.04300209 -0.02656834 0.002935691 0.016112495 0.028048549 -0.08694791
-0.02702945 -0.06293391 0.020481378 0.029582579 -0.0018261318 -0.005279554 -0.096797004 0.04774596
0.024673097 0.005894091 -0.04950918 -0.017941587 -0.071605384 0.0269871 -0.058861807 -0.10592996
-0.009993286 -0.048110686 0.03460136 0.0109287575 -0.09242283 0.11614716 0.023981513 -0.034444608
0.029847592 0.016591847 0.016784849 -0.029577829 -0.06241948 -0.093836136 0.07533888 0.0060298536
-0.018031223 0.043932773 -0.05110875 -0.104322106 -0.044599902 0.045234896 0.036592502 -0.049751166
-0.018014846 -0.009738189 -0.04368379 -0.082155675 -0.09110871 0.03699229 -0.041602727 -0.07028256
-0.03807356 -0.022106998 -0.073328674 -0.0037767063 0.028550375 -0.018381614 -0.0058513177 0.0064337
00000000: 80c3 28bd 38df 4d3d bcbc 153d 794a bcbc
00000010: 7047 6dbd 1381 4c3d 9c17 dabd c6f3 1a3d
00000020: 532a 0abd 0023 88ba 098c 683d d5f3 95bc
00000030: 7147 a73a fd29 b6bd 2a32 c63c 2a5a 7b3d
00000040: 0e37 c3bd 29e0 4fbd 0253 453d 26cb c13d
00000050: 3738 61bd 759e 21bd 2196 e6bc 43da 703d
00000060: 31ec 043e 8f48 d13d 827a 2b3d 2dbe 083d
00000070: 2fef c83d 5c68 f7bc e400 c7bc e066 163b
00000080: 359e 80bd f72d 00be d0c1 65bd ff84 22be
00000090: c5f0 03bb ac0a 213d 8071 f13a 3a92 0b3d
000000a0: 51cb 44bd ce7f 3dbd 9c5e 963b 165f 2d3d
000000b0: b0d5 8bbb 9ab2 c53a 0bc0 663d 812d be3b
000000c0: f266 363c 200d 7a3c dcd8 08bd 2e08 63bb
000000d0: 9334 d53c c877 d53c 01eb f1bd 9c98 3c3c
000000e0: 204e 813c a165 81bc 9cb4 80bd 002b 303d
000000f0: c034 e9bb d86b 40bc f2b3 453c 49ac dfb9
00000100: 4836 123d c5a2 dd3c b085 473d ef8f c7bc
00000110: a44a 88bd 82f2 37bd a79d 363d d1e5 dcbc
00000120: 0974 ad3c 80c4 473a 375e a3bd 5c23 92bc
00000130: cdef 47bd a00a acbc bb57 993c 3892 af3c
00000140: a10e d93c ee51 733d 63b3 c73c 9432 583b
00000150: 1f88 a3bd 6c5d 1c3d cf4c da3c 695d 66bd
00000160: a194 92bb 1eb0 babd 5a24 0a3d 9784 22bc
00000170: bed0 20bd e88b 933d 0ea4 d23b 54bf 58bd
00000180: 882e d1bc b890 d93c 1eb0 4a3d e761 00bd
00000190: 069b aabc fc2b f8bc 94ef f53c 1a64 65bd
000001a0: f3ea ed3c a1e6 223c a6af ebbd 539e 623d
000001b0: 501f bebc 7da3 92bc fd62 033d a170 0bbd
000001c0: 4679 40bd a971 c5bd d482 cd3c 1305 893a
000001d0: 12db 583d b5c1 933c 51e5 3a3d cc42 6ebc
000001e0: 762c 173d 63ee 943c eeef 103d f01f 413d
000001f0: 2400 cd3c e73a 36bd 88bb 403c d128 35bd
00000200: 3835 cf3c 387e 8c3c cf56 1fbd f66c fbbd
00000210: faf2 3ebc f72f 8c3d f330 0bb9 fed2 5cbd
00000220: b471 143d 806f 993b a82f 37bc a803 693d
00000230: 209d 8abb 6f22 e6b9 cd5c 17bb 5545 023d
00000240: ee91 76bd 0e75 68bd 2e3c 113d 1b42 67bc
00000250: c98d 963c 6ecc 29bc ea1a 3dbd 4b6c 29bd
00000260: 44e3 9e3a f673 9bbc d3f3 1e3d 225a be3b
00000270: 780b f9bd a246 8bba 2b5b 183d 06d6 423c
00000280: 76a2 6d3d 796f fc3b 1182 f03c 4011 e1bb
00000290: e92c 223b 44a4 583d 8023 ce3c 5c1f 33bc
000002a0: 6742 5f3c 0e86 55bb 68a2 6d3c 426b 55bc
000002b0: 18da c0bc adde 653b 69fd 6d3d 880a 1dbc
000002c0: 23a5 f5bc 88aa b53c b81f ddbc ee0e 28bd
000002d0: 485d 65bd a6c0 21bd fcae 2ebd 34da 58bd
000002e0: bd0b 80bd 4cd6 cdbc f0cf 283c ae17 30bd
000002f0: 9311 82bb d8f5 7bbd 4476 f23c e248 7f3d
00000300: c5aa 06bc 55b4 38bb f622 303d d9a5 d9bc
00000310: b964 403b 5afe 833c 12c6 e53c bf11 b2bd
00000320: dd6c ddbc 7ee3 80bd 90c8 a73c 2a57 f23c
00000330: d15a efba 1c00 adbb 823d c6bd 4591 433d
00000340: 3c1f ca3c 3823 c13b 23ca 4abd 3cfa 92bc
00000350: d8a5 92bd 0d14 dd3c 1419 71bd cff1 d8bd
00000360: e1ba 23bc b60f 45bd 28ba 0d3d 880e 333c
00000370: 2e48 bdbd 90de ed3d e174 c43c ca15 0dbd
00000380: f082 f43c a0eb 873c 6180 893c 344d f2bc
00000390: 92ab 7fbd 292d c0bd 454b 9a3d 1496 c53b
000003a0: 37b6 93bc daf2 333d 6957 51bd d4a6 d5bd
000003b0: 63ae 36bd 3a48 393d 05e2 153d e1c7 4bbd
000003c0: df93 93bc ed8c 1fbc c6ed 32bd 3c41 a8bd
000003d0: 3497 babd 3a85 173d 9f67 2abd 4ef0 8fbd
000003e0: 05f3 1bbd bc19 b5bc 582d 96bd 9e82 77bb
000003f0: 7ae2 e93c 0a95 96bc 69bc bfbb cad1 d23b

mu_head.bias f4 [2]
-0.020203095 0.00052892265
00000000: f680 a5bc 66a7 0a3a

model.0.weight f4 [256, 39]
0.092759356 -0.031745438 0.21486787 -0.048645016 0.2606407 0.10926709 0.33765823 -0.050093
0.054099318 0.10185637 0.107946366 -0.1577174 -0.059550256 0.008218708 0.05581349 -0.051079243
-0.052772976 0.08009029 0.19653814 0.4576175 0.09429587 -0.03838709 -0.094598874 -0.11258957
0.048434425 -0.024106627 0.0017384028 -0.026508488 -0.01525618 0.12599607 0.16713625 0.08671409
0.3716083 0.06607467 0.03201446 -0.13170815 0.13367839 0.07003896 0.04656372 -0.08136852
-0.1431661 -0.15301414 0.022209808 0.24199867 0.4662489 0.06286213 0.13125458 0.012564803
0.11974384 0.022727385 -0.08097723 -0.058816057 0.11300121 -0.010504267 0.024321433 -0.07995668
0.24931799 0.59368014 -0.124933966 -0.037212823 0.058649596 -0.033357155 -0.030614207 0.06762013
0.13874924 -0.18615694 0.10140708 -0.22733451 0.080538295 0.11825756 0.59906644 0.06907292
0.046683088 0.1483704 -0.025604233 0.02230542 0.0060574957 0.026927538 -0.04321946 0.20534454
-0.37409148 0.12452029 0.24537285 0.5311453 -0.24352375 0.010805804 0.10601226 0.020658989
0.049319334 0.08391533 0.14452165 0.044211283 -0.05554116 -0.24436578 0.10407816 0.30879086
0.5011048 -0.036154125 0.12255706 0.10069627 -0.03898073 -0.11305325 -0.11459188 -0.069590084
-0.21003298 0.21210775 -0.2432542 0.20188773 0.16739234 0.48843336 -0.18550386 0.06285747
0.13787 0.020576017 -0.08869311 0.13594227 0.1472947 0.043118857 -0.09224796 0.007086142
0.20384939 0.27016154 0.47825548 -0.08592016 -0.09773384 0.12219105 -0.16499488 0.057888206
0.11051198 -0.08304874 -0.096008234 -0.08577848 -0.22368896 -0.021039423 0.2952741 0.6176292
0.07922284 -0.079707965 0.07137017 -0.042362746 0.008258407 -0.0693502 0.17117986 -0.006803292
0.06733611 -0.26191515 0.044262398 0.30909458 0.6945268 0.080614425 0.16430871 -0.07445895
0.02486533 -0.06071365 0.08888647 -0.0038979775 0.03845349 -0.13842669 0.07259786 0.07269022
0.14145544 -0.14431226 -0.1168033 -0.11921041 -0.1433342 0.14475688 -0.003979489 0.037046537
-0.15593979 -0.057068855 -0.13550399 0.021399155 0.056494713 -0.1164538 -0.018951535 -0.15835543
-0.024978474 0.0048924536 -0.0003771782 -0.027433708 -0.14050704 -0.04470449 -0.14534649 -0.009311855
-0.14274146 -0.05161985 -0.022020236 -0.0018248111 -0.03746011 -0.12331543 0.005075395 0.034373075
0.028458402 -0.1344181 0.13289079 -0.06118172 0.10732923 -0.005791871 0.19713742 0.18440047
0.64035743 0.1874787 0.06606619 0.0067326194 0.110496104 0.14226802 -0.15073505 0.1307627
-0.03159316 -0.14774315 -0.14944185 0.12518722 0.18869309 0.49330646 0.2685533 0.12262929
-0.078242116 -0.1481406 0.11429544 0.06520483 0.01171352 -0.053062897 -0.12047541 -0.1231968
-0.024181748 0.28340852 0.53664297 0.11365602 -0.019731121 -0.05269779 -0.036380343 -0.09223533
-0.0850571 0.15103042 -0.11036755 -0.072230734 -0.27827018 -0.059720486 0.036044404 0.3245865
-0.19341493 -0.014704483 0.12163201 0.034069654 0.08521276 0.1183473 0.007799782 -0.038012885
0.092010476 -0.2961938 -0.0104287965 0.015937913 0.23507228 -0.28035855 0.0012852518 -0.06775668
00000000: 9ef8 bd3d 8107 02bd 5306 5c3e ff3f 47bd
00000010: b372 853e 6dc7 df3d 8ae1 ac3e 512e 4dbd
00000020: 3f97 5d3d 139a d03d fc12 dd3d ac80 21be
00000030: f8ea 73bd c3a7 063c b09c 643d 7838 51bd
00000040: 7a28 58bd 6106 a43d 4b41 493e d74c ea3e
00000050: 311e c13d c83b 1dbd 0ebd c1bd 5c95 e6bd
00000060: 2d63 463d 437b c5bc 1edb e33a 5428 d9bc
00000070: 0ff5 79bc 1d05 013e c425 2b3e 2897 b13d
00000080: 7143 be3e 2852 873d 9821 033d 80de 06be
00000090: fde2 083e 9670 8f3d 99b9 3e3d 8aa4 a6bd
000000a0: 229a 12be bdaf 1cbe 58f1 b53c 80ce 773e
000000b0: 2db8 ee3e dcbd 803d 9a67 063e 9adc 4d3c
000000c0: 423c f53d c82e ba3c 64d7 a5bd 1be9 70bd
000000d0: 2e6d e73d 171a 2cbc be3d c73c 54c0 a3bd
000000e0: 374d 7f3e 6cfb 173f 61dd ffbd 796c 18bd
000000f0: 8f3a 703d 83a1 08bd a5ca fabc 6c7c 8a3d
00000100: 4814 0e3e ed9f 3ebe 84ae cf3d 61ca 68be
00000110: 43f1 a43d 0531 f23d 6b5c 193f 1a76 8d3d
00000120: c436 3f3d 69ee 173e f8bf d1bc dbb9 b63c
00000130: f57d c63b 2497 dc3c e306 31bd d745 523e
00000140: eb88 bfbe 7e04 ff3d 0543 7b3e 23f9 073f
00000150: 4a5e 79be d40a 313c f51c d93d 0a3d a93c
00000160: 1203 4a3d cddb ab3d 7cfd 133e e416 353d
00000170: 217f 63bd 063b 7abe ee26 d53d d619 9e3e
00000180: 6748 003f 5916 14bd 32ff fa3d d939 ce3d
00000190: 42aa 1fbd 7688 e7bd 26af eabd 3f85 8ebd
000001a0: e312 57be c632 593e a117 79be a8bb 4e3e
000001b0: e668 2b3e f013 fa3e b9f4 3dbe 6bbb 803d
000001c0: cb2d 0d3e 098f a83c bca4 b5bd 7334 0b3e
000001d0: 6cd4 163e 669d 303d 80ec bcbd de32 e83b
000001e0: e5bd 503e 9d52 8a3e e7dd f43e e9f6 afbd
000001f0: ae28 c8bd 4d3f fa3d 6bf4 28be 2f1c 6d3d
00000200: 1b54 e23d 7515 aabd f79f c4bd a1ac afbd
00000210: b80e 65be de5a acbc 2b2e 973e f21c 1e3f
00000220: 963f a23d ee3d a3bd 862a 923d 8f84 2dbd
00000230: 454e 073c 7a07 8ebd c649 2f3e 26ee debb
00000240: 84e7 893d be19 86be 7d4c 353d a541 9e3e
00000250: 82cc 313f 2d19 a53d 8b40 283e ef7d 98bd
00000260: 60b2 cb3c e0ae 78bd 1c0a b63d 3675 7fbb
00000270: 6881 1d3d babf 0dbe 30ae 943d 9cde 943d
00000280: b2d9 103e 98c6 13be 9236 efbd 9624 f4bd
00000290: 33c6 12be 263b 143e 6066 82bb 1cbe 173d
000002a0: aeae 1fbe 08c1 69bd 8fc1 0abe 484d af3c
000002b0: 0067 673d 547f eebd 4040 9bbc ed27 22be
000002c0: a89f ccbc e050 a03b 00c0 c5b9 a8bc e0bc
000002d0: 14e1 0fbe 0e1c 37bd b6d5 14be c090 18bc
000002e0: d12a 12be 566f 53bd c863 b4bc 802e efba
000002f0: c66f 19bd cd8c fcbd 804f a63b c8ca 0c3d
00000300: 9821 e93c e6a4 09be 8614 083e af99 7abd
00000310: 6dcf db3d bcc9 bdbb 64de 493e 7ad3 3c3e
00000320: 77ee 233f 6bfa 3f3e b64d 873d 4e9d dc3b
00000330: c84b e23d b5ae 113e 4a5a 1abe a8e6 053e
00000340: d467 01bd fb49 17be 4907 19be 1431 003e
00000350: c338 413e aa92 fc3e d17f 893e 1125 fb3d
00000360: 673d a0bd 2bb2 17be ba13 ea3d 1c8a 853d
00000370: 10ea 3f3c 7b58 59bd d0bb f6bd 9b4e fcbd
00000380: cd18 c6bc ec1a 913e 6f61 093f 7dc4 e83d
00000390: 29a3 a1bc a3d9 57bd 8e03 15bd e0e5 bcbd
000003a0: 6b32 aebd b8a7 1a3e 6208 e2bd b5ed 93bd
000003b0: 6e79 8ebe 789d 74bd 4ca3 133d 3430 a63e
000003c0: 900e 46be 12eb 70bc 341a f93d 9f8c 0b3d
000003d0: 0784 ae3d 1260 f23d 5095 ff3b 66b3 1bbd
000003e0: fd6f bc3d b7a6 97be 8bdd 2abc 3a90 823c
000003f0: cab6 703e 288b 8fbe e575 a83a 04c4 8abd

model.0.bias f4 [256]
0.07526221 0.070073545 0.18218325 -0.03397799 -0.057034776 -0.0006464387 0.17606887 -0.104062885
-0.00085190195 0.0126975905 0.17356628 0.08052567 -0.02552357 0.045558937 0.0704404 -0.030284138
0.041288607 -0.13174888 0.12404646 0.07357316 0.14418457 0.030511482 0.008548268 0.013880783
-0.13567819 -0.1239235 0.066745654 -0.09672476 0.16610843 -0.11689854 0.08427951 0.06540527
0.072049245 -0.08248823 -0.049447395 0.061317243 0.04097178 0.048111912 0.043306023 0.12573493
0.18901426 0.09888227 0.027583115 0.0005633217 0.19089983 -0.062472414 -0.014409288 -0.0009238554
-0.05073618 0.037863214 0.049708687 -0.12564956 0.12096083 0.1743773 0.16437832 -0.06447478
0.08444865 0.11885753 0.06440176 0.14898801 -0.0056680185 0.12766308 0.02928023 -0.043028496
0.0059197797 0.11155453 -0.12669182 0.14070408 0.168696 0.042639993 -0.11621978 0.061582495
-0.09087411 -0.046146832 0.1522707 0.11699682 0.11585623 0.05710435 0.063164175 -0.092672184
0.091443375 0.16191721 0.16464551 -0.048678488 -0.044770442 0.05947321 -0.0010966038 -0.0928288
0.1267235 0.120366044 -0.103888735 -0.08290935 0.048284948 0.17786188 -0.13711715 0.05162691
0.12270705 -0.09359923 0.030068005 0.068675414 0.15329155 0.14177316 0.005068421 -0.073122144
0.1741648 0.109022535 -0.027915632 -0.09838405 0.03141819 -0.0015129142 -0.008548301 -0.0027341445
0.16417374 -0.0027041584 0.013067275 -0.084027834 -0.1474273 0.17229451 0.15994486 0.20339756
0.06713994 -0.10276695 0.09855949 0.015379593 -0.016165242 0.02002807 -0.0031989068 -0.15700838
0.17818516 0.03144362 0.13265812 -0.019252181 0.15257038 -0.10139485 -0.0006693529 0.056899436
0.08491393 0.04817672 -0.023265138 0.14327642 0.17870212 -0.16609313 0.08035343 -0.14628707
-0.054764993 -0.026121411 0.095929295 0.14727928 -0.049941547 0.15720654 -0.15386724 -0.0016191642
-0.009204727 0.13659963 0.15896603 -0.016000438 -0.055066533 0.16063051 -0.009777513 0.1538266
0.19721757 0.14590645 0.008285403 0.19640201 0.12540087 0.111069635 0.059462868 0.051024478
0.103732646 -0.09884997 0.046920136 -0.13148426 0.13070552 0.041685272 0.067595564 0.09208306
0.05116972 -0.101852395 0.10852311 0.13407621 0.06856013 0.010375386 0.08025128 -0.05150509
-0.017658323 0.11087122 0.10136612 0.09814393 0.009227102 -0.11443885 0.111685894 0.102537304
-0.11573838 -0.10864272 0.17182714 -0.031194478 -0.010074244 0.040196497 0.022776708 -0.043194015
-0.08972257 -0.024786463 -0.12327627 -0.009808436 0.1500019 -0.12837233 0.11147925 0.06526684
0.17251115 -0.015623373 -0.021863122 -0.047772624 -0.08772474 0.13715036 -0.014708966 -0.04152494
-0.08704375 -0.08993586 0.016558152 -0.11117001 0.06766586 0.14411093 -0.09971353 -0.15509176
0.029955178 0.05193753 -0.0056874007 0.016414281 -0.1538327 0.037128136 0.08782838 -0.14725669
-0.15763435 0.15567295 0.09281718 0.0059310347 0.0023612645 0.027579864 0.1794391 -8.627151e-05
0.16370727 -0.095940754 0.12269608 -0.15020324 0.08279911 0.036446534 0.08884296 -0.14489554
-0.045938265 -0.042803314 0.17029712 -0.005849501 -0.106255025 -0.06600417 -0.15206695 0.105622105
00000000: 1323 9a3d b882 8f3d 3f8e 3a3e 812c 0bbd
00000010: 4c9d 69bd c475 29ba 664b 343e ec1e d5bd
00000020: 2c52 5fba 8e09 503c 5cbb 313e a4ea a43d
00000030: ce16 d1bc 029c 3a3d 0e43 903d 7116 f8bc
00000040: 3e1e 293d 2ee9 06be 120c fe3d 86ad 963d
00000050: 1fa5 133e 37f3 f93c 090e 0c3c 396c 633c
00000060: 39ef 0abe 9bcb fdbd f2b1 883d a217 c6bd
00000070: 5418 2a3e 8068 efbd bc9a ac3d 33f3 853d
00000080: 8e8e 933d 97ef a8bd 5a89 4abd ca27 7b3d
00000090: 06d2 273d ff10 453d a861 313d a8c0 003e
000000a0: f48c 413e ca82 ca3d fcf5 e13c e1ab 133a
000000b0: 3f7b 433e 13e3 7fbd ef14 6cbc e32e 72ba
000000c0: bed0 4fbd 7516 1b3d 569b 4b3d 47aa 00be
000000d0: 50ba f73d f78f 323e ca52 283e 5a0b 84bd
000000e0: 6af3 ac3d 946b f33d 12e5 833d 5090 183e
000000f0: c9ba b9bb 1cba 023e 18dd ef3c a63e 30bd
00000100: b6fa c13b b476 e43d 80bb 01be bb14 103e
00000110: a5be 2c3e 46a7 2e3d a304 eebd ed3d 7c3d
00000120: 351c babd 7604 3dbd daec 1b3e 079c ef3d
00000130: 0846 ed3d 40e6 693d 385c 813d eaca bdbd
00000140: aa46 bb3d a0cd 253e d598 283e 1863 47bd
00000150: 3661 37bd 2e9a 733d ebbb 8fba 071d bebd
00000160: cec3 013e 7982 f63d 9ec3 d4bd 61cc a9bd
00000170: 70c6 453d 6d21 363e 7068 0cbe bd76 533d
00000180: d54d fb3d f4b0 bfbd 2d51 f63c b2a5 8c3d
00000190: 76f8 1c3e fc2c 113e ff14 a63b 10c1 95bd
000001a0: 4258 323e 3547 df3d 53af e4bc 947d c9bd
000001b0: 5cb0 003d fa4c c6ba 2c0e 0cbc 552f 33bb
000001c0: 291d 283e 4038 31bb 2018 563c c916 acbd
000001d0: 2ff7 16be f96d 303e 96c8 233e 7347 503e
000001e0: aa80 893d 7b77 d2bd 8fd9 c93d b0fa 7b3c
000001f0: f86c 84bc e811 a43c c0a4 51bb cec6 20be
00000200: 2c76 363e 06cb 003d 88d7 073e c0b6 9dbc
00000210: 693b 1c3e 1aa8 cfbd 8377 2fba 620f 693d
00000220: 5be7 ad3d f454 453d 8896 bebc 0eb7 123e
00000230: b0fd 363e 5114 2abe 5790 a43d 47cc 15be
00000240: 4251 60bd 92fc d5bc 9476 c43d 61d0 163e
00000250: 828f 4cbd c0fa 203e 608f 1dbe 233a d4ba
00000260: 6ccf 16bc c6e0 0b3e fec7 223e 5a13 83bc
00000270: 728d 61bd 537c 243e dd31 20bc b884 1d3e
00000280: 67f3 493e 8068 153e 80bf 073c 9c1d 493e
00000290: 1669 003e 7a78 e33d 568f 733d 0bff 503d
000002a0: c871 d43d da71 cabd 542f 403d cfa3 06be
000002b0: abd7 053e 2dbe 2a3d 8b6f 8a3d 0b96 bc3d
000002c0: 5797 513d fd97 d0bd 5d41 de3d 464b 093e
000002d0: 4169 8c3d 86fd 293c c85a a43d 00f7 52bd
000002e0: 30a8 90bc 7310 e33d 0a99 cf3d afff c83d
000002f0: 452d 173c ea5e eabd 93bb e43d 14ff d13d
00000300: 3e08 edbd 1380 debd 74f3 2f3e 908b ffbc
00000310: 710e 25bc 15a5 243d 3896 ba3c 35ec 30bd
00000320: 77c0 b7bd fb0c cbbc 4578 fcbd 90b3 20bc
00000330: 199a 193e 0974 03be 3c4f e43d 9faa 853d
00000340: c3a6 303e 2df9 7fbc 4a1a b3bc 3aad 43bd
00000350: 07a9 b3bd 2571 0c3e e0fd 70bc 0e16 2abd
00000360: fe43 b2bd 4b30 b8bd f6a4 873c 1aad e3bd
00000370: 6694 8a3d d191 133e 9b36 ccbd 60d0 1ebe
00000380: 9064 f53c 73bc 543d 605d babb 3e77 863c
00000390: 5286 1dbe ac13 183d 5edf b33d 75ca 16be
000003a0: e66a 21be bb68 1f3e ef16 be3d 2059 c23b
000003b0: 72bf 1a3b 2bef e13c e2be 373e aaec b4b8
000003c0: e1a2 273e 967c c4bd 1548 fb3d e1ce 19be
000003d0: 9492 a93d f648 153d 4cf3 b53d 7f5f 14be
000003e0: c329 3cbd 8752 2fbd 5e62 2e3e 2cad bfbb
000003f0: 3c9c d9bd 322d 87bd 70b7 1bbe 6750 d83d
