models/mappo_best_stage_4.pt (torch, 853690 bytes, 14 tensors)

log_std f4 [2]
00000000: 94d0 9cbe 1a71 96be
-0.30627882 -0.29383165

body.0.weight f4 [256, 13]
00000000: aa6b 823e 0d12 39bc caef 35bd 31f7 97bd
00000010: 3488 b0be f140 313e f65e 4a3d df6b bcbe
00000020: e310 72be ee63 a2be b31a cdbd ebf8 243e
00000030: 7416 353e 7e1c a93c 2e7f 91bb a5d9 82be
00000040: d7dd c23c 6068 d8bd 5c60 aabe cced 91be
00000050: 157d 84be 69cf 14bd 178f bcbe 0356 7ebe
00000060: ae3d 2f3e 8ed4 a1bd 68ad 10bd 8051 66bc
00000070: d0e7 5d3e c12f 883e 9077 353d 9848 6cbd
00000080: c7a0 14be 74ac ad3d 8606 bcbd 74a2 57be
00000090: 10d6 303e 147a 11bd 4824 babd 724d 7fbe
000000a0: 9599 e23b 9a7b d3bd c4db eb3d f009 f03e
000000b0: 3991 dcbd 35d0 a13e f768 993e 585a 5bbe
000000c0: aa0a 35bd cb7f c03e 6ece 303e d766 823d
000000d0: 0990 bbbd e10d 14be a3fa 4abc d914 1e3e
000000e0: 7a04 253c 8e2b 963e f136 3fbe 392d 60be
000000f0: 7733 e33e 875f 703e f72a 913e 420b 5ebe
00000100: 50c0 84bd b878 71be a803 2c3e f67e 1fbe
00000110: 04e8 8bbe 1e02 31be a8bb 203d 6abd 62be
00000120: e3d9 59be ea6d 343e 6a9c 6a3e 3a1d 533e
00000130: d83b dabd bbea 57be ec71 da3d 90c2 fa3d
00000140: aca3 94bd 8271 a5bd cc08 35be 2cc1 c03d
00000150: be67 773e 3c0e 85bd 160f 3ebe 74d2 f6bd
00000160: 2869 e83d da41 d2bd 8033 2f3b 5721 903c
00000170: 66ab b43c 5fcb 593d 74fc 9dbe 067d bc3e
00000180: a425 203d 2e6b 96bd 4b30 ab3e e4eb 2b3e
00000190: 3ab8 483e 75c5 513e 25fe 433d 2a7e 263e
000001a0: 07f8 e5bc 90cb c53d 6f29 adbe a7a5 573d
000001b0: 4a23 d03e 9113 c4be 4420 403e 339c ac3d
000001c0: a0c3 e2be deb0 953e b7d9 d53c bc51 5abe
000001d0: fafb 773d b1ed 3dbe 00b2 123b 32e2 433e
000001e0: 649e 75bd 2c36 283e 58a8 22bd d2fd 72be
000001f0: 2c2f 2b3e 6683 a2bd f8e5 0dbd 0255 e4bd
00000200: 5039 c3bc 5691 73be 1471 04be 307f d2bc
00000210: dfc9 803e 309e 95bc a6e4 99bd 7ce8 ea3d
00000220: c881 433d 9c9b 26be 203f 6e3d 24a5 e13d
00000230: 900b 383d 6a82 42be 00f3 213b ecb4 323e
00000240: 8842 0cbd 4a68 8f3e bf8c 58be 32d5 253d
00000250: 6fa9 32be b179 103e a600 f43c 5fc4 873d
00000260: fba6 4c3e ea75 b93e dd1d 733d 9abd 233e
00000270: 97f0 92be 5ff1 e73c b34f 473e 6b0e 8f3c
00000280: 431f 84be 720c 2bbe 3cf2 bbbb fadd 2bbe
00000290: a0a2 9d3e 51ab 08bd f470 8b3d 057f a33d
000002a0: cae5 d7bd 133a bb3d b33a e7bd cdfd dd3d
000002b0: 516e a5be 371b 913e 39cc a43b d496 8abe
000002c0: 31f9 063e 680d 19be cdd9 9e3e 3176 183e
000002d0: a456 1cbd 851b 7a3c 2d36 73be 3fab 803e
000002e0: 6a64 3ebe 723b 5ebe 0037 ebbc 80fa 883d
000002f0: 9d1e 883e 9c15 0fbe 3817 9cbd c033 073c
00000300: a047 9f3c f072 9fbc 80e7 23bb b782 763e
00000310: 5de9 8abd c362 113d f2a7 a13e 0469 8dbe
00000320: 6234 b4be b3e9 203c 9fe9 9cbe 757b 65bd
00000330: e017 ba3d 2119 cabe b756 183e 11fc 21be
00000340: 1061 a83d b00d 0f3e a454 63be e6c8 143e
00000350: d6a4 cfbd c076 303e e816 33bd 1c40 e53d
00000360: bc67 d7bd eed9 643e dc49 e1bd e840 bfbd
00000370: f3a2 10be f956 33be 17b3 88be 4517 30be
00000380: 09cd 963d 9f27 093e 0315 60be 805f 8abd
00000390: 86ee 06bd 3ddf b5bd f508 8abe be3c 6cbe
000003a0: 8379 2abe 8ada cf3d 56f6 dc3d a601 c93d
000003b0: 84fa 693d 7f23 563e f258 99be 20bb a2bd
000003c0: 3039 19be b524 afbe 8810 c6bd df8b b0be
000003d0: 0905 cfbc b970 503e 2eae 623e 6067 f23c
000003e0: e0ff b7bd e42a 4dbd e8cf 5bbe 606f 2fbd
000003f0: 9850 7a3d 66ad 87bd 8c88 2fbd 2c8d 3ebd
0.25472766 -0.011295808 -0.044418134 -0.07420195 -0.34478915 0.1730993 0.049406968 -0.3680105
-0.23639254 -0.31716865 -0.10014858 0.1611058 0.17684346 0.020643469 -0.00444021 -0.25556675
0.023787422 -0.10566783 -0.3327664 -0.28501737 -0.2587668 -0.036330614 -0.3682792 -0.24837498
0.17113373 -0.0790187 -0.035321623 -0.014057517 0.2167046 0.26598933 0.044303477 -0.05768642
-0.14514457 0.084801584 -0.09180932 -0.21058065 0.17269158 -0.035516813 -0.09088951 -0.24931887
0.006915281 -0.103263095 0.11516526 0.46882582 -0.107698865 0.31604162 0.29962894 -0.21421182
-0.044199623 0.37597498 0.17266247 0.063672714 -0.09158332 -0.1445842 -0.012388858 0.1543764
0.010071868 0.29330105 -0.18673302 -0.21892251 0.44375202 0.23473941 0.28353092 -0.21683982
-0.06481993 -0.23581207 0.1679827 -0.15575776 -0.2732545 -0.17285964 0.039241463 -0.22142568
-0.21274523 0.17620054 0.2291123 0.20616618 -0.106559455 -0.21085636 0.1066626 0.12244141
-0.072577804 -0.080782905 -0.17679137 0.094118446 0.24160668 -0.064968556 -0.18560442 -0.120518595
0.11348182 -0.102664664 0.0026733577 0.017594023 0.022054385 0.053172465 -0.3085667 0.36814135
0.039098397 -0.07344662 0.33435282 0.16789204 0.19601527 0.2048548 0.047849793 0.16259065
-0.02807237 0.09657967 -0.33820674 0.052648213 0.40651923 -0.38296178 0.18762308 0.0842823
-0.44289875 0.292365 0.026104791 -0.21320242 0.060543038 -0.18547703 0.0022383928 0.19129255
-0.059965506 0.16426915 -0.039711326 -0.23729637 0.16717213 -0.079352185 -0.034643143 -0.111490265
-0.02383104 -0.2378591 -0.12933761 -0.025695413 0.25154015 -0.018263906 -0.07514314 0.11470124
0.04773119 -0.16270298 0.05816567 0.11017826 0.0449329 -0.18995062 0.002471149 0.17451829
-0.034243137 0.28009254 -0.2114744 0.040486522 -0.17447446 0.14108922 0.029785465 0.06629252
0.19985573 0.36222774 0.05935465 0.15990296 -0.2869918 0.028313337 0.19463997 0.01746293
-0.258051 -0.16703966 -0.0057356637 -0.16783896 0.30788136 -0.033366505 0.068086535 0.079832114
-0.10541876 0.09141936 -0.11290493 0.10839424 -0.32310727 0.28341076 0.005029228 -0.27068198
0.13180996 -0.1494652 0.31025544 0.14888836 -0.038168564 0.01526535 -0.23751135 0.2513065
-0.18592992 -0.21702364 -0.02871275 0.06688404 0.26585856 -0.13973087 -0.07621616 0.008252084
0.019443333 -0.019463986 -0.002500981 0.24073301 -0.06782792 0.035494577 0.31573445 -0.27619183
-0.35196215 0.009821343 -0.3064699 -0.05602594 0.09086585 -0.39472297 0.14876829 -0.15818812
0.08221638 0.13970065 -0.22200257 0.14529762 -0.10138862 0.172328 -0.043723017 0.111938685
-0.10517833 0.22348759 -0.11000416 -0.09338552 -0.1412466 -0.17513646 -0.26699135 -0.17196377
0.07363326 0.1339402 -0.21883015 -0.067564964 -0.032942317 -0.0888047 -0.2695996 -0.23070046
-0.16647916 0.10149105 0.10789172 0.098147675 0.057123676 0.20911978 -0.29950672 -0.079458475
-0.14963222 -0.34207693 -0.09671122 -0.34481713 -0.025270956 0.203555 0.22136757 0.029590309
-0.08984351 -0.05008973 -0.21466029 -0.042830825 0.061112016 -0.0662487 -0.04285483 -0.04652135

body.0.bias f4 [256]
00000000: 877d 6cbe a50e eb3d 104b 13bd 707e 45be
00000010: f371 a33e 869e 94bd 9a64 0fbe d3e1 d9bd
00000020: 1555 623e 3016 9e3d 70d0 8abe cd61 33bd
00000030: 89e8 423e f405 413e 067b 89be b85e 0b3d
00000040: 595f 1abe ca84 183e 74ab f9bc 1338 32be
00000050: 57d6 87be 4db7 fb3d 86f3 623d 1ea7 c43c
00000060: 4291 2fbd 57db 5abd 5f21 183e 9220 f3bd
00000070: ea3a 613e 1a25 94bb 684d 05bd 0575 0dbe
00000080: bd52 a33d ede4 0e3e 17fb 8abd 7a13 4cbe
00000090: 8240 f5bd f7a5 7dbe cd12 65be 47e3 5dbe
000000a0: 1fcd 89bd aafa ef3d 3c33 e4bd a08a 89be
000000b0: 4890 533c f5c0 5d3e 853b 40be ff6f 5fbe
000000c0: 1638 53be 4e5f 2e3e b6b6 5ebd 160b c5bd
000000d0: 5c6b 243e 6397 173e ce5a 843d 01d0 3b3e
000000e0: cc82 7ebc 6636 8fbe 3976 773e 4f5e 87be
000000f0: 589e b13d 23bd 6a3e 8027 5abd 2384 38be
00000100: ccaa 1bbd 2aae 80be 42a3 1cbe 3094 ac3d
00000110: d5df c63c 2b78 cf3c 150c 563c 57c1 8fbd
00000120: e31f 6e3e 04b2 533e 0b0f 14bd b3df 89bd
00000130: e838 483d 352c 13be e9d2 34be 78a0 553d
00000140: 7264 d8bd 7280 3ebd f95f 013e 185a c13d
00000150: 2600 4fbd 084d 153c fa95 d0bd ff6f 0ebe
00000160: 8a4c b73b 9352 fe3d 6cc0 8fbe a0bd 1a3c
00000170: edf4 4bbe a973 783d 4ffb 333c ebe1 453e
00000180: 3605 4cbd 8a02 733e f81c 903d 6bb5 343e
00000190: 247b d9bd 473b 8fbe 5de8 833b 8cd6 6ebe
000001a0: 3387 753e 7dc2 503e 375e 63be b146 ecbd
000001b0: c00d 0b3c 7c01 cdbd 0ddd 733d cf81 db3d
000001c0: 541f 47bd ac4f 143e a134 353e 6c84 fdbd
000001d0: c4a6 2cbe 27dc 753e 8520 363e cb98 c13d
000001e0: e040 803e ecbe dbbd a4b0 613e 7d18 473e
000001f0: dcef e53c b678 3cbe 0d7e 43be 72ca 123c
00000200: b276 493d cea2 443e 2820 0bbe 5375 3cbe
00000210: c0c7 413c 58f0 933d 102d eebd 7e16 cc3d
00000220: 2425 643e 625b 13be c94c 6d3d 5c91 7abe
00000230: 1c67 543e b81b 393e c984 84be 10dd b3bc
00000240: ddc3 89be eb5a 8abe 3eff 123d de07 553e
00000250: aa4c 593e 6f84 6c3e 80db f1bd 1d3e 7d3e
00000260: 4e14 7cbe 48f7 12bd 5d29 c8bd 4004 803b
00000270: 585d 28be 4638 dcbd 1b4d 8cbe 5bce 823e
00000280: 201d af3d 04d2 45be 9e14 0a3e 4609 73be
00000290: f80e 6abe 3f8a 323e 09b4 61be bd39 8dbe
000002a0: 870e 01be 0020 bfb8 c7ef 67be 7130 273d
000002b0: 8a93 64be 0a4c a73b 6d87 0f3e 2055 80bd
000002c0: e39c 213e b6ab d73d dfd6 913e 4f20 84be
000002d0: b18a 573e 4d89 7e3e 5b7f 803d c8a3 0f3e
000002e0: 1691 0d3e 91bc ddbc 2b3b 043d f9b9 473e
000002f0: 1253 1d3d d2ef 85be f843 8ebe 7843 e33c
00000300: 7b00 303e c48a f5bd f188 e3bd 0b58 883c
00000310: 52ba 21be fc8d ab3d 9835 5e3e 23ed 3ebd
00000320: 0d42 213e 0e2e f93d 6026 5c3e bf61 ecbc
00000330: 602f 47bd 37f4 87be 3a6d 80be 2c1a 4bbd
00000340: 0654 24be 7987 c73d 19a7 233e 1d60 66bd
00000350: 13a8 273e 026b 503e e860 e5bc 5062 ce3d
00000360: c2cb 133e a48b b33d bc27 74be 396b 5c3e
00000370: 8ffc 443e e4cd 693e 8aa6 5ebe 60f8 00be
00000380: 5edd 35be aef7 3fbe dc0a 723e 31d6 11be
00000390: 7e09 84be 3624 38be 8bcd 71be 0c82 87be
000003a0: 7677 6b3e 4778 eb3d 2e0d 5e3e 118f 84be
000003b0: 2cb0 c6bd 00ca c1bb 77bf 94bd ab90 8fbe
000003c0: 4cd7 12bd 43c2 2f3e eacc b9bd d054 983d
000003d0: 3be6 153d 0884 d13d 878d 4f3d 91bd 85be
000003e0: ee17 b4bd d2c6 2ebe dc50 073e be40 22be
000003f0: 0b00 31bd 6472 0bbe 3f1e 87be e208 f4bc
-0.2309476 0.114774026 -0.035960257 -0.19286513 0.31922874 -0.072567984 -0.1400322 -0.10638776
0.22102769 0.07719076 -0.2711215 -0.043794442 0.19034018 0.18849927 -0.26851672 0.034025878
-0.15075435 0.14894405 -0.030477263 -0.17404203 -0.26530716 0.12290821 0.055408023 0.024005469
-0.042863138 -0.053431835 0.1485648 -0.11871447 0.2199513 -0.0045210244 -0.032544523 -0.1381417
0.079747654 0.13954516 -0.06786173 -0.19929305 -0.119751945 -0.24770342 -0.22370453 -0.2166873
-0.06728577 0.11717732 -0.11142585 -0.26863575 0.012912817 0.21655639 -0.18772705 -0.21820067
-0.20626864 0.17028543 -0.054373465 -0.09621255 0.1605658 0.14803843 0.06462632 0.18341066
-0.015534114 -0.2797119 0.24166192 -0.2643914 0.0867278 0.22923712 -0.053260326 -0.18019156
-0.03800468 -0.25132877 -0.15296653 0.08426702 0.024276653 0.025325855 0.013064404 -0.070192985
0.23254351 0.20673376 -0.03614716 -0.0673212 0.048882395 -0.14372332 -0.17658581 0.052154988
-0.105660334 -0.046509214 0.12634267 0.09441012 -0.05053725 0.009112604 -0.10184856 -0.1390991
0.005593841 0.124180935 -0.28076494 0.009444624 -0.1991765 0.060657177 0.01098521 0.19324462
-0.049809657 0.23731437 0.07036775 0.1764733 -0.1061919 -0.27974913 0.0040255026 -0.2332403
0.23977356 0.20386691 -0.22203909 -0.11536921 0.008487165 -0.10010049 0.059536982 0.107181184
-0.04861386 0.14483517 0.17695858 -0.12378773 -0.16860491 0.24009763 0.17785843 0.09452971
0.25049496 -0.10729775 0.2204004 0.19442935 0.028068475 -0.18405423 -0.19091053 0.0089594
0.049185462 0.1920273 -0.13586485 -0.1840413 0.011827409 0.07223576 -0.11629689 0.099652275
0.22279793 -0.14390329 0.057934556 -0.24469513 0.20742458 0.1807698 -0.25882557 -0.021955997
-0.26907244 -0.2702249 0.03588795 0.20803782 0.21220651 0.23097394 -0.118094444 0.24730726
-0.2461712 -0.035880357 -0.097735144 0.0039067566 -0.16441858 -0.10752921 -0.27402577 0.25548062
0.08550477 -0.19318396 0.13484427 -0.23734006 -0.22857273 0.17435549 -0.22041334 -0.27583113
-0.12603198 -9.11355e-05 -0.22650062 0.04081768 -0.22321907 0.0051055 0.14016505 -0.06266236
0.15782504 0.10530798 0.28484246 -0.258059 0.21049 0.24857064 0.06274291 0.14027321
0.13824877 -0.027067455 0.03228299 0.19504537 0.0384093 -0.2615953 -0.2778623 0.027742133
0.17187683 -0.11989358 -0.11110104 0.016643545 -0.15793732 0.08376691 0.21700132 -0.04661287
0.15747853 0.12166987 0.21499014 -0.028855203 -0.048629165 -0.2655351 -0.25083333 -0.049585506
-0.16047677 0.09742636 0.15981711 -0.056244005 0.16372709 0.2035332 -0.02800031 0.10077345
0.14433196 0.08766869 -0.23843282 0.21525277 0.19236968 0.22832447 -0.21743217 -0.12594748
-0.17760226 -0.18746826 0.23636955 -0.14241864 -0.25788492 -0.17982563 -0.23613565 -0.26466405
0.2299479 0.114975505 0.21684715 -0.258904 -0.09701571 -0.005913973 -0.072630815 -0.2804006
-0.035849854 0.17163949 -0.090722874 0.07438052 0.036596518 0.10230261 0.05067208 -0.2612119
-0.08793627 -0.17068031 0.13214439 -0.1584501 -0.04321293 -0.13617855 -0.26390263 -0.029789392

body.2.weight f4 [256, 256]
00000000: a28f 0f3d 88ca b83c 4ea3 00bd 8c57 f03c
00000010: 2c10 d7bc 4c92 07bd 5041 1fbc 505f 02bd
00000020: f0f9 38bc 04e8 9a3c de4e 52bd ea38 543d
00000030: c0b0 f5bc 6cb6 6ebd 4a12 013d 2e49 20bd
00000040: 24d6 74bd 1a38 3c3d e072 99bb 5020 b63c
00000050: 9a30 29bd 0c89 913c 808c a7bc 406f bdbc
00000060: 9003 24bc a0f6 bd3b e8eb 1ebd 70aa 9c3c
00000070: bc97 3abd ba41 243d 0ee2 26bd 4017 2d3c
00000080: 00d9 0dba 04ff 41bd ee53 73bd 7c24 c7bc
00000090: a055 3b3d 80c9 b1bc 4e4d 47bd 2835 41bd
000000a0: 80c9 f3bc 1c4d 42bd 8066 63bd a060 ec3b
000000b0: d878 423d b03f 0fbd feb1 05bd d416 0d3d
000000c0: ae41 55bd 004d c339 8015 633d c02d 453d
000000d0: 4a90 28bd 3832 1abd f444 263d c43b 6ebd
000000e0: b867 293d 6e7f 54bd fc47 df3c 9427 86bc
000000f0: acdd ff3c 90fb e0bc e89a 5dbc d095 aa3b
00000100: 88db 5bbd 568a 30bd 7813 513d 9484 27bd
00000110: 7c4c d2bc e079 19bc da0b 3bbd 14ef 5f3d
00000120: 4293 1d3d 2826 20bd e036 3abd cc5d 7f3d
00000130: ccff b8bc d82b 5e3d 88d7 2abd 68c8 613c
00000140: 9861 10bd 0046 113b 62eb 723d a456 e83c
00000150: d484 913c c838 493d f40f 8fbc 80e1 b1ba
00000160: 0c72 613d 7214 3cbd ea80 42bd 90e6 253d
00000170: 6a5b 3a3d ac6d 643d 5019 67bd 3c8f b0bc
00000180: 40b6 3f3d e037 363d c062 25bb 6ebb 1f3d
00000190: f631 223d 5400 2ebd 68e6 34bd 42d3 213d
000001a0: 1040 853c bc01 3b3d 9810 493d 305b 36bc
000001b0: 809a 61bc 52c9 573d 5080 853b e874 4ebd
000001c0: d482 db3c f67b 673d 7c98 c8bc 006d 643c
000001d0: 40a0 343d 10b9 1a3c 26e5 55bd 4089 65bd
000001e0: 1ee0 373d e443 663d 50f4 41bc b086 c2bc
000001f0: a04f a9bb 22dd 1d3d 4853 3d3d 2032 54bc
00000200: ba8c 4dbd 281b ffbc deb6 7c3d 807b a83a
00000210: e4b1 e7bc 484c 96bc 9808 24bd 1012 313d
00000220: 5211 4fbd c48c 11bd c06e 443d 00fd 2d3b
00000230: 86a9 52bd c0bc cc3c d894 6bbc 6098 52bb
00000240: b227 3cbd eafa 703d 4c62 d0bc 3c03 de3c
00000250: 4ef9 183d b2c0 5cbd 0056 35ba f051 61bc
00000260: 6e13 4c3d 7454 f2bc 9c22 d4bc 18c8 433c
00000270: bc13 52bd c04c 613c 169a 18bd 6245 34bd
00000280: ea2b 313d 9004 5abd f831 50bd 4888 543c
00000290: e039 173c 3e9f 133d 3808 403c 8046 073a
000002a0: f0e6 1a3c 5aa4 3abd a0be 613c 2822 69bd
000002b0: 602b 6c3d 3aa0 7f3d 4045 d4bb dc11 9cbc
000002c0: 6894 5dbc fac7 043d 84e9 9dbc 206e 7bbb
000002d0: 301a 3f3c 2008 debb e81b 5a3c aa79 7bbd
000002e0: 10fe 3f3d d452 f5bc 505d 64bc 381c a43c
000002f0: dcc0 b2bc a02c 3dbd 24dc 26bd 9097 2abd
00000300: dccc 14bd ba08 613d 6e77 69bd 3099 83bc
00000310: a8b6 2ebd 3cd1 fe3c 1441 94bc c0ab 153c
00000320: 6858 76bd fe4f 49bd 4825 003c 3094 e53b
00000330: 220c 773d 64b7 82bc 46cb 193d 2a56 21bd
00000340: 084a 20bc 287b 6ebd b8a7 30bd 1864 5dbd
00000350: b028 613d 783a a63c ee5d 16bd b049 afbb
00000360: 188b a43c 0003 3fbb d85d 0bbc 40ae e4bb
00000370: 7e52 223d 8414 d0bc 50a9 9a3c 5010 353c
00000380: 40f6 13bc 3e33 01bd d04b 1d3c 285b 8cbc
00000390: d0b1 9dbb c018 273d c0ec 55bd 72de 3c3d
000003a0: a8b9 093c 40c6 17bb 6e0b 07bd c087 113b
000003b0: 1cd0 18bd ac79 743d 9010 f33c 88d5 d23c
000003c0: 4498 04bd f8dd 733d acbf eabc c0af 2e3c
000003d0: 7a32 4c3d 9477 26bd 68c3 af3c ec19 3bbd
000003e0: 7813 5d3c e8e4 60bd a011 5d3b 7092 65bc
000003f0: 4ad8 02bd 0000 d2ba 4a02 1bbd 40cd 21bb
0.03504909 0.022557512 -0.03140574 0.02933862 -0.026252829 -0.033098504 -0.009720162 -0.03182918
-0.0112900585 0.018909462 -0.051344745 0.05181209 -0.029991508 -0.05827944 0.031511582 -0.03913229
-0.059774533 0.04595194 -0.0046828836 0.022232205 -0.041306116 0.017765544 -0.020452738 -0.023124337
-0.010010615 0.0057972223 -0.038799196 0.01912424 -0.04555486 0.040101744 -0.040742926 0.010564625
-0.00054110587 -0.047362342 -0.059406213 -0.02430939 0.045735955 -0.021702528 -0.048657708 -0.047169834
-0.029759169 -0.04743682 -0.055517673 0.007213667 0.047478527 -0.034972847 -0.03264045 0.0344456
-0.05206459 0.00037250668 0.055440426 0.048139334 -0.04115323 -0.03764555 0.040593103 -0.058162466
0.04135868 -0.05187934 0.027256005 -0.016376294 0.031233631 -0.027463704 -0.013525702 0.0052058473
-0.05367616 -0.043100677 0.051043957 -0.04089792 -0.025671236 -0.009367436 -0.0456656 0.054671362
0.038470514 -0.03909889 -0.04546249 0.06234531 -0.022582911 0.05424103 -0.041709453 0.013780691
-0.035249323 0.0022166967 0.05930651 0.028361626 0.017763533 0.049126416 -0.017463662 -0.0013571233
0.055040404 -0.045917936 -0.047486223 0.040503085 0.045497335 0.055768654 -0.056420624 -0.021552674
0.046804667 0.04448688 -0.0025235862 0.038997106 0.039598428 -0.04248078 -0.044165045 0.03950811
0.016265899 0.04565595 0.04908809 -0.011130139 -0.013769746 0.05268223 0.004074134 -0.05040446
0.026795782 0.056514703 -0.024486773 0.013942003 0.04409814 0.009443536 -0.052220486 -0.056039095
0.04489147 0.05621709 -0.011838034 -0.023745865 -0.0051669627 0.038540967 0.046222 -0.012951404
-0.050183035 -0.031140879 0.061697833 0.0012854189 -0.028283067 -0.01834692 -0.04004726 0.043230116
-0.050553627 -0.035534635 0.047957182 0.0026548505 -0.0514312 0.024992347 -0.014378749 -0.003213428
-0.045936294 0.05883304 -0.025437497 0.027101152 0.03734713 -0.053894706 -0.0006917417 -0.013752446
0.049823217 -0.029581286 -0.02589541 0.011949562 -0.05128835 0.013751209 -0.037256323 -0.04401148
0.04325477 -0.053227007 -0.050828904 0.012971945 0.009230107 0.036040537 0.0117207095 0.00051603466
0.009454474 -0.045566894 0.013778359 -0.05691734 0.057658553 0.062408663 -0.006477982 -0.019051485
-0.013524152 0.032417275 -0.019276388 -0.00383652 0.011663958 -0.006775871 0.013312317 -0.061395325
0.046873152 -0.029946722 -0.013938263 0.020032987 -0.021820478 -0.046185136 -0.040737286 -0.041648448
-0.03632818 0.054939963 -0.056998663 -0.016064256 -0.042654663 0.03110563 -0.018097438 0.009135187
-0.060142905 -0.049148552 0.007821389 0.0070061907 0.060314305 -0.015956588 0.037547372 -0.039388813
-0.009783275 -0.05822292 -0.0431287 -0.054050535 0.054970443 0.020291552 -0.036710672 -0.0053493604
0.020085856 -0.0029146075 -0.008506261 -0.00697878 0.039629452 -0.025400408 0.018879563 0.0110512525
-0.009030879 -0.03154301 0.009600595 -0.01713331 -0.0048124567 0.040795088 -0.052227736 0.046110578
0.00840608 -0.0023158938 -0.032969885 0.0022206157 -0.037307844 0.059686348 0.029670984 0.025736585
-0.032371774 0.059537858 -0.02865585 0.010662019 0.049852826 -0.040641382 0.021455482 -0.045679018
0.013493411 -0.054905802 0.003373243 -0.014011964 -0.03194455 -0.0016021729 -0.03784398 -0.002468899

body.2.bias f4 [256]
00000000: c476 74bd 447b a1bc f950 43bc acf4 5fbd
00000010: a736 403d d274 303d 66ea 903d 0c5d 87bd
00000020: ac8a 77bd f48e 033d 4fa2 c7bc a194 41bd
00000030: 3282 81bd 6ac3 b93c 9bfc afbc 7f4a ac3b
00000040: b603 483a 98e6 acbc 00a3 ef3c 27eb d7bc
00000050: 2455 2dbd 44fe 5ebd da56 87bd f2f0 51bd
00000060: 37d6 843c 7dca 1abd 139b f0bc bfaf 38bd
00000070: 0c4b 383d 3d90 d23b 57a3 37bd cbc9 dd3c
00000080: 81eb 433d 5ece 803d 087b 48bd 911e 8a3d
00000090: 69e8 35bd 705c 82bc a0e7 1ebd 2d6f 223c
000000a0: 3e19 363d 7de6 42bd dd17 f73c 7107 89ba
000000b0: 3061 ed3c 2850 0e3d 70db 82bc 5a9e aabc
000000c0: 0851 063d 76df 5bbd 16b8 e03b 3b27 763c
000000d0: 31c1 183d c663 d1bc b8d1 7dbd f76c 983b
000000e0: a085 41bd c8f9 1bbc 911b 253c 2900 153c
000000f0: 2c78 5c3c 824f f8bb d9cc 2cbc c206 253d
00000100: 2825 68bd f703 1cbd 9c7f bdbc bd1f 033d
00000110: 6e72 74bd 7344 59bd b678 aa3c 6a44 193d
00000120: 4672 633d 9f3e 453c a904 b3bb 66ba 913d
00000130: 700f ea3c 2e95 29b9 70a8 843c 5a1e 1a3d
00000140: c83c 5cbd 9027 f73c 1e1a b8bc 0535 483c
00000150: dd82 43bd 7f61 b3bc 669d ffbc e281 0cbd
00000160: 7170 53bd a930 43bd 9ffb cf3c 0cda 62bd
00000170: 29ee 28bd 59a0 0b3d e4c4 24bd 7dfd 84bd
00000180: d961 673d 187f 9ebc 03bf f93c e861 89bc
00000190: 4cb4 a9bc 8bd1 b43c a7e4 0dbd 3307 223c
000001a0: 0020 e63a 4a72 343d eb5e ab3c 6a81 643c
000001b0: 96f6 3f3d 5284 723c 21f0 5b3d 31ab 0d3d
000001c0: a094 5cbb f0b9 d2bc 4314 563c c435 07bc
000001d0: 2b3b 4c3d 9df3 6a3d e30d e73c e5ce 673d
000001e0: 1bca f63c b998 81bc fb6c 22bc fe3e 77bd
000001f0: 3b76 fb3c dd8b 3dbc b846 71bd 05cc 58bd
00000200: b4da 8bbc 1829 553d 5e1a 023d eacc 10bd
00000210: 2c71 5fbd afb6 993c e218 7dbd 5175 16bc
00000220: a09b 4b3d 0c3c 1cbd 6c86 cb3b aade 1ebc
00000230: 3068 9a3b fa1a a43a a71b 1b3d 42fd 53bd
00000240: 5f39 eb3c 88e8 1539 0909 393d fae8 f43c
00000250: c6b3 36bd 4f11 0dbd 3623 32bd 1183 9ebc
00000260: 328b 533d e771 72bd f477 47bd 7914 673d
00000270: 58d0 88bc b232 29bd c9d2 cbbb ac6c e73c
00000280: 325e 3bbd 95db 533d 0d0b 47bd d52d 8f3c
00000290: 8b90 2dbd 9a2e 65bd 505f a1bc b134 cfbc
000002a0: 5e2d 813d 4648 a43c f69f cdbc ba9e 28bd
000002b0: 6ddb 763d fba1 603c c013 bbbb 726e 6a3d
000002c0: bcf7 4c3c 9bc2 35bc 7873 0dbd 6494 5fbd
000002d0: 5f9a 573d 2732 fabc a0e5 2e3b 6ac6 2c3d
000002e0: 6b1a 053d fbbf 78bd 1672 25bc f34a c9bc
000002f0: 8d63 db3c c4f1 103d ff69 b93c fd1b 003d
00000300: 2867 c53c a03a 37bd 05e2 0d3b 9572 303d
00000310: 62ce 78bd 4518 d3bc b514 d13c 7b9b 633d
00000320: 5191 7c3c 0161 b03a 3ad0 48bd 0f07 e73c
00000330: 0a62 24bc 1422 05bd 645e 51bc dee1 7e3d
00000340: 10e6 4e3d d149 183d aa66 043c 0226 b4bb
00000350: da0b c63c 2b95 24bb d197 d83c 209c 5dbb
00000360: 7f6e 29bd bca9 593d 7091 cebb 60ff aabc
00000370: 97c8 4abd c1d9 83bc ebb6 a53c 857d 3f3d
00000380: d722 cc3b 03ce 4f3d 556f 223d 075b 04bd
00000390: 08bb 633d 9144 40bd 3374 7dbc 41e0 3b3d
000003a0: 35c1 5d3d 9107 8dbc b642 3c3d 2c85 fcbc
000003b0: 291a 5c3d ff6c 2e3d ef7b a53c 8cbe f7bc
000003c0: 4c57 7fbc 4bb8 1bbc fdc7 babc be62 8f3b
000003d0: 6121 f33c 9809 313d 9a3a 333c 1e48 bcbb
000003e0: 0a94 00bb 1cad 19bd d1ae 17b9 f8ec 323d
000003f0: 6e91 5ebd 9e14 143d 0dc0 b3bc fe61 26bd
-0.059683576 -0.019712098 -0.011921161 -0.054676697 0.04692712 0.04308016 0.07075958 -0.06609544
-0.060434982 0.032118753 -0.024369387 -0.047260884 -0.06323661 0.022676188 -0.021482756 0.005257904
0.00076299475 -0.02110605 0.02925253 -0.026357247 -0.042317525 -0.054441705 -0.066083625 -0.051255174
0.016215427 -0.037790764 -0.02937082 -0.04508948 0.044993445 0.006425886 -0.044833507 0.027073761
0.047832016 0.062893614 -0.048945457 0.06744111 -0.044411097 -0.015913218 -0.038795114 0.009914202
0.044457667 -0.047583092 0.030162746 -0.0010454488 0.028977007 0.03474441 -0.015973777 -0.020827461
0.03279212 -0.053679906 0.0068578823 0.015024002 0.037293617 -0.025560271 -0.06196758 0.0046516615
-0.047246575 -0.009520002 0.010077373 0.009094276 0.013456386 -0.0075778374 -0.010546886 0.040289648
-0.05667606 -0.03808972 -0.023132138 0.03201269 -0.05967944 -0.053043794 0.020809513 0.03741876
0.0555289 0.012038856 -0.005463202 0.07115631 0.028571814 -0.0001617267 0.016193599 0.0376266
-0.053768903 0.030170232 -0.022473391 0.012219672 -0.047732223 -0.021897076 -0.031202983 -0.034303553
-0.051620904 -0.047653828 0.025388537 -0.055383727 -0.041242752 0.034088466 -0.040226832 -0.064936616
0.0564898 -0.019347712 0.03048659 -0.016770318 -0.020715855 0.022072574 -0.034641888 0.009889412
0.0017557144 0.044054307 0.020919284 0.01394687 0.046866022 0.014802055 0.0536958 0.03458709
-0.0033657923 -0.025723428 0.013066354 -0.008252565 0.049861114 0.057361234 0.028204864 0.056593794
0.030125668 -0.015819894 -0.009913678 -0.06036281 0.030696025 -0.011568991 -0.058905333 -0.052928943
-0.01707206 0.052041143 0.031763427 -0.03535167 -0.05455129 0.018763868 -0.06179131 -0.009183244
0.049708962 -0.038143203 0.0062110927 -0.009696642 0.004712127 0.0012520247 0.03786817 -0.051755197
0.02871388 0.00014296372 0.045174632 0.029896248 -0.04460504 -0.034440335 -0.04349061 -0.019349607
0.05164642 -0.059190657 -0.04869838 0.05641601 -0.016700909 -0.041308112 -0.006220196 0.028250061
-0.04574413 0.05172308 -0.048594523 0.01747791 -0.042374175 -0.055952646 -0.019698769 -0.02529368
0.06307481 0.020053994 -0.02510069 -0.041167 0.060267854 0.013710494 -0.0057091415 0.057234235
0.012510236 -0.011093761 -0.034533948 -0.054584876 0.052637454 -0.030541493 0.002668716 0.04218141
0.032495897 -0.06072996 -0.010098001 -0.024571871 0.026780868 0.035386816 0.02263355 0.03127669
0.02409704 -0.044733644 0.002164961 0.043078024 -0.060743697 -0.025768409 0.02552257 0.0555682
0.0154155055 0.0013456644 -0.049026705 0.028201608 -0.01003314 -0.032503203 -0.012778852 0.062227122
0.050512373 0.03717977 0.008081118 -0.005497695 0.024175573 -0.0025113325 0.02643958 -0.0033814982
-0.041365143 0.053140387 -0.0063039586 -0.020873725 -0.049507704 -0.016095044 0.020228824 0.046750564
0.006229739 0.050733577 0.039656956 -0.032313373 0.05559829 -0.04694039 -0.015469599 0.045868162
0.054139335 -0.017215522 0.045962058 -0.03082522 0.053735886 0.042584416 0.020200698 -0.030242227
-0.015584778 -0.009504388 -0.02280044 0.0043757847 0.029679002 0.04322204 0.010939265 -0.0057459017
-0.0019619488 -0.037518606 -0.00014465606 0.043683022 -0.05433791 0.036152475 -0.021942163 -0.040620796

mu_head.weight f4 [2, 256]
00000000: d8e6 7b3c 38ff 4a3d 7c3e 92bd 886d 503c
00000010: 1054 4cbd 778e 833a 5da4 9abd dfdf 6ebb
00000020: 80ca b23c 2a12 393d 1efe f9bc 9b9a 5abd
00000030: 0bc5 01bd 5955 0cbc 2a2d 063d e1f8 423d
00000040: 1d05 60bd e545 1e3d a230 26bd 090b 04bd
00000050: 7c66 42bd 62d9 8c3d 038f bbbb 3502 12bd
00000060: a3dd 973c a8ef a2bc bf6c 8f3c 3c75 8b3d
00000070: 204e 66bd b2d8 52bd 506f acbc adf9 92bd
00000080: c0d5 4d3d f798 e7bb 0840 ba3c 816d a03c
00000090: 6f0d 7dbd 438a 983c 0878 5f3c 2c72 943d
000000a0: 8357 febc 1022 6bbd d565 613d eb69 2c3d
000000b0: 6f25 e4bc fe89 a33d d133 7f3d 9f94 3c3d
000000c0: c276 913d 7b64 043c c85f 0d3d 1984 533c
000000d0: d99a b6bd 62e0 aa3c 3010 a93b eab0 30bd
000000e0: 1cd2 a2bd 6fd9 53bc 7310 2cbd 3392 7cbd
000000f0: 8667 a3bd a57e 913b 9d9e debd 2a2e 97bb
00000100: e00c 67bc 1b62 2bbd ec12 353d f9dc b73d
00000110: af81 37bb 1312 263d a15d c13d 7b54 7d3c
00000120: a2b6 c03c 33fc 313d 1cad b9bb f116 69bd
00000130: bede 83bd 9fd5 913c ab67 f63c 34c2 763d
00000140: 3274 263d 11ea e9bb 0842 9cbb cf60 f5bc
00000150: 5c07 233d fa6f 14bd d1f8 523c b005 5b3d
00000160: 1cf2 183c 68db 3bba 3f32 fe3b 3bdd 30bd
00000170: 83e3 babd edcc fc3b 0894 183d 350e 17bc
00000180: e7a7 b83a 08d5 593d bd8d b03d 2041 4f3d
00000190: a4aa 27bd eeb3 9c3d ff23 303d b827 4ebc
000001a0: d49a 58bd 0624 9fbd 381b f2bc 3f65 95bd
000001b0: 2808 e33d 1a4d 48bd f4d0 a13c 00b3 a7ba
000001c0: 0548 57bd 7ff9 30ba 9a2a 2b3b 7ccc 47bd
000001d0: 1909 923d 05c1 8f3d 8b98 ae3d 4081 6c3d
000001e0: d7c8 5abd 8af7 733d f8c8 8b3d 08df 0c3d
000001f0: 4630 9d3c c635 93bd 689b 1a3c 8fdb e8bc
00000200: 6a45 2c3d 2047 f63b 3e35 4c3d 38ad 273d
00000210: 0690 3bbd d0f4 963d 565f 35bd 30e5 10bd
00000220: 18da cdbb 5b29 21bd 77ff 6bbc 52a7 833d
00000230: 08b3 d4bc 634d 0e3d 9895 433d a4bc 783b
00000240: 4b79 b43b d26b 83bd 5003 d5bc b50b 773d
00000250: a6ab 6abd 76eb ca3b e883 48bc 07a4 19bd
00000260: 3f6f f73c a40c 86bd 413b 673d 7ba7 233d
00000270: 40c0 613d a0e8 86bc 42ba 4cbd 2417 2a3d
00000280: d61b 59bc 1fdd 22bd 63b1 aebc c2ba 25bd
00000290: bdb0 0cbd 72c4 583d b6e8 203d c060 bfbd
000002a0: f26f 0e3d 66ed 09bd 2771 743b a6de 7fbd
000002b0: 0e82 afbd 1924 21bd f223 7a3d 9bc6 943b
000002c0: 50e9 c53b 9b2e aabd e894 56bd 9a77 2dbd
000002d0: b594 bf3c ad6d a3bc 0707 a6bc b135 d7bb
000002e0: b125 55bb c83c 9a3c 17b1 0ebd e93a f93c
000002f0: 8b42 543b 8cf6 e63c ec45 bfbd d5e5 09bd
00000300: 602d 76bc 70cc 4f3c c310 133d b7d1 9dbc
00000310: 2f36 043c 36e9 67bd c31b f83d b80d 43bd
00000320: 6c59 35bd c185 3c3d 0c09 42bd 03d7 3cbc
00000330: a43a aa3d b4bf 9cbc cf83 94bd d3ce 48bd
00000340: 423b b83d eb6b 8ebb e326 f03c c146 693c
00000350: 1286 3c3d 636f 23bd 97d1 90bc 3cc6 9e3c
00000360: c5b2 7fbc e60b 79bd 605e 2f3c 7e56 56bd
00000370: d839 933b cc8d 833d 6b1b 13bc 099a 6d3c
00000380: f8d5 003d 71fc 343d 489f 00bd c2e2 07bd
00000390: 1fc8 66bd 44f0 053d 911c 9a3c ff7c 9c3d
000003a0: 3477 033e 2a3b c93d fee3 cdbd 0e72 5f3d
000003b0: efe4 64bb 4eb8 fb3c e090 2f3d b4c3 ca3c
000003c0: cdb7 233d 024e 8f3d f7da 413d 6d35 4d3d
000003d0: 16a4 763c 2a63 38bd 2604 e4bd 3c1e 123c
000003e0: 4c9f 8e3d 7eee 6fbd 193a 2dbd e2ea 82bd
000003f0: be06 4abd 4068 09bc 3d4e c63c e348 5d3d
0.015374862 0.0495598 -0.07140824 0.012721427 -0.049884856 0.0010036965 -0.07550881 -0.0036449356
0.021825075 0.04518334 -0.03051668 -0.0533701 -0.031682055 -0.00856527 0.032757916 0.04760063
-0.054692376 0.038640875 -0.040573724 -0.032237086 -0.047461018 0.068774 -0.0057238354 -0.035646636
0.018538302 -0.019889668 0.017507909 0.0680947 -0.05622685 -0.051476188 -0.021049172 -0.07176528
0.050252676 -0.0070677954 0.02273561 0.019583466 -0.06178039 0.018620616 0.0136394575 0.07248339
-0.031047588 -0.05740553 0.055028755 0.0420932 -0.027849881 0.07985304 0.062305275 0.046040174
0.071027294 0.008080597 0.034515172 0.0129099125 -0.089162536 0.020858947 0.0051594004 -0.04313747
-0.079502314 -0.012930258 -0.042007875 -0.061662864 -0.0797873 0.004440146 -0.10870097 -0.0046136575
-0.014102191 -0.041841608 0.0442075 0.08977694 -0.0028000881 0.04054458 0.094416864 0.015462036
0.023524586 0.043453407 -0.005666388 -0.056906644 -0.06438969 0.017802058 0.03007873 0.0602438
0.040638156 -0.0071384986 -0.0047686137 -0.029953388 0.03980194 -0.0362396 0.012876705 0.05347222
0.009335067 -0.0007166178 0.0077574546 -0.04317973 -0.09125426 0.0077148587 0.03725055 -0.009219696
0.0014088125 0.053181678 0.086207844 0.050599217 -0.04093422 0.07651506 0.04300308 -0.012582712
-0.05288203 -0.07770543 -0.029553995 -0.07294702 0.1108554 -0.048901655 0.019752957 -0.0012794435
-0.052558918 -0.0006751045 0.0026117922 -0.048778996 0.071306415 0.070192374 0.08525189 0.05774045
-0.053414192 0.059562244 0.06825441 0.034392387 0.019188058 -0.07187991 0.009436466 -0.028425006
0.042058386 0.007515803 0.049855463 0.04093668 -0.04579165 0.07370913 -0.044280373 -0.03537482
-0.0062821023 -0.03934608 -0.014404169 0.06428398 -0.025964275 0.03474177 0.047750086 0.0037954235
0.0055076233 -0.064170495 -0.026002556 0.0603139 -0.057292603 0.00619262 -0.01223848 -0.037509944
0.030204413 -0.0654538 0.056452993 0.039954644 0.055114985 -0.016468346 -0.049982317 0.041525975
-0.0132512655 -0.03976166 -0.021324819 -0.04046131 -0.03434824 0.05292172 0.03928443 -0.093446255
0.034774728 -0.033673666 0.003729889 -0.062468193 -0.08569728 -0.039341066 0.061069436 0.004540277
0.006039776 -0.083096705 -0.0523881 -0.04235039 0.023386339 -0.019949758 -0.020267023 -0.00656768
-0.0032523687 0.01882781 -0.034836855 0.030423598 0.0032388296 0.028193735 -0.093395084 -0.03366645
-0.015025467 0.012683019 0.035904657 -0.019265039 0.008069559 -0.05661889 0.1211467 -0.047620505
-0.044274732 0.046025995 -0.04737191 -0.011525872 0.08311966 -0.01913438 -0.07251703 -0.049025368
0.089956775 -0.004346361 0.029315418 0.01423806 0.046026297 -0.03990115 -0.017678065 0.019381635
-0.015606587 -0.060802363 0.010703653 -0.05232858 0.0044929795 0.0642353 -0.008978705 0.014502057
0.031454057 0.04418606 -0.031401902 -0.033175237 -0.056343194 0.03269984 0.01881245 0.076410286
0.12838441 0.09825738 -0.10053252 0.05455213 -0.0034926494 0.030727532 0.042862773 0.024751522
0.039970208 0.06997301 0.04732796 0.05009978 0.01505377 -0.045016445 -0.11133604 0.008918341
0.06963977 -0.058577053 -0.042291734 -0.063924566 -0.049322836 -0.008386672 0.024207229 0.05402459

mu_head.bias f4 [2]
00000000: 655d 413d de44 13bd
0.04720821 -0.03595435

model.0.weight f4 [256, 39]
00000000: 98e5 f2bd 6865 01be 0069 813c 83c0 d7bd
00000010: b8fb d73c ac3a 1e3d b8e2 a03d 6837 223d
00000020: 3821 c2bc 50f8 f6bc a240 0a3e 363d 173e
00000030: 2b2c d0bd 9465 1b3d 4a15 d4bd fed6 56bd
00000040: 1ac8 0dbe a096 8abc eba0 cdbd ee84 0ebe
00000050: 98ef 8dbc 94a6 0a3d 7014 2a3d 4938 1dbe
00000060: a891 dd3d cc07 2bbd e05d 8f3b 8ed1 1f3e
00000070: 500b 443c fb64 aabd 2aa3 1b3e a478 0c3d
00000080: 9193 c3bd c0be 3c3d 7486 a33d 18c8 e0bd
00000090: 5c17 d1bd eab0 fbbd 79b6 03be 6bcd b1bd
000000a0: 0633 80bc 1b70 4cbd 5ddc 33bc 883b 3c3e
000000b0: 0bf9 c3bd db66 76be 4179 17be f9a6 4a3d
000000c0: 28b2 ca3d abb4 ffbd d638 13bd 3547 013e
000000d0: 250b 14bc 253f 41be 31c3 0d3e 119f 1a3d
000000e0: 499d 293e f2ba a3bc af81 b1bd 2f64 f83d
000000f0: e7f3 f53d 4268 4fbc a80a 533c e000 b43d
00000100: 88e6 353e fdd3 4a3d 48b8 43be 1536 373e
00000110: 852f 923d be73 313e 179a 7f3e 073f 0b3d
00000120: ce78 fb3d ba81 ebbd 323c 8ebd a696 eebd
00000130: 4186 0e3e 0498 4f3e 958d 493d 0095 5e3e
00000140: 38d2 57be 64f8 83bd 965a 48be 675d acbd
00000150: bc48 473e 1948 163e 3bf8 2c3d 3dba a23d
00000160: 7770 86bd 2d8d 52bd a6cf 1bbe d645 23bd
00000170: 6ed3 df3d c71d 833d 14c3 28bd 3242 80be
00000180: cd2f 46bd 86fa 603e a105 21be 513e a9bd
00000190: b7e2 313d 2bab 183e 8bfa e83d b9a3 b93b
000001a0: bbde 1bbb 8bd1 dbbc a82c 7c3b faa3 2bbe
000001b0: 7756 e0bd 0a25 303d 5b79 9f3e 23bb 0f3e
000001c0: 7f7c c93c 68fc 053e 11b3 30bd cb0e b7bc
000001d0: d3ce e43d 5d51 ab3c 895e a93d 72cb 86bd
000001e0: 0c72 053e 2fd6 76be 215f 4d3d a1ce 453e
000001f0: 39c9 dfbd 1534 193e e259 273e eda5 7fbc
00000200: 1a5a 263e 7f01 fcbc 633e f3bd 2bea 203e
00000210: f43b a3bd a23e f2bd 3f54 56be 4ea5 b9bd
00000220: 246a 113e 23ff 363d 63ce 14be 5d42 b23d
00000230: 8ed9 fd3d 8933 7dba 5ae6 e33d 51a6 9b3d
00000240: 990a 323d 2271 b0bd c05e cfbd 4358 b6bd
00000250: 0418 8e3d 54f4 bf3d e65e 28be 37ea e4bd
00000260: bc35 13be 40b4 64bd 6e49 ffbd 0c61 c4ba
00000270: aaf1 01be dc04 693e cbe8 ae3c 8a66 28be
00000280: d3b9 c4bd 35ce de3d 8529 673d 0fee cc3d
00000290: f2f0 c4bd 8013 adbd 30c3 99bd 5800 073e
000002a0: 7e6e cdbd 4947 48be bc9c 163e b7d0 61bd
000002b0: 4e13 42be acc9 22be fc1d 3a3e c935 9c3e
000002c0: 9dcb fdbd 4e44 d2bd 3d83 033d 3685 9fbd
000002d0: ae57 a43d 1ec5 c73b 0e8b 1dbe b72a 2e3e
000002e0: 28b3 9a3c 9b60 25be 1e1d 66be de69 863d
000002f0: 7242 1e3c 0441 c53c 443d 98bc c78c cfbc
00000300: b14c 6f3d d6f8 f53d 3560 b23d 0f0c 0cbe
00000310: a08a 6c3b dcb6 c5bd e0f6 15be 88dc 96be
00000320: 5c34 613d 4375 7d3e 7dc5 94bc 5c85 fb3d
00000330: 9374 093d 652e 08be 7800 a3bd 1f7c d4bd
00000340: adb3 443a 5bc2 273e 4416 1a3d 0687 57bd
00000350: c341 bcbd 316f 473d eaeb a73e 92a1 00bd
00000360: a05f 00be e861 49bd 9c29 53bb e66f 823d
00000370: c93d 8fbd 03eb 10be 11d5 d83d cdf9 35be
00000380: 526a 453c 6a98 50be a2b2 3cbe 5242 c83d
00000390: d02e 21be 94e7 1dbd d69a c03d 2972 eabd
000003a0: 4131 073e b49a 85bc 5cc5 f2bd 2c81 b23d
000003b0: ae97 033e 1146 0dbe 59cb c0bd b89c ad3d
000003c0: 0f4e d9bd 2bcf 03be ee3c b53d 2e4e c9bd
000003d0: 8c8c 033d 8037 953d 6888 d03d 400e 843c
000003e0: 9e32 153e cabb 8d3d b065 9fbd 62f8 ccbd
000003f0: 727d b63d a877 bcbc 5065 02be 7a34 efbd
-0.11860198 -0.1263634 0.015797138 -0.105347656 0.026365146 0.038630173 0.07855743 0.03960362
-0.02369748 -0.030147702 0.13501218 0.14769444 -0.10164674 0.03793867 -0.10355623 -0.052451126
-0.13845864 -0.016917527 -0.10040458 -0.13917896 -0.017326161 0.033850268 0.041523397 -0.15353502
0.10818797 -0.041755483 0.0043752044 0.15607283 0.011965588 -0.08320042 0.15198961 0.03429474
-0.095496304 0.04608035 0.07984629 -0.10975665 -0.102095336 -0.12289603 -0.12862577 -0.086817585
-0.01564933 -0.0499116 -0.010977832 0.18382084 -0.095689856 -0.24062674 -0.14792348 0.049475644
0.09897262 -0.124856316 -0.035942875 0.1262482 -0.00903586 -0.18871744 0.13843991 0.037749354
0.16563906 -0.019986603 -0.08667313 0.121284835 0.12009411 -0.012659134 0.012880959 0.087892294
0.17763722 0.049518574 -0.19113266 0.17891724 0.0713797 0.17329308 0.24961124 0.033995654
0.12278901 -0.11499353 -0.06945075 -0.11649828 0.13918401 0.20272833 0.04920729 0.21736526
-0.21076286 -0.06443861 -0.19565806 -0.084162526 0.1946134 0.1467594 0.04222892 0.079456784
-0.0656442 -0.051404167 -0.1521593 -0.039861523 0.10928999 0.06402164 -0.041201666 -0.25050503
-0.04838543 0.21970567 -0.15724804 -0.08263839 0.043429103 0.14909045 0.11375912 0.005665269
-0.002378388 -0.026833316 0.0038478766 -0.16761771 -0.10953992 0.043004073 0.31147274 0.1403623
0.024595497 0.13084567 -0.04313952 -0.022345921 0.11172261 0.02091282 0.08269984 -0.06581773
0.13031787 -0.24105142 0.05013955 0.19317104 -0.10927052 0.14961274 0.16342881 -0.015603525
0.16245309 -0.030762432 -0.11877134 0.15714328 -0.079704195 -0.118283525 -0.20930575 -0.090647325
0.14200646 0.04467691 -0.14531855 0.08704064 0.12395011 -0.00096588634 0.111279204 0.07600082
0.043467138 -0.08615328 -0.10125494 -0.08903553 0.06938174 0.09372774 -0.16442451 -0.111774854
-0.14375967 -0.055835962 -0.124651775 -0.0014982536 -0.12689844 0.2275576 0.021351239 -0.16445366
-0.09605756 0.108791746 0.05643608 0.100063436 -0.09616269 -0.08450985 -0.07507932 0.13183725
-0.1003084 -0.19558443 0.14708227 -0.055130687 -0.18952677 -0.15897244 0.181755 0.30509785
-0.12392352 -0.10266934 0.03210758 -0.0778908 0.08024536 0.0060964962 -0.15385076 0.17008482
0.018884256 -0.16150133 -0.22472045 0.06563161 0.0096593965 0.024078853 -0.018583901 -0.025335683
0.058422748 0.12010352 0.08709756 -0.13676475 0.003609337 -0.09654018 -0.14644957 -0.29465127
0.054981574 0.24751763 -0.018160576 0.12281296 0.03355844 -0.13298948 -0.07959074 -0.10375237
0.00075035804 0.16382734 0.03761889 -0.052619003 -0.091922306 0.048690025 0.32797176 -0.031404085
-0.12536478 -0.049165636 -0.0032220846 0.06368999 -0.069942065 -0.1415215 0.10587514 -0.17771073
0.0120492745 -0.20370641 -0.18427518 0.097782746 -0.15740514 -0.03855093 0.094045326 -0.114475556
0.13202383 -0.01630912 -0.118540496 0.08716044 0.1285083 -0.1379626 -0.094137855 0.08477157
-0.106105916 -0.12871997 0.08849512 -0.09829365 0.032116458 0.072859764 0.101822674 0.016120076
0.1457009 0.069205835 -0.07783067 -0.10008313 0.089106455 -0.023006275 -0.1273396 -0.11679931

model.0.bias f4 [256]
00000000: a822 e1bc 87f4 6abd 9d2d 81bc c1ae d9bd
00000010: 101c 17be 2d86 a33d c4f5 1d3d 556e 383e
00000020: 6f50 89bd 4539 8dbc 2c5c 243e 6065 563d
00000030: a050 7c3c 0c41 253e 52f0 8c3d 9aca 4a3d
00000040: 0383 093e 80d1 a5bb 962f 42bd d082 5cbd
00000050: 98ba b7bc a034 103e 4340 e8bd d1c7 e13d
00000060: 32f6 093e 7096 9d3c 30a8 e53d 0b59 ee3d
00000070: 0c65 8f3d d747 373e eb8f 3c3e bb81 b2bd
00000080: 2cc8 9fbd 9a4c 493e ca7c 0f3e 98ab 7a3d
00000090: 1815 0d3d 5d37 97bd 79b0 07be a8e3 a3bc
000000a0: 8b44 0a3e 16d1 163e 0f02 a4bd 3895 103e
000000b0: bc40 293d ec54 34bd e0bf 2c3e 7e4f 143e
000000c0: 0280 e7bd 003b 553d 3c83 9cbd 5464 b8bd
000000d0: e7c4 d03d 541e e43c e1b5 a3bd ecc4 0f3e
000000e0: 4cd3 1dbe e02d 8bbd cc5c f5bd 3f8d 033d
000000f0: 1477 00be fe16 04be 47d3 203e 1ebf ea3d
00000100: 60bd f0bc 07a7 c1bd 20ad bd3c 667c 81bd
00000110: 38b9 b5bd 2789 c0bb d370 d43d 9446 cf3d
00000120: efa6 f2bc 5463 88bd 6192 debc 2668 fdbd
00000130: a5c3 aebd f70b 19bd e476 f53c 8ece eb3c
00000140: afd5 00be e5d3 f2bd d617 aebd aebe a0bd
00000150: 785d 02be fbd6 aebd 0060 5b3d 8320 283e
00000160: 7c6b 01be 56ce 95bc d656 cabc 6333 15be
00000170: 2849 01bd c4df 1b3a 9905 a43d 5e72 23be
00000180: 4ed1 61bd 92df 883d 3c70 d7bd a7e5 be3d
00000190: 7493 263d 873f 003d 72cb 94bd c025 f43b
000001a0: afd1 b8bd cbf2 263d 9dfe ccbd 7127 8dbd
000001b0: 8e5c eabd 6405 9c3d f7c0 44bd 9493 083d
000001c0: 8c9b 01be 7776 743d 0c90 123e 2bdb a53d
000001d0: e0d8 cf3c 5ab1 d8bd df0e 9a3d 831e 2abd
000001e0: b5ee 89bd 5959 073e 95cc 1abe a9bf f93d
000001f0: d037 543c c63f 08bd b1a1 263a 5e5c 1cbe
00000200: 2413 8ebd 32eb d5bd 4076 083c 66f8 aa3d
00000210: e07a 403c b87d f0bd 6346 483d 4f14 543d
00000220: 6076 c33d dae3 953d 4064 bc3b bbe3 9dbd
00000230: d489 1c3d 1d9a cbbd addb adbc 3a81 673b
00000240: cce4 e93d 700f 0bbe 96af d03d 2f56 f93d
00000250: b965 503d dd2b a83d 7188 69bc d01b 71bc
00000260: 92f2 aa3d 6cb5 2bbd afc1 e0bd ee5a 9d3d
00000270: 98d3 bf3d 79d5 453d 067c b8bd 6b1b bbbd
00000280: b453 1ebe f833 0c3d d238 b53d a032 92bd
00000290: 2b86 acbd 8a99 973d dedb 8f3d 2fab 523d
000002a0: 461a 9c3d 94b5 613e 3578 0fbe f757 013c
000002b0: d017 5abd 33cb 213e fafb 0fbe 9abe 503e
000002c0: 442c cdbc 343b b83d bc69 983c 409b 573b
000002d0: 7edc bcbd ac92 8d3d e71f 23bc a001 333e
000002e0: 1482 af3d cce2 5b3d 00ae 043e bf05 2b3e
000002f0: f6d1 023e 279a 903d 67b5 b7bd 78da 01bd
00000300: f879 eabd 11a4 01be 08b5 cc3c 733c 0d3e
00000310: 1027 f63c da6c fbbc 37ff cb3d a6ca 07be
00000320: 8d07 313e deb9 9bbd dd97 103d 5a4e 033e
00000330: f961 253e 5660 443e e151 0d3d 042b 5a3d
00000340: ae78 4abd d181 06be 93a4 9fbd 69c1 23be
00000350: c98f 0fbe cc01 23be 38fc 1c3d 1d29 523e
00000360: ba22 943d 9424 093e b74c d03d 806c 473e
00000370: a96f 2c3d c030 773d c15e 493e 5408 c8bd
00000380: 207d 803c dea2 26be 01e8 9a3d c8d9 32bd
00000390: cf70 7abd 31aa 083e 03a4 1bbe 7c2d 08be
000003a0: 76bb 11be 0cab d03d 2ea0 27bd ed63 18be
000003b0: b033 e7bc 4b3d bfbd b1db ab3d 3c7e 0f3e
000003c0: 445e 813d 8b77 05be 15b5 b63d 715d cd3d
000003d0: a393 bf3b 0eb7 1e3e cad5 6dbd 2eb6 c63d
000003e0: e6c5 983d 6e56 293c d142 02bd fc1d dcbc
000003f0: 0ce6 293d 9052 223d 6404 a0bc e843 80bd
-0.027482346 -0.057362106 -0.01576882 -0.10629035 -0.14756799 0.079845764 0.03856446 0.18010838
-0.067047946 -0.017239222 0.16050786 0.052342772 0.015400082 0.16138095 0.06881775 0.049509622
0.13428883 -0.0050603747 -0.047408663 -0.05383569 -0.022427842 0.14082575 -0.11340382 0.1102444
0.13472822 0.019236773 0.1121372 0.11638077 0.07001695 0.17898498 0.18414275 -0.087161504
-0.07801852 0.19658127 0.14012447 0.0611988 0.034443945 -0.073836066 -0.13250913 -0.020006016
0.1350271 0.14728197 -0.08008205 0.14119422 0.0413215 -0.0440263 0.1687007 0.14483449
-0.113037124 0.05205822 -0.076422185 -0.09003511 0.10193806 0.027846493 -0.07993675 0.14039963
-0.15412635 -0.06795859 -0.1198059 0.032117125 -0.12545425 -0.12899396 0.15705596 0.11462234
-0.029387176 -0.09455686 0.023153841 -0.06322555 -0.08873218 -0.005875725 0.10373082 0.101208836
-0.029620616 -0.0665957 -0.027169408 -0.1237338 -0.0853341 -0.037364926 0.029963918 0.028785016
-0.12581514 -0.11856822 -0.0850064 -0.07848869 -0.12730968 -0.08537098 0.05355835 0.16418652
-0.12638658 -0.018286865 -0.02469961 -0.14570384 -0.031563908 0.00059461244 0.0800888 -0.15961596
-0.05513125 0.06683268 -0.10519454 0.093211465 0.040667966 0.031310584 -0.072653666 0.007450789
-0.09024369 0.04075889 -0.10009501 -0.068922885 -0.11443435 0.07618216 -0.048035588 0.033343866
-0.12656993 0.05968329 0.14312762 0.080984436 0.025371969 -0.10580702 0.07522368 -0.041533004
-0.06734983 0.13217677 -0.15117104 0.121947594 0.01295276 -0.033263944 0.00063564914 -0.1526961
-0.069372445 -0.104452506 0.008328974 0.083481595 0.011748046 -0.11742729 0.04889525 0.05177718
0.095440626 0.0731885 0.0057492554 -0.07709452 0.03821738 -0.09941504 -0.021222914 0.0035324828
0.11420593 -0.13580108 0.1018974 0.12174641 0.05087826 0.08211491 -0.014253722 -0.014716104
0.08347048 -0.041921064 -0.10974442 0.07683359 0.0936653 0.048299287 -0.090080306 -0.09136089
-0.15461618 0.03422925 0.08848728 -0.07138562 -0.08424028 0.07402332 0.07024358 0.051432785
0.07622199 0.22041923 -0.14010699 0.007894508 -0.053245366 0.1580017 -0.14060965 0.20385209
-0.025045522 0.08995667 0.018605106 0.0032898933 -0.09221743 0.06912741 -0.009956337 0.17481089
0.08569732 0.053683087 0.12957 0.1670141 0.12775406 0.07060652 -0.089701466 -0.03170249
-0.11449045 -0.12660243 0.024988666 0.13792591 0.030047923 -0.030691553 0.09960788 -0.13260898
0.17288037 -0.07603811 0.035301078 0.12822857 0.16150655 0.19177374 0.034501914 0.05326368
-0.049431495 -0.13135459 -0.07795062 -0.15991749 -0.14019693 -0.15918654 0.038326472 0.20523496
0.07233186 0.1339286 0.10170882 0.19474983 0.042098675 0.060349226 0.19665052 -0.097672135
0.015684664 -0.16273066 0.075637825 -0.043664724 -0.06114274 0.13346173 -0.15199284 -0.13298601
-0.14231667 0.101888746 -0.040924244 -0.14881869 -0.028222889 -0.093378626 0.08391512 0.14012998
0.06316808 -0.13033883 0.089212574 0.10027588 0.005846457 0.15499517 -0.058065213 0.09702717
0.07459621 0.010335548 -0.031802002 -0.026869766 0.041479155 0.03962952 -0.019533344 -0.06262952
