models/mappo_best_stage_0.pt (torch, 853690 bytes, 14 tensors)

log_std f4 [2]
000000 c2 46 ab bd ea e2 71 3d
       -0.08363105 0.059054293

body.0.weight f4 [256, 13]
000000 26 3f 80 3e 65 f1 27 be 68 aa dd 3d 94 d9 60 3e
       0.25048178 -0.16400678 0.10823518 0.21958
000010 44 02 80 be f8 bc 54 3e 05 6a 35 3d 0f af 88 be
       -0.2500173 0.20775211 0.04429056 -0.2669606
000020 67 2e 82 be 6c 4d ed bc 82 9f 48 be 7b 31 e2 bd
       -0.25426027 -0.028967582 -0.19592097 -0.11044594
000030 73 d1 d6 3d f1 77 8d 3e 02 c3 86 be c0 bb 2e 3d
       0.10489168 0.2763057 -0.26320654 0.04265952
000040 01 8a 66 be 3e 6c 73 3e f4 74 e7 bd 1c 36 96 bd
       -0.22513582 0.2377176 -0.11301604 -0.07334539
000050 88 8a 5c 3d e0 06 4c bc 48 6c 3e 3d 8c 68 80 be
       0.05384305 -0.012452811 0.046489984 -0.25079763
000060 40 52 ac 3c e6 93 77 be b9 0b 58 3b b3 b3 15 be
       0.021035314 -0.24177513 0.0032965972 -0.14619331
000070 9c ae 5d 3d 50 e8 33 bd 39 23 61 3e 9c 71 79 3d
       0.0541216 -0.043922722 0.21986093 0.060899362
000080 c5 0c 73 be 6e fb 7d 3e 90 63 67 be 59 7c ea 3d
       -0.2373534 0.24802944 -0.22596574 0.11449499
000090 ce 5f 5a 3e 8e b6 c1 bd 22 2e 19 3e e3 e7 09 be
       0.21325609 -0.09458648 0.14959005 -0.13467364
0000a0 7b b0 0f be 68 c9 8f bd dc b8 c6 3d 30 69 a1 be
       -0.14032166 -0.07020837 0.09703228 -0.31525564
0000b0 4a 7e a3 bb ce 5c 05 3e ec 35 50 bd 82 ec 3b be
       -0.00498942 0.13023683 -0.050832674 -0.1835194
0000c0 c5 a1 86 bd e2 1b ab bc 1f e8 8d be ad 4e f0 3d
       -0.06573824 -0.020887319 -0.27716157 0.11733756
0000d0 74 00 93 bd 20 d7 6e 3c 03 6f 9f bd 9f f5 c0 bd
       -0.07177821 0.014577657 -0.07784846 -0.094218485
0000e0 e8 f0 3f 3e e8 ac 16 3c 6d 54 0e be bd 1d 40 3e
       0.18744242 0.0091964975 -0.13899393 0.18761344
0000f0 76 7d 80 3d cf c7 27 3e 89 d0 dd bd b2 ed c8 3d
       0.0627393 0.16384815 -0.108307905 0.09810962
000100 10 0d 3a 3e df 1a 38 be 6f 61 02 3d fa 98 9e 3e
       0.18169045 -0.17979 0.0318312 0.30976087
000110 e4 d6 55 3d 54 4a 05 3e 30 5e 0b 3e 90 b9 f8 3d
       0.05220689 0.13016635 0.13610148 0.12144768
000120 0e b4 50 3e 6c 31 1f 3d eb fd e1 bd 51 c0 af 3e
       0.20381185 0.03886549 -0.11034759 0.34326413
000130 ef e2 3c 3e 52 18 c6 3d 08 b4 ae 3d f0 e7 13 3e
       0.18445943 0.096726075 0.08530432 0.14443946
000140 a1 5f 49 3d d3 e6 96 b8 32 24 e1 bc 7e 33 75 be
       0.049163464 -7.195552e-05 -0.02748308 -0.23945424
000150 4a 70 29 3e fe 0a 09 be 3d 3d ac bd e3 a3 8c 3e
       0.16546741 -0.133831 -0.08410118 0.27468786
000160 60 60 4d bb 77 14 f3 bd cc 64 3a 3e c0 6d 33 be
       -0.0031337962 -0.11869138 0.18202513 -0.17522335
000170 36 e4 6a 3e d2 eb d8 bd a2 31 1d 3e ca 12 8e bd
       0.22938618 -0.10591854 0.15350965 -0.069371775
000180 88 29 63 be e0 e0 31 3d 50 88 1c 3d 16 d1 04 3e
       -0.22183812 0.043427348 0.038215935 0.12970385
000190 d0 02 6f be 84 0f 05 be 2f 31 0d be 50 20 bc 3d
       -0.23340917 -0.129942 -0.13788293 0.091858506
0001a0 c1 3e 8d be f6 82 7f 3e 00 d3 d8 bc 36 ef 22 be
       -0.2758694 0.24952301 -0.0264678 -0.15911564
0001b0 14 35 98 3d 48 06 33 be d6 2a 70 3e 00 ee 3d bc
       0.07431999 -0.17482865 0.2345384 -0.011592388
0001c0 20 e9 35 bc 7c dd 63 bd 92 82 08 be 2c ad f8 bd
       -0.011102945 -0.055631146 -0.13331059 -0.12142405
0001d0 d8 40 44 be 27 51 37 3e 3c b6 a1 bd 5c 80 46 3e
       -0.19165361 0.17902051 -0.078960866 0.19384903
0001e0 26 10 f0 bd d8 e2 83 bc 02 d2 dc bd 51 26 7b be
       -0.1172183 -0.016099378 -0.10782243 -0.24526335
0001f0 da a0 4c bd 59 8c 82 3c 57 e3 09 3e a2 3f 93 be
       -0.049958088 0.015936064 0.1346563 -0.28759485
000200 f7 c3 7c 3e bc 77 82 3d b0 bb 9e 3c 4b 55 83 be
       0.2468413 0.06370494 0.019376606 -0.2565101
000210 a0 be c6 bd 20 27 48 3d 90 5d 40 be 08 1f 67 3d
       -0.097043276 0.048865438 -0.18785691 0.056426078
000220 a8 bd 52 3e b8 47 14 3d 28 db 3c 3e 80 51 33 3d
       0.2058016 0.03620121 0.18442976 0.043778896
000230 e6 b5 3f be 90 dc 93 bc 2e 43 36 be a8 87 f1 3d
       -0.18721732 -0.018049508 -0.17799065 0.117934525
000240 60 13 41 bc 9e e4 0b 3e 41 58 82 be 4c 42 22 3e
       -0.0117844045 0.1366143 -0.25457957 0.15845603
000250 52 31 88 bd 1c 53 c1 3d 89 25 7c be 88 d4 1c be
       -0.06650032 0.0943968 -0.24623694 -0.15315449
000260 b0 b8 c4 3c 78 76 82 be 00 43 e6 bd 66 8a 6b 3e
       0.024013847 -0.2548101 -0.11243248 0.23002014
000270 e7 34 4b 3e 21 b2 0e 3e b6 0a 89 bd a1 07 2d be
       0.198444 0.13935138 -0.06691496 -0.16897441
000280 3e 67 19 be 21 16 6b bd a7 a2 f8 3d ad b1 b6 3d
       -0.1498079 -0.05739415 0.121403985 0.08920608
000290 0e be c5 be db 7e 3b 3d a8 af c8 be 00 be ee 3c
       -0.38621563 0.045775276 -0.39196515 0.029143333
0002a0 d3 e3 12 be 4d 41 0c be 29 21 f9 bd f3 66 1a 3e
       -0.1434472 -0.13696785 -0.12164528 0.15078335
0002b0 60 00 32 3e ce 3c a9 38 ab a0 db bd cf eb 8a bd
       0.17382956 8.069874e-05 -0.10724004 -0.06783258
0002c0 94 87 92 3e cb a4 91 bd a3 9f 5c 3d a2 f2 f5 3c
       0.28619063 -0.0711151 0.05386318 0.030022923
0002d0 82 b1 0d 3c 0f 84 b4 bd ad 0c 8a be 62 ac 74 be
       0.008648278 -0.08814251 -0.26962796 -0.23893884
0002e0 ac ad 7f be 1e 13 28 3e d5 cf 87 3e c0 5d 2c 3e
       -0.24968594 0.16413543 0.2652575 0.16832638
0002f0 8c b8 82 be 5e 52 29 3e 92 9f 81 bd 04 48 98 bd
       -0.25531423 0.16535327 -0.06329264 -0.07435611
000300 76 a2 41 3e 32 52 a9 bd b0 be e8 bd f7 bf 21 3e
       0.1890963 -0.08267631 -0.11364496 0.15795885
000310 ab ac 8b 3d c9 33 25 3c b6 fe 8c bc 4a ca 47 be
       0.06820043 0.010083147 -0.0172113 -0.19510761
000320 c7 7b 25 be d2 96 92 be ea 5d 2e be 6b 49 1d 3e
       -0.16160499 -0.28630692 -0.17028013 0.15360038
000330 48 9c a2 3d e7 f5 c0 bd 62 38 15 3e 17 d2 8c be
       0.079399645 -0.09421902 0.1457229 -0.27504036
000340 ca b8 60 be ae cf 29 bd 0f bd f8 bd a5 a4 69 3e
       -0.21945491 -0.041457824 -0.12145435 0.22816713
000350 41 4c dc bd d7 8c 47 3c 37 e6 22 3e 39 4e 81 be
       -0.10756732 0.012179575 0.15908132 -0.25254992
000360 22 79 ab bd c7 0b 8f be 98 b9 7f bd 31 8c 89 3d
       -0.083727136 -0.27938673 -0.062432855 0.067161925
000370 00 3e 55 3e db 66 8a 3e a0 2c ba bc 98 a7 59 bd
       0.20824432 0.27031597 -0.022726357 -0.053138345
000380 98 7e 58 bd 54 62 d4 bd a8 00 4d 3e e8 43 c7 3d
       -0.052855104 -0.10370317 0.20019782 0.09729749
000390 30 a4 12 3e 9c ed 8c 3d b0 c2 d5 3d 20 e8 0a bd
       0.14320445 0.06881258 0.10437524 -0.033912778
0003a0 6e d4 1c be 7c 0a 91 bd 97 2d a4 3d 0d cf 1c be
       -0.1531541 -0.07082078 0.08016508 -0.15313359
0003b0 8a 07 2d 3e f5 1c f6 3d 89 67 dd bd 6e 6e 28 be
       0.16897407 0.12017242 -0.108107634 -0.16448376
0003c0 2a 4c 69 3b 92 db 82 3e 0d ad 43 be 2d 31 94 3e
       0.0035598376 0.25558144 -0.19108982 0.28943768
0003d0 0a 71 4f 3e 6b a4 01 3e d9 2e 58 bd e8 01 ce bc
       0.20257965 0.12660377 -0.052779052 -0.025147393
0003e0 3d 70 30 be 9f c1 89 3d 69 e5 0e 3e 45 9c 99 bd
       -0.17230316 0.067263834 0.139547 -0.07500509
0003f0 e8 63 82 bd e8 52 b7 bd fc 9a da bd ad 70 be bd
       -0.06366712 -0.0895136 -0.10674092 -0.09298835

body.0.bias f4 [256]
000000 9b 0a 2b 3e 18 ab 59 be 61 59 01 3e 65 fc 53 3e
       0.16703264 -0.21256673 0.12631752 0.2070175
000010 16 d7 7b 3e 14 69 cc bd d0 60 85 bc 4f fa 65 be
       0.24593768 -0.099809796 -0.016281515 -0.22458766
000020 05 d6 21 be 61 7c 46 3e 80 ee d0 3b 35 12 84 be
       -0.15804298 0.19383384 0.0063760877 -0.2579514
000030 18 de 25 3e 7a 66 ed 3d ec 40 35 be dd 3a 4a 3e
       0.16198003 0.115918115 -0.17700547 0.19749017
000040 40 c9 d4 3d 00 a8 0c b9 50 45 f9 3d aa 8b e0 3c
       0.10389948 -0.00013414025 0.121714234 0.027410347
000050 1c 89 f0 bd e7 83 c7 3d 45 b3 97 bc bb a2 07 3e
       -0.117449015 0.09741955 -0.0185181 0.1324567
000060 71 fc ea 3d e0 af 59 3e 10 a0 57 3d 72 24 dc bd
       0.114739306 0.21258497 0.052642882 -0.10749139
000070 e5 42 ee 3c e3 09 99 bd 59 55 6f 3e bc 6c d3 bd
       0.029084632 -0.07472589 0.23372401 -0.10323474
000080 d8 16 46 be 80 36 87 bb a6 ff cd 3c 71 85 28 bd
       -0.19344652 -0.00412637 0.025146317 -0.041142885
000090 e9 0e e5 3c ed 47 8b 3e ec 16 53 bc b9 a5 58 3e
       0.027961211 0.27203313 -0.012883883 0.21156968
0000a0 a3 0c 81 3d 1b f4 83 3e dc 0e 7a 3e 08 74 2e be
       0.063012384 0.25772175 0.24419731 -0.1703645
0000b0 8b bc 1a 3e 6c 8c df 3d b2 7f 9a 3d 8d 47 81 be
       0.15110986 0.10915455 0.07543887 -0.252499
0000c0 9f 94 18 3e 51 d5 09 3e b8 55 71 3c 60 ef 1f be
       0.14900444 0.1346028 0.01472991 -0.15618658
0000d0 52 b8 2a 3d 97 44 92 3e 99 d5 1a be 1b 1d 06 be
       0.041679688 0.28567955 -0.15120544 -0.1309704
0000e0 97 ae 8c bd 35 96 2a 3d b8 b1 7d bd 10 32 5b be
       -0.06869238 0.041647155 -0.061937064 -0.21405816
0000f0 01 2a 5b 3e c2 69 2a be 02 09 97 bd 8a de 29 be
       0.21402742 -0.16641906 -0.07374765 -0.16588798
000100 1c ee cc bd 0c 17 d6 bd 96 90 be 3d 62 50 68 be
       -0.10006353 -0.104536146 0.09304921 -0.22686914
000110 d2 74 0c bd 27 5c b2 bc 5a 21 07 3c d2 e5 3c be
       -0.034291096 -0.021772457 0.008247698 -0.18447044
000120 37 39 76 3e fc ee ca bd aa 54 24 bc 59 1f 55 3e
       0.24045263 -0.09908864 -0.010029951 0.2081274
000130 dc 90 34 be dc 52 37 3e 4f 47 00 3d a6 89 07 3d
       -0.17633384 0.17902702 0.031318005 0.033090256
000140 20 30 21 bc 10 a6 2d 3e f0 70 20 3d 5a 7e 72 be
       -0.009838134 0.16957879 0.039170206 -0.23681012
000150 4c f1 77 be d8 1f 53 be 6a 44 81 3c c0 7e 17 be
       -0.24213141 -0.20617616 0.015779693 -0.14794445
000160 30 aa f0 bd 25 8e ca bc a8 23 57 3d 04 c9 95 3d
       -0.11751211 -0.024725983 0.05252424 0.07313731
000170 92 8b 18 be 91 82 13 be 30 0e 17 be 3f ac 75 be
       -0.14896992 -0.14405276 -0.14751506 -0.23991488
000180 80 e2 a8 3d 83 6b 84 be 00 83 12 be 77 fd 65 be
       0.082463264 -0.25863275 -0.14307785 -0.2245997
000190 aa 10 67 3e c9 7a 51 3e 17 6f 04 3d 9a 9f 8b bd
       0.2256495 0.20456995 0.032332506 -0.06817551
0001a0 8d f9 07 3e 60 8a 5a be ac 3a 31 3e e2 4c 68 3e
       0.1327879 -0.21341848 0.17307538 0.22685578
0001b0 b8 72 14 be 7c eb 57 3e 2e bb e0 3d 18 67 12 3e
       -0.14496887 0.21085924 0.10973202 0.1429714
0001c0 cf 91 2b 3e bc 06 35 be 04 95 a7 3d 85 42 17 be
       0.1675484 -0.1767835 0.08182719 -0.14771469
0001d0 5b 70 25 be 57 e8 80 be 30 6a ad bc 25 6c a4 bd
       -0.16156141 -0.2517726 -0.021168798 -0.080284394
0001e0 a1 11 31 be 23 6e 13 3b de 1b dd bb 07 2a f2 bd
       -0.17291881 0.0022496067 -0.006747707 -0.11824422
0001f0 64 88 ad 3c 70 97 38 be 00 72 a1 bb 47 65 42 3e
       0.0211832 -0.18026519 -0.00492692 0.18983947
000200 c4 fd 5b 3e 31 1f 6f 3e 50 97 04 3e 10 6c a7 bc
       0.21483523 0.23351742 0.12948346 -0.02043727
000210 77 c1 f7 bc eb cd 7b be aa 51 67 3e 99 38 f7 3d
       -0.030243618 -0.2459027 0.22589746 0.12071342
000220 25 bb 51 be 6c bb 10 3e a2 30 7a 3d cb cf 0b be
       -0.20481546 0.14133996 0.061081536 -0.13653485
000230 cb 79 f3 3d 07 7d 26 3c 9e fb 4b 3e 77 08 9a 3c
       0.118884645 0.010161645 0.19920203 0.018802864
000240 ba 1a bb bd 2f ea 29 3e 78 dd 72 bd c7 49 0f be
       -0.09135957 0.1659324 -0.05929324 -0.13992988
000250 58 97 62 3c e0 12 9b 3d be 6c 94 3d b0 30 ce 3c
       0.0138300285 0.075719595 0.072473034 0.0251697
000260 11 dc 96 ba 31 de 08 be c1 ac 0a 3c f7 12 8e 3d
       -0.0011509677 -0.1336601 0.008464039 0.06937211
000270 03 36 98 bd e9 19 6f be a0 df 2a bc be 86 04 3e
       -0.07432177 -0.23349728 -0.010429293 0.12942025
000280 29 ba e1 bc 22 63 a9 3d e8 a7 96 bd 69 04 c8 3d
       -0.027554588 0.08270861 -0.07356244 0.09766466
000290 c2 43 0d 3e 38 b1 7b be bb 72 c8 bc 52 55 7d 3e
       0.13795379 -0.24579322 -0.02446877 0.24739578
0002a0 a5 45 3d 3e 6b 39 52 3d b5 09 44 3e f1 b9 42 3e
       0.18483599 0.05132429 0.19144328 0.19016244
0002b0 e4 f6 12 3e a3 14 dc 3d 91 14 1d be 21 29 34 3e
       0.14351994 0.10746124 -0.15339877 0.17593814
0002c0 13 e0 d6 bd ed 1d 01 be 50 00 6c 3d 3d e7 87 bd
       -0.104919575 -0.12609072 0.057617486 -0.06635902
0002d0 00 58 71 be 6b 45 92 3d de db 5f 3e 4d dd 43 3e
       -0.23568726 0.07142147 0.21861216 0.19127388
0002e0 15 7b 07 be c5 9a 44 3e 00 bf 1a 3c c6 f5 4b 3e
       -0.13230546 0.19199665 0.009444952 0.19917974
0002f0 6a a2 71 be 53 ab 47 3e bb 31 6c 3e 1e 04 dd bc
       -0.23597112 0.19498949 0.23065846 -0.026979502
000300 91 26 42 bd 45 eb 39 be 39 2b 8c bd 52 a4 54 be
       -0.04740006 -0.18156154 -0.068441816 -0.20765808
000310 12 0a 45 be a7 22 1d be 50 4a 73 3e e0 27 6b 3e
       -0.19242123 -0.1534525 0.23758817 0.2296443
000320 54 15 03 3e f2 b5 31 be b2 8c 96 3d 2b 07 12 be
       0.12801105 -0.17354563 0.07351054 -0.14260547
000330 5b d7 8b be c4 05 b0 bd e0 a6 e5 3d 24 dc 5b bd
       -0.2731274 -0.0859485 0.112134695 -0.05367674
000340 01 7c 5b 3e 65 09 87 be b7 a9 77 3e 3f 8b fb 3d
       0.21434022 -0.26374355 0.24185835 0.122824185
000350 01 b4 67 be 2d e5 7a 3e 55 2b 49 bc b1 d1 15 be
       -0.2262726 0.24501486 -0.012278398 -0.14630772
000360 ca 39 57 be b8 d9 72 3d 1f 68 6d 3e 4a da 3c be
       -0.21018139 0.059289664 0.2318425 -0.18442646
000370 10 02 ab bd a4 00 9a bc 38 89 61 be 3b 70 77 3e
       -0.08350003 -0.018799134 -0.22025001 0.24163906
000380 20 03 fd bd ad a8 cd bd 4c 64 95 3d 85 72 92 3d
       -0.12354112 -0.10041938 0.07294521 0.07150749
000390 c1 d5 ba 3b 29 8d 16 be 3f c1 b6 3b 1c 4c 20 3e
       0.005701751 -0.14702286 0.005577236 0.15654033
0003a0 1b eb b2 bd 23 d3 72 be 29 91 09 3e da 2e 4d be
       -0.08736249 -0.23713355 0.1343428 -0.20037404
0003b0 08 58 36 bd e9 07 12 3e cc 03 0c be 2a 4a 04 3e
       -0.044517547 0.1426083 -0.13673323 0.12918916
0003c0 10 cc 01 be e6 40 05 be 0d 29 2b be ea 35 d1 bd
       -0.126755 -0.13013038 -0.16714878 -0.102153614
0003d0 dd 77 03 3e 79 94 63 be be dc ce bd a2 dd a2 bd
       0.12838693 -0.22224607 -0.10100697 -0.07952429
0003e0 b8 57 57 be 14 8f 82 be 57 5a 7c bd 16 c1 6d bd
       -0.21029556 -0.25499785 -0.061609592 -0.05804547
0003f0 ae f2 b2 bd d8 0d 2e be a4 f0 ee 3d a3 d1 30 be
       -0.08737694 -0.16997468 0.11666992 -0.1726747

body.2.weight f4 [256, 256]
000000 d3 19 b2 3c 10 2a 0c 3c 39 97 7a bd 59 55 4e bd
       0.02174083 0.00855495 -0.061179373 -0.050374363
000010 9a 73 af 3b de 03 43 bd 18 4e 12 bd 4c 67 54 bd
       0.005354357 -0.04761111 -0.035719007 -0.051856324
000020 84 25 da 3c 00 0c dd bc 50 40 f8 bb b0 54 e2 bc
       0.026629217 -0.026983261 -0.007576026 -0.027628273
000030 52 9b f3 bc 9a 14 36 3d f6 2b 63 3d 5d be 28 bd
       -0.029737148 0.04445324 0.055461846 -0.04119717
000040 18 8a 8b bd c0 00 93 3c 02 6c ad bc 1e de 70 3d
       -0.06813449 0.017944694 -0.021169666 0.058805577
000050 94 5d 19 bd 7e 22 85 bd 52 e0 21 bc f6 bb 88 bc
       -0.03744276 -0.065007195 -0.009880142 -0.01669119
000060 40 35 06 bc 1b 2e 36 bd 04 15 11 3d cd bc a8 3c
       -0.008191407 -0.044477563 0.035420433 0.02059784
000070 70 62 46 bd 89 3a 4f 3d d4 0e 57 bd 16 f6 38 bd
       -0.04843372 0.050592933 -0.052504376 -0.04515656
000080 52 e0 55 bd aa a5 76 bd f0 ec e6 3c 51 15 56 3b
       -0.05221588 -0.060216583 0.028189152 0.0032666514
000090 24 15 20 bd 94 5c b4 3c a0 01 63 bd ca 7d 08 3d
       -0.03908266 0.022016801 -0.05542147 0.033323087
0000a0 44 40 14 3d da 92 f4 bc 27 d7 04 3d b0 12 0c 3d
       0.0361941 -0.02985518 0.032431748 0.03419751
0000b0 cb 8c fb 3c 5d 60 39 bd 12 0f 23 3c 0c 13 b8 bc
       0.030706784 -0.045257915 0.0099523235 -0.02247002
0000c0 46 8f e4 3c 8a 32 9c 3b e0 42 16 3d 36 dd 0a 3d
       0.02790035 0.004766767 0.03668487 0.03390237
0000d0 73 39 1d bd f0 8c 7b bc 20 fe 3d 3c 90 a2 cf 3b
       -0.038384866 -0.015353426 0.011596233 0.0063365176
0000e0 b8 3a 4b bc c7 2b 98 3b 3c 21 31 3d 66 2c 29 3d
       -0.012404136 0.0046438905 0.043244585 0.041302107
0000f0 b8 9c 81 bd 90 a4 80 3c c8 97 38 3c 08 ff 13 bd
       -0.0632872 0.01570347 0.011266656 -0.03613189
000100 3c f3 e2 3c 82 b9 2c bd 72 56 2b bd 8c a6 d2 3c
       0.027703874 -0.0421691 -0.041830488 0.025714181
000110 a6 1c fc 3c 6a d0 af 3c 26 4a 86 bd f2 d6 59 bd
       0.03077538 0.021461684 -0.065571114 -0.053183503
000120 69 19 a9 3b de d6 4d 3d 6f 91 3c 3d f4 61 4a b8
       0.0051605 0.05025374 0.046037134 -4.825178e-05
000130 ea 9c 4f 3d 33 06 0e bd e2 3f b9 bc c0 30 39 3c
       0.050686754 -0.03467388 -0.02261347 0.011303127
000140 96 5b 72 3d 54 b1 57 3d c0 fb 5f bb 60 df ea bb
       0.059169374 0.052659348 -0.0034177154 -0.0071677417
000150 3e 72 31 3d 0c 31 54 bd e6 e9 8a bc 70 fc dd 3b
       0.04332184 -0.051804587 -0.016957235 0.0067744777
000160 3c b3 6c 3d bb 8d 6e ba 86 88 6d bd c0 34 5a bd
       0.05778812 -0.0009100099 -0.057991527 -0.053272963
000170 a6 92 19 bd d4 bc 6e bd 66 d3 7a bd a8 8b 58 3d
       -0.03749337 -0.05828555 -0.06123676 0.05286756
000180 3c 35 6b 3d 2a f6 0e 3d a4 00 38 3d f4 b9 fa bc
       0.057423815 0.03490273 0.044922486 -0.030606247
000190 81 ee 12 bd 06 d0 12 3d af 9f 04 3d 78 6b 1e 3d
       -0.035871986 0.035842918 0.03237885 0.03867671
0001a0 39 11 02 bd 5c c5 48 bd 43 94 f3 ba 93 b8 70 bc
       -0.031754706 -0.04901634 -0.0018583614 -0.014692443
0001b0 a6 39 3a bd 2b 9f 8c 3c ed a2 1e 3d 63 8d 8c 3c
       -0.045465134 0.017165741 0.038729597 0.017157262
0001c0 ee cb 4b 3d 50 d1 07 3c e6 22 5e 3d 90 9b 70 3c
       0.04975503 0.00828965 0.0542325 0.0146855265
0001d0 e8 ae a9 3c cc ef 0f bd fc d1 d3 bc 80 a8 b0 3c
       0.020713285 -0.035140797 -0.025856964 0.021564722
0001e0 e6 47 39 3d 34 63 22 bd 3a d2 63 bd 30 86 f1 3b
       0.045234583 -0.03964539 -0.05562041 0.0073707327
0001f0 10 c2 5a 3c 98 5a 33 bc 5a b9 74 3d 76 38 7c bd
       0.013351932 -0.010946892 0.059747078 -0.061577283
000200 c7 8f e9 b9 e5 2f 8b bd 96 25 a8 3c 1b c8 3c bd
       -0.00044548346 -0.067962445 0.020525735 -0.046089273
000210 ee 26 5d 3d 14 09 01 3d 0f d4 8c bc f5 d5 49 3d
       0.053992204 0.0315028 -0.017190961 0.04927631
000220 b4 e6 4e bd 4b 3e 3b bc 7b f0 44 bd d0 be 5d bd
       -0.050512984 -0.011428426 -0.048080903 -0.05413705
000230 04 16 17 3d 0c 7c 50 bd ec 3f e7 bc 10 56 2d bc
       0.03688623 -0.05089955 -0.028228723 -0.010579601
000240 c0 fe 75 3c 80 1a 74 bd 24 76 52 bd ce 50 37 3d
       0.01501435 -0.059595585 -0.0513822 0.044754796
000250 b2 62 0f 3d d5 ae 85 bd 90 dd e7 bc 78 b3 6d bd
       0.035006233 -0.06527487 -0.028303891 -0.058032483
000260 b8 92 e6 3b 41 a8 38 3d 81 70 ed ba 86 10 45 3d
       0.007036533 0.045082334 -0.0018115194 0.04811146
000270 1e e3 35 3d fa d6 6c bd 04 d8 b1 bc 3d c8 32 3d
       0.04440605 -0.057822205 -0.02170945 0.043647993
000280 e1 5c 49 bc 12 00 1f bd 60 1c 9f 3b 29 82 06 3d
       -0.01229021 -0.038818426 0.0048556775 0.032838974
000290 f4 43 00 bd 84 91 bc 3c 0f f4 c7 3c 64 ad 2b bd
       -0.031314805 0.023018606 0.024408368 -0.041913405
0002a0 20 d3 c8 bc 5b 72 b2 3c 9a c0 3c 3b 54 8e 7b bd
       -0.024514735 0.021783045 0.0028801323 -0.06141503
0002b0 e6 ce 03 bd 2e 02 59 3d 6c f8 51 3d a9 2a 17 bd
       -0.032179736 0.052980594 0.051262304 -0.03690592
0002c0 11 8d 29 3d fc 5e 0a bd 60 14 f6 3c ba cf 55 bd
       0.041394297 -0.03378199 0.030039012 -0.052200057
0002d0 b0 a6 cc bc e5 ba e6 3b 33 7c 1c bc 40 65 9d ba
       -0.024981827 0.0070413225 -0.009551096 -0.0012008324
0002e0 de 85 0b bd 55 64 89 bc d8 c0 1b bc 9a 62 65 bd
       -0.034063213 -0.016771475 -0.009506427 -0.056002237
0002f0 6e 9e 40 3d c4 89 4f 3d ab f8 7b bd e8 f6 86 3b
       0.04702609 0.050668493 -0.061516445 0.004118789
000300 08 c8 55 bc 1c e8 44 bd b0 e1 15 bd e0 fe 1b bd
       -0.013048179 -0.04807292 -0.036592185 -0.038084865
000310 78 9a 16 bc 72 00 8f 3c 59 f6 ed bc 27 45 95 3c
       -0.009192102 0.017456267 -0.029048132 0.018221451
000320 69 3c 76 bd 8c 15 f8 3c ce 29 8f 3c a8 4d 04 bd
       -0.060116205 0.030283712 0.017475989 -0.03230062
000330 48 02 7e bd a6 69 63 3d 80 61 82 3a c0 46 db 3c
       -0.062013894 0.055520676 0.000994727 0.026767135
000340 a4 f6 40 3d c0 a6 26 3c f6 2e 0e 3b b4 e7 96 bc
       0.047110215 0.010171592 0.0021695471 -0.018421032
000350 fa 01 3d bd b2 1d d2 bc 3c fc e7 bc e6 0f 92 3c
       -0.046144463 -0.025648925 -0.028318517 0.017829847
000360 78 4b e6 3c 94 ef 50 bd 62 53 05 bd ce eb 77 3d
       0.028112158 -0.05100973 -0.032550223 0.060527615
000370 ec 40 50 3d fe 64 65 bd d6 8c df 3c 08 94 54 bd
       0.050843164 -0.056004517 0.027288835 -0.051898986
000380 7e ee 07 bd 6b 49 2b bb 44 06 09 3d 50 d4 b6 bb
       -0.03318643 -0.002613629 0.03345324 -0.005579509
000390 b8 7e 60 bc a4 cf 97 3c b0 ce ee bc e5 5a 0e 3d
       -0.013702087 0.018531628 -0.02915129 0.034754653
0003a0 c7 4b 61 3d d4 af 4d bd 87 62 00 bd 60 65 38 3d
       0.055003908 -0.05021651 -0.031343963 0.045018554
0003b0 70 7b 5d bc d8 42 ed bc 5a 27 86 3c 60 2c 03 3b
       -0.013518199 -0.028962538 0.016376186 0.0020015463
0003c0 75 94 df 3b 0a c6 ba bc d4 7a 99 3c 20 80 70 3b
       0.0068231174 -0.02279951 0.018735327 0.0036697462
0003d0 42 10 b6 3c 10 fa 11 bd 78 30 0d bc c1 a0 89 3c
       0.02222455 -0.03563887 -0.008617513 0.016800286
0003e0 80 c8 ba ba a9 e5 c5 bc fa f2 04 3d a7 70 02 bd
       -0.0014250427 -0.024157362 0.032458283 -0.031845715
0003f0 c0 8c 06 bc 30 64 14 bd 10 81 eb bb c8 b8 fe bc
       -0.008212268 -0.03622836 -0.0071870163 -0.03109397

body.2.bias f4 [256]
000000 b3 b9 10 bc 9c 82 0b bd bb bc 61 bd 5c e1 a1 3b
       -0.008833337 -0.034060106 -0.055111628 0.004940195
000010 a2 b9 51 bd d4 99 58 3d 5b 26 a8 bc 1c d0 88 3c
       -0.051202424 0.052881077 -0.020526102 0.016700797
000020 ac e2 ea 3c d4 e6 30 bd 43 43 3d bd a6 4c e3 bc
       0.028672539 -0.043188885 -0.046206724 -0.02774651
000030 45 27 81 3b ce 36 13 3d 60 5d ef bb 54 3b 18 bd
       0.003941449 0.035940938 -0.0073048323 -0.037165955
000040 a1 10 15 bd e6 90 d9 bc 90 99 0d 3d e7 29 4e 3d
       -0.03639281 -0.02655835 0.034570277 0.05033293
000050 59 e0 49 bd e4 d9 85 bc ea 49 33 bd 9e 2f 6b 3d
       -0.04928622 -0.01633925 -0.04377166 0.05741846
000060 0e f9 55 bc 57 ba 54 bd de 6e 73 3d 11 75 0f bd
       -0.013059868 -0.05193552 0.059431903 -0.035023753
000070 01 5e 96 bc 08 dd a6 bc 28 da 01 bc e2 61 45 bd
       -0.018355371 -0.020369068 -0.007925548 -0.04818905
000080 fe 77 a9 bc 90 69 03 bb 4f 3e 02 3d cb 08 13 bd
       -0.0206871 -0.0020051934 0.031797703 -0.035897058
000090 85 89 79 ba c0 97 78 3b 0a 3e d3 3c 90 50 23 3c
       -0.0009519088 0.0037932247 0.025786418 0.009967938
0000a0 4b 72 38 3d 0e 14 4d bd 67 0b 43 bd f9 80 26 3c
       0.045030873 -0.050067954 -0.047618296 0.010162585
0000b0 44 59 be bc d2 39 65 3d 68 79 3d bc c0 db 51 3c
       -0.023235925 0.055963345 -0.01156459 0.01280874
0000c0 f0 10 a7 3c a0 1c 5a 3d a0 02 b4 3b fc fe 2b bd
       0.020393819 0.053249955 0.005493477 -0.04199122
0000d0 80 84 a6 b6 32 c7 34 3c be d7 e9 bc f0 2b 2c bc
       -4.9626105e-06 0.01103382 -0.028545257 -0.010508522
0000e0 fd db 4d 3c b6 69 48 3d a1 a6 4e bd 7e 84 3f bd
       0.012564656 0.04892894 -0.05045188 -0.046757214
0000f0 30 ab 80 bc 60 1b cd 3b 6c 49 3f 3d a3 49 0c 3d
       -0.015706629 0.006259367 0.04670088 0.034249913
000100 36 ed 2d 3d e2 fb c3 3c 14 8a 3e bd 20 ed 5e 3d
       0.04246255 0.023923818 -0.0465184 0.05442536
000110 e6 b4 4d bb 63 27 66 bd 0c 11 8a bb e6 b4 10 3c
       -0.0031388341 -0.056189906 -0.004213458 0.008832192
000120 c6 b5 0e 3d 00 94 8a 38 78 2d ea bb 98 d1 5c 3d
       0.03484132 6.60792e-05 -0.0071465336 0.05391082
000130 7f 8a 61 bd e0 58 4a 3b f8 a1 3f 3d e6 9f 6d bd
       -0.05506372 0.0030875728 0.046785325 -0.05801382
000140 f9 73 54 bb c6 f7 61 3c c0 eb 57 3d c2 c9 19 bc
       -0.0032417758 0.013791984 0.052715063 -0.009386482
000150 0e a8 19 3d ac c5 d3 3c c6 c4 61 bd d7 d1 56 3d
       0.037513785 0.025851093 -0.0551193 0.052446213
000160 b9 43 48 bd 8e 9c 55 3d c0 81 c1 bc 84 2a f9 bc
       -0.04889271 0.052151255 -0.02362144 -0.03041578
000170 e4 31 26 bd 54 a6 60 3d 33 b4 b6 bb 0c 90 a2 bc
       -0.040574923 0.054846123 -0.0055756806 -0.019844078
000180 2e b8 20 3d 7e d0 16 bd 1a a0 98 ba 51 67 8b 3b
       0.039238147 -0.036819927 -0.0011644394 0.0042542596
000190 66 12 28 3c 0d f0 fb bc 4a c9 32 bd 99 f4 01 3d
       0.010258293 -0.030754114 -0.043648995 0.031727407
0001a0 47 3f f8 3b 08 ee 46 3c bd ea 40 bd 60 2f e9 bc
       0.0075759026 0.012141712 -0.047098864 -0.028464973
0001b0 8c 16 82 bc bb 73 28 bc f8 0c a5 3c 74 ad 38 bd
       -0.015879892 -0.010281499 0.020147786 -0.045087293
0001c0 6a 81 30 3d 13 fe 12 bc 32 3b 6e bd 73 e7 27 bc
       0.04309217 -0.008971709 -0.05816192 -0.010248053
0001d0 df 8b 56 bd 7b 1e 81 3c 6a f2 92 bc 1a 63 0b 3d
       -0.052379485 0.015761605 -0.017937858 0.034030057
0001e0 a0 07 b9 3b 9e 76 21 3d 28 88 39 3c 39 b3 13 3d
       0.005646661 0.039419763 0.011323966 0.036059592
0001f0 c0 0b 51 3d c0 ad 05 bd 86 bc 3f bd 5c ac 8c 3c
       0.051036596 -0.032636404 -0.04681065 0.017172031
000200 00 2e 2c 3a ea 4a 4b 3d 69 c4 63 bc 52 76 82 ba
       0.0006568134 0.04963199 -0.013901808 -0.0009953475
000210 6c 55 10 ba 73 82 70 bd 80 0a 4b ba 86 d1 2f bd
       -0.0005505893 -0.058718156 -0.00077454 -0.042924426
000220 53 c3 11 bd 26 a4 10 bd 63 03 0a 3d 06 d3 4d bd
       -0.035586666 -0.035312794 0.033694636 -0.050250076
000230 44 01 7b bd 4a 13 98 3b 06 a7 60 bd 5f d1 45 3d
       -0.061280504 0.0046409713 -0.054846786 0.048295375
000240 50 45 e3 bc 4c a9 1e 3d a0 b3 b5 3c 3d d7 29 bd
       -0.027743012 0.038735673 0.022180378 -0.041465033
000250 e8 48 1a bd 89 e8 43 bd 04 32 fa bc 04 8f f4 bc
       -0.037667185 -0.047829185 -0.030541427 -0.029853351
000260 17 5d ec bc a6 fd af 3b 4e 1f 48 bd f7 45 34 3d
       -0.028852982 0.0053708134 -0.04885798 0.044012036
000270 d3 62 0a 3b a3 0e 61 3d 96 95 71 bd 89 48 e1 3c
       0.0021116033 0.0549456 -0.058980547 0.027500408
000280 8c 5b a9 3c 13 e1 2e 3c b4 5d 03 3d f8 1f 14 bd
       0.020673536 0.010673779 0.032071784 -0.0361633
000290 f4 c4 54 3c 58 6d 68 3d 9c 26 3f bb 5e c3 78 3c
       0.01298641 0.056744903 -0.00291673 0.015183298
0002a0 e7 5d 4c 3d ee a5 1d 3d 0a c4 02 3d 6d c9 c0 3c
       0.04989424 0.03848832 0.03192524 0.023533547
0002b0 64 a0 b1 3c 4b 52 a5 bb c7 34 40 3d 6b cf 0f 3c
       0.021682926 -0.0050452105 0.046925332 0.00877748
0002c0 cb f7 00 bb 16 17 61 bd 38 5e 1e 3c 96 2b 50 bd
       -0.0019678946 -0.054953657 0.009666018 -0.050822817
0002d0 4b 55 97 bc 5f fe a9 bc 95 1e 8d 3b 4e 94 b5 3b
       -0.018473288 -0.020751176 0.004306624 0.005541361
0002e0 78 40 7b 3b 60 68 17 bc f5 3e 47 bd 6d 57 87 3c
       0.0038337987 -0.0092411935 -0.048644025 0.01652118
0002f0 b6 86 78 bc 37 1e 85 3c da 07 77 3d 82 5e 6f bd
       -0.015168836 0.01624976 0.060310222 -0.05843974
000300 fa d3 6e 3d 08 86 85 bc cb 43 30 3d ba ef 09 3d
       0.058307625 -0.016299263 0.043033402 0.033675887
000310 a4 56 08 bc 6f 25 3e bd 73 4b 9a bc 4f ae bc 3c
       -0.008321438 -0.04642242 -0.018834805 0.023032336
000320 ec 76 93 3c c8 21 c1 bc 0f 27 86 3d 8e 75 16 3c
       0.018001042 -0.023575678 0.065504186 0.009183301
000330 5e 18 f7 bc 5c 80 68 3d 65 22 b6 3b 57 13 6e 3c
       -0.030162986 0.056763038 0.0055582994 0.014530978
000340 88 8a 13 bc 91 16 e2 3a 5b c2 3c bd 52 fa 73 bd
       -0.009005196 0.0017249157 -0.04608379 -0.059564896
000350 87 54 cd bc 4d 3c 20 bd 70 57 e9 3b 9e 93 6d 3d
       -0.02506472 -0.039120007 0.007121019 0.058002107
000360 7c c8 47 3d 3b 07 bb 3c 60 f1 0b bc b6 d2 1d 3d
       0.04877518 0.022830596 -0.008541435 0.038531028
000370 bc 3f 4c 3d 6d 8c a2 3b 86 4c 48 bd 02 2b 00 3d
       0.04986547 0.0049605877 -0.048901103 0.031291015
000380 9f 62 d0 3c 36 66 50 bd 67 7c 2d 3d 12 ce 2b 3d
       0.025437651 -0.050878726 0.042354967 0.04194457
000390 0c 3a 2d bd 2e 8d 28 bc d9 ab 6e bd b9 0c e1 3c
       -0.042291686 -0.010287566 -0.058269355 0.027471887
0003a0 89 66 e5 3b de 37 71 bd 67 48 4c 3d 31 c2 1a 3d
       0.0070007485 -0.05889117 0.049873736 0.03778285
0003b0 df 91 5b 3d 2a e6 52 3d 29 95 91 bc 56 f9 ff 3c
       0.05360591 0.051489033 -0.01777132 0.031246822
0003c0 92 da 1f bd 3b bf 88 bd 7b 81 e8 bc a5 8b c4 3c
       -0.039026804 -0.06677099 -0.028382054 0.023992369
0003d0 e0 f2 13 3d de 5c 65 bd a3 4e 71 3d 0d 28 4c 3d
       0.036120296 -0.05599677 0.058912884 0.049842883
0003e0 fc 70 00 bd b8 5d 7a bd fa ce 8d bc 3a 72 59 3d
       -0.03135775 -0.061124533 -0.017310608 0.05308745
0003f0 0c f3 ba 3c 43 9e 34 3c 61 9e f4 3c c0 41 43 3c
       0.022820972 0.011024061 0.029860677 0.0119175315

mu_head.weight f4 [2, 256]
000000 80 c3 28 bd 38 df 4d 3d 23 f4 f9 3b 48 cc 03 bd
       -0.04120207 0.050261706 0.0076279803 -0.03217724
000010 70 47 6d bd 8a 8b 32 3d b3 4a 5c bd c6 f3 1a 3d
       -0.057929456 0.043590106 -0.053782176 0.037830137
000020 b4 3a 15 bd 00 23 88 ba cc fe 34 3d ed 65 db bb
       -0.036432937 -0.0010386407 0.044188306 -0.0066955
000030 36 1e e9 bb 22 fb 59 bc 80 71 75 3c 98 aa 5e 3c
       -0.007114197 -0.013304504 0.014980674 0.013590477
000040 34 c9 5d bd 38 bf 04 bd 1c 37 52 3d c9 df 7e 3d
       -0.05414696 -0.032408923 0.051322088 0.062225137
000050 f9 85 61 bd fc 25 46 bd 21 96 e6 bc 8b 2b 41 3d
       -0.055059407 -0.04837607 -0.028147759 0.047160666
000060 f2 60 8b 3d 9b 64 95 3d 84 00 c2 3c 2d be 08 3d
       0.068056 0.072945796 0.023681886 0.03338449
000070 6f 18 a7 3d 5c 68 f7 bc e4 00 c7 bc e0 66 16 3b
       0.08158957 -0.03020113 -0.024292417 0.0022949502
000080 ab 32 76 bd 5b 6d 79 bd 5e 60 83 bd ad 5b 74 bd
       -0.060106914 -0.060895305 -0.06414865 -0.05965774
000090 50 74 57 bc ac 0a 21 3d 9a 90 03 bb 53 24 31 3d
       -0.01315029 0.039316818 -0.0020075203 0.043247532
0000a0 5c fd 43 bd ce 7f 3d bd 4d 33 2c bc 01 56 1c 3d
       -0.047849044 -0.046264462 -0.010510278 0.038167957
0000b0 b0 d5 8b bb 37 f9 ba bb 06 8e 81 3d f9 0e 91 3b
       -0.004267417 -0.0057059783 0.06325917 0.0044268337
0000c0 98 c6 9e 3c f0 b6 c4 3c 8c 5b 1d bd be 62 01 3b
       0.019381806 0.024013013 -0.038417384 0.0019742693
0000d0 53 40 9a 3b e1 9e fb 3c 30 c4 66 bd e7 7d 65 3b
       0.004707375 0.030715408 -0.056339443 0.003501767
0000e0 ce 1c cd 3c dc 01 de ba 84 79 3e bd 2d 32 57 3d
       0.02503815 -0.001693781 -0.046502605 0.052538086
0000f0 c0 34 e9 bb d8 6b 40 bc 18 75 8b 3b df c9 d9 bb
       -0.007116884 -0.011744462 0.004255902 -0.0066463794
000100 8a d8 16 3d 52 da 19 3d b0 85 47 3d b8 17 06 bd
       0.0368276 0.037561722 0.04871148 -0.032737464
000110 73 e6 60 bc be 48 07 bd b0 e1 55 3d d1 e5 dc bc
       -0.013726818 -0.033028357 0.052217185 -0.026965054
000120 4a 30 be 3c 80 c4 47 3a 85 94 61 bd 00 5a d9 bc
       0.023216385 0.00076205283 -0.05507328 -0.026532173
000130 72 06 49 bd 90 10 d1 bc b0 03 e8 3c 38 92 af 3c
       -0.049078412 -0.025520593 0.02832207 0.021432027
000140 19 8c df 3c b5 c0 7f 3d 87 6c cc 3b b3 62 47 3c
       0.027288483 0.06243964 0.0062385234 0.012169528
000150 d7 cc 35 bd 6c 5d 1c 3d b4 01 67 3c c3 e6 15 bd
       -0.044384804 0.03817503 0.014099527 -0.036597025
000160 a1 94 92 bb 7f a4 cb bc 5a 24 0a 3d d4 da 9d bc
       -0.0044732844 -0.024858711 0.033726074 -0.019269384
000170 be d0 20 bd a3 d5 07 3d c9 9c 1d 3b 54 bf 58 bd
       -0.039261572 0.033162724 0.002404975 -0.05291684
000180 78 01 fa bc b8 90 d9 3c 06 bc 47 3d 3d 95 24 bd
       -0.030518278 0.026558265 0.048763297 -0.040181387
000190 c4 40 0b bd 20 fb b0 bc 94 ef f5 3c 7b 72 65 bd
       -0.033997312 -0.02160412 0.030021466 -0.05601738
0001a0 5c 83 30 3d 38 1c 95 3c ad a9 12 bd 6f 13 35 3d
       0.043094024 0.018201932 -0.035806347 0.044207986
0001b0 9e 15 3d bc 26 ca 92 bc 6c a1 27 3d 08 1c 26 bd
       -0.0115407985 -0.017918658 0.04092543 -0.040554076
0001c0 46 79 40 bd 22 33 79 bd d4 82 cd 3c 14 39 ac 3b
       -0.046990655 -0.06083978 0.025086798 0.0052558277
0001d0 8c 75 44 3d c1 41 cf 3c ef 76 30 3d 1a d3 17 bd
       0.047963664 0.025299909 0.043082174 -0.037066557
0001e0 a6 e9 27 3d f0 b2 10 3c 50 62 35 3d 6e a2 c9 3b
       0.04099431 0.0088317245 0.04428321 0.0061533963
0001f0 d7 bd 03 3d e7 3a 36 bd 88 bb 40 3c 38 f5 34 bd
       0.032163467 -0.044489767 0.011763461 -0.04417917
000200 38 35 cf 3c 7e 2f 09 3b 55 53 21 bd b2 fd 2c bd
       0.025293931 0.0020932849 -0.039386112 -0.04223413
000210 fa f2 3e bc 00 15 25 3d b0 3c 11 bc fe d2 5c bd
       -0.01165461 0.04030323 -0.008864567 -0.053912155
000220 56 5e 4e 3c 80 6f 99 3b 1f 02 2c bd a8 03 69 3d
       0.012595734 0.0046824813 -0.04199421 0.056888252
000230 20 9d 8a bb 6f 22 e6 b9 cd 5c 17 bb b1 fd 61 3d
       -0.0042301565 -0.00043894674 -0.0023096085 0.05517358
000240 ee 91 76 bd 6c 65 75 bd eb 68 07 3d 1b 42 67 bc
       -0.060197763 -0.059911177 0.033059042 -0.014114882
000250 f0 24 14 3d 48 63 5e 3c d6 fe 36 bd 46 27 52 bd
       0.03616804 0.013573475 -0.044676624 -0.051306985
000260 44 e3 9e 3a 1f 86 b8 bc ba ac 6f 3d 61 ca 4d 3c
       0.0012122174 -0.022524891 0.058514334 0.012560458
000270 00 62 93 bd ca ed 3a bc 6e 3f 4e 3d ca d1 a8 b9
       -0.071964264 -0.011409232 0.05035346 -0.00032199762
000280 9d 62 10 3d 63 7e fd 3b 11 82 f0 3c 40 11 e1 bb
       0.035250295 0.0077360137 0.029358895 -0.0068685114
000290 81 f6 1d bb 52 5a 71 3d 4f 19 95 3a 7d ac 1a bc
       -0.0024103227 0.058924027 0.001137534 -0.0094405385
0002a0 fb 55 8f 3c 05 85 9a bc 68 a2 6d 3c 11 15 17 bd
       0.017497053 -0.018862257 0.014504053 -0.036885325
0002b0 ca fe 2b bd 1a 7d 13 bb 4e 59 5b 3d f5 6e 1c bc
       -0.041991033 -0.0022504986 0.053551964 -0.009547939
0002c0 c8 ac 1d bd 88 aa b5 3c d0 bc 07 bd 5a d8 59 bd
       -0.038494855 0.022176042 -0.03313905 -0.053184845
0002d0 82 35 4b bc 9c e8 21 bd fc ae 2e bd d7 69 56 bd
       -0.012402894 -0.039528474 -0.042647347 -0.05234703
0002e0 bd 0b 80 bd 4c d6 cd bc f0 cf 28 3c 6b 68 66 bd
       -0.06252239 -0.025126599 0.010303482 -0.056251924
0002f0 7e 62 2c bc 5e 2d 4b bd 44 76 f2 3c e2 48 7f 3d
       -0.010521529 -0.049603812 0.02959741 0.062325366
000300 f0 2b 8a bc 18 f9 11 3c 18 06 8b 3c 5a d1 0c bd
       -0.016866654 0.008909486 0.01697068 -0.03437934
000310 1b 2f 9f bb bb 7b 83 3c ce fe e8 3c f5 b5 0f bd
       -0.0048579103 0.01605021 0.028441813 -0.035085637
000320 5c 46 9a bc 8d 6d 72 bd d7 e2 86 bb a6 fa 8b 3b
       -0.018832378 -0.059186507 -0.004116397 0.004271823
000330 d1 5a ef ba 40 c2 d9 bc 0d 97 87 bd 51 1c 6b 3d
       -0.0018261318 -0.026581883 -0.066206075 0.05740005
000340 20 b0 f8 3c b1 df c3 3c e6 01 61 bd 3c fa 92 bc
       0.03035742 0.023910375 -0.05493345 -0.017941587
000350 a9 09 69 bd 0d 14 dd 3c 14 19 71 bd c7 1e 68 bd
       -0.05689398 0.0269871 -0.058861807 -0.056669977
000360 dc 66 d1 bc b6 0f 45 bd 28 ba 0d 3d 5e ad 34 3c
       -0.025561742 -0.048110686 0.03460136 0.011027662
000370 de 67 9b bd 24 ef 1f 3d 57 4a 15 3d 00 67 0d bd
       -0.075881705 0.03904642 0.03644785 -0.034522057
000380 0f d7 4a 3d a0 eb 87 3c 61 80 89 3c 34 4d f2 bc
       0.049521502 0.016591847 0.016784849 -0.029577829
000390 75 e1 72 bd 0c 49 23 bd 31 d6 81 3d 79 96 98 3b
       -0.059297044 -0.039864585 0.06339682 0.0046566096
0003a0 77 30 d9 bc da f2 33 3d a0 24 1f bd 20 c4 46 bd
       -0.026512368 0.043932773 -0.038853288 -0.048526883
0003b0 a1 87 37 bd 9f a9 25 3d 35 41 4b 3d d5 fd 4b bd
       -0.04480708 0.040444966 0.049622733 -0.04980262
0003c0 f7 52 1d bd ed 8c 1f bc 22 7d 72 bd e5 d6 2e bd
       -0.0384092 -0.009738189 -0.059201367 -0.04268541
0003d0 77 aa 4b bd 3a 85 17 3d e9 d1 06 bd d3 47 41 bd
       -0.049723115 0.03699229 -0.03291503 -0.047187638
0003e0 86 d0 1d bd bc 19 b5 bc 1c b1 09 bd 76 cc 73 3b
       -0.03852894 -0.022106998 -0.03361617 0.0037200726
0003f0 84 7e e9 3c 10 51 0a bc 02 ef 7b 3c 34 24 81 3c
       0.02850271 -0.008442178 0.015376808 0.015764333

mu_head.bias f4 [2]
000000 b5 e6 0a bd 33 91 07 bc
       -0.033911426 -0.008274364

model.0.weight f4 [256, 39]
000000 98 be 08 3e a9 63 df bc 55 dc a4 3d 2d b2 b7 bd
       0.13353956 -0.027269201 0.080498375 -0.08969531
000010 6e 07 48 3d d4 9e 44 bd f2 fd c3 3c 18 40 3b bd
       0.04883521 -0.048003033 0.023924801 -0.04571542
000020 70 5a ac 3d d3 bd a9 3d 31 5d 0b 3e ab 25 1a be
       0.08415687 0.08288159 0.13609768 -0.15053432
000030 e0 77 8e bd d4 e0 40 3d 06 5c 8e 3d e6 c4 3c be
       -0.06956458 0.047089413 0.06951146 -0.18434486
000040 c5 f6 03 be b4 fe 0d be e1 ec a7 3c 43 af 2d 3e
       -0.12887104 -0.13866693 0.020498695 0.16961388
000050 14 27 b8 3d b6 2c 8c bd dc 46 f9 bd 55 9b e4 bd
       0.089918286 -0.068444654 -0.121717185 -0.1116244
000060 44 30 65 3d e6 03 06 bd 3b 08 12 3d 63 7d 0d bc
       0.055954233 -0.03271856 0.03565238 -0.008635852
000070 52 fa 02 be bf db a4 3d 15 a8 2c bd a2 fb ae bd
       -0.12790802 0.08049726 -0.042152483 -0.08544089
000080 37 98 9c 3d 7b 2e ae 3d a6 2e 7d 3b 37 33 d6 bd
       0.0764622 0.08504959 0.003863254 -0.10458987
000090 28 e6 07 3e 85 6e 99 3d aa 43 11 3d 53 58 06 bd
       0.13271391 0.07491783 0.03546492 -0.032799076
0000a0 9c 17 09 be 5b c8 85 bc 2b 83 13 bd 84 a3 ac 3c
       -0.13387913 -0.016330888 -0.036013763 0.021074064
0000b0 06 a1 77 bd 48 66 e9 3d 07 7a 17 3e 72 ad 8f bc
       -0.0604563 0.11396462 0.14792643 -0.01753876
0000c0 05 5d 23 3e 54 72 e6 3c c7 49 89 bd 8f c2 53 bd
       0.15953453 0.028130688 -0.06703525 -0.051699217
0000d0 a5 5e 28 3e b0 e7 96 bb 4e 1a b9 3d c5 e9 f5 bd
       0.16442354 -0.004605256 0.0903822 -0.120074786
0000e0 08 4f 28 3c 56 bf 8a 3d 14 21 b3 bd 8e b6 5c bd
       0.010272749 0.06774776 -0.087465435 -0.053885035
0000f0 32 c4 b5 3d ad 43 84 bc bf 6c f6 3a 97 ea ac 3d
       0.08875312 -0.016145552 0.0018800719 0.08443182
000100 bb a2 12 3e 19 da 03 be 44 a4 ee 3d df c7 1b be
       0.14319889 -0.12876166 0.11652425 -0.15212964
000110 91 05 9d bc fe 2f 0f be 88 e5 25 3d bd ce fa 3d
       -0.019167693 -0.13983151 0.0405021 0.122464634
000120 11 da e1 3b df 65 12 3e 9d 5f 2f bd 41 ef 26 bc
       0.0068924506 0.14296673 -0.042815793 -0.0101888785
000130 47 60 ad 3c d5 6a 00 3d 4a 8c a4 3c 37 9f 11 3e
       0.021164073 0.031351883 0.020086426 0.14220892
000140 40 11 3c be 64 81 c8 3d 17 3c 8d 3d a9 0b c7 3d
       -0.18365955 0.09790304 0.06896227 0.09719021
000150 25 8d bd bd f7 5e 76 3b e3 60 b4 3d 79 a2 01 3d
       -0.09255437 0.0037593225 0.08807542 0.031649087
000160 b8 7b 20 3d a6 3d a7 3d 62 4f 0d 3e 79 30 d1 3d
       0.039180487 0.081660554 0.13799813 0.102143236
000170 d7 8d f6 bd 79 3b da bd 1e 57 b6 3d 2c 73 0f 3e
       -0.120387726 -0.10655875 0.08903335 0.14008778
000180 e1 e2 86 3d 6b 63 c1 3d ce b6 04 3e e1 f5 f2 3d
       0.065862425 0.094427906 0.1296036 0.11863304
000190 36 86 bf bc 49 00 db bd 62 e0 e9 bd 53 0e 9f bd
       -0.023379426 -0.10693414 -0.11419751 -0.07766404
0001a0 57 6e 13 be 15 b7 1a 3e 16 4e e7 bd eb 7a 14 3e
       -0.1439756 0.15108903 -0.112941906 0.14500014
0001b0 07 bb a1 bc 58 75 15 3d c1 17 20 bd f8 72 54 3d
       -0.019742502 0.03648886 -0.039085153 0.051867455
0001c0 82 8f 17 3e 93 02 a3 3b e5 2c c2 bd bf 32 0b 3e
       0.14800838 0.004974672 -0.09481219 0.13593577
0001d0 da f8 0d 3e 59 c6 b1 3d ae 83 63 bd e6 1b dd 3d
       0.1386446 0.0868041 -0.0555455 0.10796337
0001e0 e4 01 04 3e d8 2f 6f 3d e0 cb 84 bd a1 87 9a bd
       0.12891346 0.058395237 -0.064841986 -0.075454004
0001f0 31 d5 ab bd b8 09 cd 3d e7 65 07 be bc 1a 88 3d
       -0.083902724 0.10011619 -0.13222466 0.06645724
000200 5e 23 00 3e 06 8e 9b bd 23 cc 4f bd 52 f5 4c bd
       0.12513492 -0.07595448 -0.05073179 -0.050038643
000210 57 86 31 be ad c1 a7 bd c6 dd 99 3d df ef 95 3d
       -0.17336403 -0.081912376 0.07513003 0.073211424
000220 b6 e0 9d 3d 6b 91 bf bd 34 60 bf 3d de 7b ec bc
       0.07708876 -0.09353908 0.09344521 -0.028867658
000230 4d 7d 11 3d e7 ab 54 bd aa f1 33 3e d7 a9 32 3d
       0.035519887 -0.05192175 0.17572656 0.043619003
000240 75 4e e2 3d a4 d4 54 be 09 51 64 bd a5 d4 8c 3d
       0.11050121 -0.20784241 -0.055741344 0.06876496
000250 71 ce fe 3d 9c 11 c3 3d 0c b2 06 3e 80 0a aa bd
       0.12441719 0.09524843 0.13153857 -0.08302784
000260 b8 49 3a 3c 3e 2c b4 bd c3 36 d6 3d d7 0a 12 3a
       0.011370115 -0.08797501 0.10459664 0.0005571073
000270 68 81 1d 3d ba bf 0d be 30 ae 94 3d 9c de 94 3d
       0.03845349 -0.13842669 0.07259786 0.07269022
000280 b2 d9 10 3e 98 c6 13 be 92 36 ef bd 96 24 f4 bd
       0.14145544 -0.14431226 -0.1168033 -0.11921041
000290 33 c6 12 be 26 3b 14 3e 60 66 82 bb 1c be 17 3d
       -0.1433342 0.14475688 -0.003979489 0.037046537
0002a0 ae ae 1f be 08 c1 69 bd 8f c1 0a be 48 4d af 3c
       -0.15593979 -0.057068855 -0.13550399 0.021399155
0002b0 00 67 67 3d 54 7f ee bd 40 40 9b bc ed 27 22 be
       0.056494713 -0.1164538 -0.018951535 -0.15835543
0002c0 a8 9f cc bc e0 50 a0 3b 00 c0 c5 b9 a8 bc e0 bc
       -0.024978474 0.0048924536 -0.0003771782 -0.027433708
0002d0 14 e1 0f be 0e 1c 37 bd b6 d5 14 be c0 90 18 bc
       -0.14050704 -0.04470449 -0.14534649 -0.009311855
0002e0 d1 2a 12 be 56 6f 53 bd c8 63 b4 bc 80 2e ef ba
       -0.14274146 -0.05161985 -0.022020236 -0.0018248111
0002f0 c6 6f 19 bd cd 8c fc bd 80 4f a6 3b c8 ca 0c 3d
       -0.03746011 -0.12331543 0.005075395 0.034373075
000300 98 21 e9 3c e6 a4 09 be 86 14 08 3e a0 e1 4f bd
       0.028458402 -0.1344181 0.13289079 -0.050752282
000310 c1 a6 1b 3e 1e 79 ff 3b b5 7a da 3d d5 28 9e bc
       0.1520033 0.0077964207 0.10667936 -0.01930658
000320 f2 58 0b 3e 44 0f 82 3d 7a 7f 9d 3d 24 7c 17 ba
       0.13608149 0.06350568 0.0769033 -0.0005778691
000330 ee 80 08 3e 5e 11 21 3e 92 a6 01 be a3 e5 17 3e
       0.13330433 0.15729281 -0.12661198 0.14833693
000340 84 f4 a7 bc ca a0 d1 bd 45 ab 18 be 94 8f 31 3d
       -0.020502336 -0.10235746 -0.14909084 0.043349817
000350 be b0 81 bc 18 08 80 bc 80 f6 12 3e 4a f3 e4 3d
       -0.015831348 -0.01562886 0.14351845 0.11179216
000360 9a 44 91 bd 4a 87 0e be b3 50 09 3e 87 ea bc 3d
       -0.07093163 -0.13918796 0.1340969 0.0922442
000370 cf d3 de 3c 1c cb 1c bd 9f 54 89 bd f1 a0 07 be
       0.027200608 -0.038279638 -0.06705593 -0.13244988
000380 85 e6 f1 bd 0c f1 6d 3d 4c 57 bf 3c 9b 8a 23 ba
       -0.11811546 0.05809121 0.023357056 -0.00062386104
000390 25 3e 2e bd fc b1 8a bd 25 af 39 bd 6a 73 e5 bd
       -0.042539734 -0.06772229 -0.045333046 -0.11203654
0003a0 21 87 78 bd b3 34 2a 3e 54 ef 6a bd 3a 46 fa bd
       -0.060675744 0.16621666 -0.057357147 -0.12220426
0003b0 89 17 c6 bd 05 f0 6b bd db 37 45 bd dd 24 70 3c
       -0.09672458 -0.057601947 -0.04814897 0.014657226
0003c0 46 d6 3c 3d b0 70 05 bd 43 34 e7 3d bb ed 05 3d
       0.046102785 -0.03257817 0.11289265 0.03269742
0003d0 10 87 87 3d f4 f6 e2 3d c9 bf 4f 3b 46 f4 b5 3b
       0.06617558 0.11082259 0.0031700006 0.0055528013
0003e0 02 d7 2e 3d e0 c7 00 be e8 1f 9d bc 35 96 40 bd
       0.042685516 -0.12576246 -0.019180253 -0.04701825
0003f0 3a 3a 93 bd d0 b1 8e bd 45 f3 9c 3c cd bb 71 bd
       -0.0718884 -0.06967509 0.019158969 -0.05901699

model.0.bias f4 [256]
000000 70 30 97 3d 86 37 8c 3d 8e 1d 2c 3e cd db 0f bd
       0.073822856 0.06846528 0.16808149 -0.035121728
000010 4c 9d 69 bd 8b 7c 3e 3c bc 4e 26 3e ec 1e d5 bd
       -0.057034776 0.011626373 0.16240972 -0.104062885
000020 da 42 71 3c bc ac 8e bc e8 37 20 3e d5 fe 13 3d
       0.014725411 -0.01741635 0.15646327 0.0361317
000030 18 c8 0a bd 49 b8 ad 3d 56 19 61 3d d7 68 45 bd
       -0.03388223 0.08482415 0.054955803 -0.048195686
000040 a8 2e 85 3d f3 f4 02 be 6e 58 1f 3e 5a a1 4e 3b
       0.065030396 -0.12788753 0.15561077 0.0031529278
000050 40 90 2b 3e 04 39 03 3d bd 89 2b 3d a3 a7 5d bd
       0.16754246 0.032036796 0.041879404 -0.05411495
000060 b6 a9 00 be 9b cb fd bd f2 b1 88 3d 83 e0 d2 bd
       -0.1256474 -0.1239235 0.066745654 -0.102967285
000070 a0 cb 1c 3e 80 68 ef bd c1 03 af 3d c8 96 59 3d
       0.15312052 -0.11689854 0.08545638 0.05312231
000080 0a c2 b0 3d 97 ef a8 bd 5a 89 4a bd 60 a3 a9 3d
       0.0863076 -0.08248823 -0.049447395 0.082831144
000090 fe f8 4f 3d 07 1b 9f 3d a2 73 20 bc 83 c5 cd 3d
       0.050774567 0.07768827 -0.009793194 0.10047438
0000a0 3e 1b 03 3e 66 9f bf 3d 0c 67 46 3d 7f 36 70 bd
       0.12803361 0.09356575 0.048438117 -0.05864572
0000b0 e5 9d 34 3e 8d e1 0f bd b6 f7 85 bb 43 20 5d 3c
       0.17638357 -0.03512721 -0.0040883673 0.013496461
0000c0 86 9b f8 bc b6 1e 26 3d ba e1 7f 3d ff 58 05 be
       -0.030347597 0.040556632 0.06247113 -0.1302223
0000d0 91 f9 02 3e 5a b3 35 3e c0 9f 31 3e 06 b0 d8 bc
       0.12790515 0.17744198 0.17346096 -0.026451122
0000e0 19 e1 8d 3d 94 6b f3 3d fc 8a 93 3d 76 53 08 3e
       0.069276996 0.11885753 0.072042435 0.13313088
0000f0 e0 95 8e bb 2e cb 17 3e 18 dd ef 3c a6 3e 30 bd
       -0.0043513626 0.148236 0.02928023 -0.043028496
000100 61 d6 cb 3c 86 68 f6 3d 80 bb 01 be a4 6c d3 3d
       0.024882497 0.12031655 -0.12669182 0.10323456
000110 46 c8 29 3e 56 b2 3a 3d 27 f2 d3 bd a8 3a 66 3d
       0.16580305 0.04558023 -0.10348921 0.056208283
000120 35 1c ba bd 76 04 3d bd 57 7a 2d 3e e7 fb b4 3d
       -0.09087411 -0.046146832 0.169412 0.08837109
000130 5a 38 07 3e 1e 48 f4 3c 4f 53 c7 3d d5 53 8b bd
       0.1320509 0.029819544 0.09732687 -0.06803099
000140 0f 46 4e 3d 6a 10 17 3e 17 ee 33 3e 32 2b 57 bd
       0.05035978 0.14752355 0.17571293 -0.05253143
000150 36 61 37 bd 9a 54 98 3c 8d 1d 01 bd 87 35 a9 bd
       -0.044770442 0.018595029 -0.031522322 -0.08262163
000160 8b 04 1f 3e 61 a0 cb 3d 9e c3 d4 bd c0 36 9b bd
       0.15529077 0.09942699 -0.103888735 -0.07578802
000170 51 1d 17 3c bb a2 31 3e d9 ce f3 bd ca 02 0b 3c
       0.009223298 0.17347233 -0.119046874 0.008484552
000180 7a 28 c5 3d f4 b0 bf bd 1a 17 71 3d b7 cd e1 3c
       0.09626861 -0.09359923 0.058859922 0.027563913
000190 f3 81 30 3e 9a 50 16 3e ce a8 6e 3c b5 3a 9e bd
       0.17237072 0.14679185 0.014566613 -0.07726041
0001a0 11 cf 25 3e 49 64 e1 3d 6e 2d 2f bd 94 7d c9 bd
       0.16192271 0.11005456 -0.042767935 -0.09838405
0001b0 5c b0 00 3d 22 49 e3 3c 03 b9 b4 3b 31 c4 34 3d
       0.03141819 0.027744833 0.005515219 0.044132415
0001c0 4d 61 2c 3e 40 38 31 bb 20 18 56 3c c9 16 ac bd
       0.16833992 -0.0027041584 0.013067275 -0.084027834
0001d0 2f f7 16 be 2c 6a 1f 3e 83 7a 39 3e a5 08 27 3e
       -0.1474273 0.15567845 0.18113141 0.16311891
0001e0 aa 80 89 3d 13 a8 01 be 0c c7 db 3d b0 fa 7b 3c
       0.06713994 -0.12661771 0.107313246 0.015379593
0001f0 06 a7 0d bd fb 33 93 bc c0 a4 51 bb 21 38 01 be
       -0.034583114 -0.017969122 -0.0031989068 -0.12619068
000200 3d 6d 30 3e 63 ec 4d bb 88 d7 07 3e c0 b6 9d bc
       0.17229171 -0.0031421415 0.13265812 -0.019252181
000210 c6 8d 20 3e 1a a8 cf bd 40 69 16 3a 4b 33 13 3d
       0.15679082 -0.10139485 0.00057377294 0.03593759
000220 35 a3 3d 3d 27 54 77 3d 88 96 be bc 0b 8d 1f 3e
       0.046298224 0.06038299 -0.023265138 0.15581147
000230 03 e7 32 3e e0 a7 21 be a6 e7 c9 3d 47 cc 15 be
       0.17470936 -0.15786695 0.098586366 -0.14628707
000240 42 51 60 bd 18 af 2e bd 8f 48 ee 3d e9 1a 19 3e
       -0.054764993 -0.04264745 0.11634933 0.14951672
000250 5b 68 c3 bd 21 99 03 3e 60 8f 1d be 3a ce 8b bd
       -0.095413886 0.12851383 -0.15386724 -0.06826444
000260 8a fa 15 bd bc b2 24 3e a1 6e 26 3e 79 ba 57 bc
       -0.036615886 0.16083807 0.16253139 -0.013167017
000270 8a 35 97 bd e7 cc 2e 3e 41 00 48 bb 0e ee 2a 3e
       -0.07383259 0.17070352 -0.003051773 0.16692373
000280 c2 c8 34 3e d1 08 ea 3d 80 bf 07 3c 74 cb 38 3e
       0.17654708 0.11427463 0.008285403 0.18046361
000290 16 69 00 3e f1 8c 10 3e 6e 43 df 3b 66 f5 84 3d
       0.12540087 0.14116265 0.006813458 0.064921185
0002a0 c8 71 d4 3d 8c 02 d3 bd 54 2f 40 3d 22 8e f9 bd
       0.103732646 -0.1030322 0.046920136 -0.12185313
0002b0 0f 2d 0b 3e 55 55 a0 3c 7d 86 af 3d e8 88 ed 3d
       0.13591407 0.01957194 0.085705735 0.115983784
0002c0 de 01 bd 3c aa f5 9b bd 36 bd f8 3d 0a 20 19 3e
       0.02307218 -0.07615216 0.12145464 0.14953628
0002d0 ca 9c 68 3c a7 c3 16 bc 40 10 e1 3d 00 f7 52 bd
       0.014197538 -0.009201921 0.109894276 -0.05150509
0002e0 04 8b 04 3c bb 75 f3 3d e3 34 f9 3d 9e 3b cf 3d
       0.0080897845 0.1188769 0.121682905 0.10118793
0002f0 91 a2 79 bb ea 5e ea bd 2c 07 f0 3d 14 ff d1 3d
       -0.0038091282 -0.11443885 0.11720118 0.102537304
000300 3e 08 ed bd 13 80 de bd 11 e7 29 3e 90 8b ff bc
       -0.11573838 -0.10864272 0.16592051 -0.031194478
000310 58 4d 16 bd d2 5e 64 3d 38 96 ba 3c dd 68 d7 bd
       -0.036694854 0.05575449 0.022776708 -0.10518048
000320 77 c0 b7 bd d2 cd 5a bb a3 34 04 be 90 b3 20 bc
       -0.08972257 -0.0033386839 -0.12910704 -0.009808436
000330 2b b0 db 3d 09 74 03 be 74 8b 9b 3d e1 3f 85 3d
       0.10726961 -0.12837233 0.07594958 0.065063246
000340 7c c8 16 3e d8 3f 36 3c c8 a9 3a bc 3a ad 43 bd
       0.14724916 0.01112362 -0.011393018 -0.047772624
000350 07 a9 b3 bd 47 0f 22 3e e0 fd 70 bc 6d 97 11 bd
       -0.08772474 0.1582614 -0.014708966 -0.0355448
000360 fe 43 b2 bd 39 9b 73 bd 0a 41 51 bc 1a ad e3 bd
       -0.08704375 -0.059474204 -0.012771854 -0.11117001
000370 cc 7a 97 3d c6 f4 15 3e 62 27 8d bd 60 d0 1e be
       0.073964685 0.14644155 -0.06892277 -0.15509176
000380 90 64 f5 3c 2b 63 1a 3d 60 5d ba bb c7 f8 f1 3c
       0.029955178 0.03769223 -0.0056874007 0.029537572
000390 52 86 1d be ac 13 18 3d 82 ad 2c 3d 75 ca 16 be
       -0.1538327 0.037128136 0.042157657 -0.14725669
0003a0 e6 6a 21 be c3 5a ff 3d 10 ae 83 3d 20 59 c2 3b
       -0.15763435 0.12468483 0.06429684 0.0059310347
0003b0 44 9c 75 3c 2d 55 06 bc 19 c5 24 3e b4 7d ac b9
       0.01499087 -0.008199018 0.16090812 -0.00032900053
0003c0 f6 14 08 3e aa b9 a7 bd 15 48 fb 3d d6 e9 15 be
       0.13289246 -0.081897095 0.12269608 -0.14639983
0003d0 96 d9 de 3d 3c d6 35 3d 0f ac 99 3d 7f 5f 14 be
       0.10881345 0.044393763 0.07503521 -0.14489554
0003e0 8d 79 3d bd 9b 32 20 bc ba a7 1f 3e 1c 13 a5 3c
       -0.046258498 -0.00977769 0.15591326 0.020150714
0003f0 3c 9c d9 bd 32 2d 87 bd 70 b7 1b be 6c 95 9b 3d
       -0.106255025 -0.06600417 -0.15206695 0.07596859
