models/mappo_best_stage_1.pt (torch, 853690 bytes, 14 tensors)

log_std f4 [2]
00000000: e3b1 e9bd 101b 3c3d
-0.11410882 0.045924246

body.0.weight f4 [256, 13]
00000000: 3912 803e 89f7 36be dbbd e83d d53e 693e
00000010: 5c3d 83be 8e07 413e e91e 143d 810b 8fbe
00000020: a1f2 82be afb4 26bd 435a 59be 8ca6 e9bd
00000030: 0859 d33d f177 8d3e 02c3 86be c0bb 2e3d
00000040: 018a 66be 3e6c 733e f474 e7bd 1c36 96bd
00000050: 888a 5c3d e006 4cbc 486c 3e3d 8c68 80be
00000060: 4052 ac3c e693 77be b443 f33b 2d7f 0dbe
00000070: 66f3 5b3d 455b 1fbd 98d7 693e 7709 a43d
00000080: ec74 6dbe 7668 853e b2cc 69be e0cf 043e
00000090: 4b59 623e 83f4 c5bd 97a7 153e 569e 10be
000000a0: 6790 1bbe 15a3 79bd f142 ce3d fb31 a3be
000000b0: de15 d8bc 28ca 003e b378 78bd 21c6 37be
000000c0: 295d 91bd 683b 1abd e7cd 8bbe 74ca f93d
000000d0: fedc a6bd 4368 d03c 2dd6 98bd 9f66 d7bd
000000e0: 7cda 3a3e 5d81 f03c 8bbd 13be 4ee9 3d3e
000000f0: 3ad6 a23d f712 2d3e 1a76 a0bd 27f0 c23d
00000100: 8978 333e 5515 36be bfa7 3e3d 26ba 9d3e
00000110: d1e9 0a3d 4f49 053e 0347 263e 74d4 f73d
00000120: a627 533e 58f9 563d 75d2 c7bd 5ab6 bd3e
00000130: 3e75 3d3e 1094 c03d 6bad ba3d 6411 0a3e
00000140: 7132 5b3d 2979 b23c f18d b9bc 7246 8bbe
00000150: 1a94 2a3e 57a7 07be d55d ecbd f3a2 883e
00000160: 8158 3fbd f37c fcbd 87bc 393e c06d 33be
00000170: 36e4 6a3e d2eb d8bd a231 1d3e ca12 8ebd
00000180: 8829 63be e0e0 313d 5088 1c3d 16d1 043e
00000190: d002 6fbe 840f 05be 2f31 0dbe 5020 bc3d
000001a0: c13e 8dbe f682 7f3e 00d3 d8bc 36ef 22be
000001b0: 1435 983d 4806 33be d62a 703e 00ee 3dbc
000001c0: 20e9 35bc 7cdd 63bd 9282 08be 2cad f8bd
000001d0: d840 44be c752 473e bb12 cbbd 7af9 553e
000001e0: bc20 f4bd f753 7ebc 9f68 04be 8917 80be
000001f0: ff17 75bd 047f 14ba 2c72 063e cc72 9dbe
00000200: 0b66 793e a6bd 833d b0bb 9e3c 4b55 83be
00000210: a0be c6bd 2027 483d 905d 40be 081f 673d
00000220: a8bd 523e b847 143d 28db 3c3e 8051 333d
00000230: e6b5 3fbe 90dc 93bc 2e43 36be a887 f13d
00000240: 6013 41bc 9ee4 0b3e 4158 82be 4c42 223e
00000250: 5231 88bd 1c53 c13d 8925 7cbe 88d4 1cbe
00000260: b0b8 c43c 7876 82be 0043 e6bd 668a 6b3e
00000270: 8bdb 483e 53bd 0a3e 5427 5cbd f03e 20be
00000280: fd67 0abe 5a76 abbd 0b5b fd3d 45f0 d63d
00000290: 7314 d5be df76 303d 8ec1 dcbe bbff d83c
000002a0: bcd7 0fbe 1aca fbbd cb8b e5bd ceb2 093e
000002b0: f0cb 393e bc55 203c 6e59 b0bd f708 6fbd
000002c0: df08 9f3e 81cf 9cbd b320 693d 4da0 243d
000002d0: 6b97 ff3b 2487 b5bd ad0c 8abe 62ac 74be
000002e0: acad 7fbe 1e13 283e d5cf 873e c05d 2c3e
000002f0: 8cb8 82be 5e52 293e 929f 81bd 0448 98bd
00000300: 76a2 413e 3252 a9bd b0be e8bd fa75 333e
00000310: 72c8 973d 1fe4 ac3c 9d4e 91bc eced 46be
00000320: 8810 25be 2f58 97be 5a8b 29be 1157 183e
00000330: 1d7c 8a3d 39c8 dabd daf1 0a3e c8cc 90be
00000340: 74fc 68be 7322 42bd 470d f2bd 88e3 5c3e
00000350: 4841 01be 38f1 473c 5f0f 123e 1dac 90be
00000360: df7a 80bd 0f44 92be c481 36bd e738 823d
00000370: 89f4 4f3e db66 8a3e a02c babc 98a7 59bd
00000380: 987e 58bd 5462 d4bd a800 4d3e e843 c73d
00000390: 30a4 123e 9ced 8c3d b0c2 d53d 20e8 0abd
000003a0: 6ed4 1cbe 7c0a 91bd 1225 b43d 3912 13be
000003b0: c586 2b3e 1e3b 063e 0238 c3bd 7fee 1dbe
000003c0: 32ac 553c 92a3 8c3e 9a5f 52be 311e 983e
000003d0: b5ba 4c3e d3b8 fd3d 870c 5fbd e801 cebc
000003e0: 3d70 30be 9fc1 893d 69e5 0e3e 459c 99bd
000003f0: e863 82bd e852 b7bd fc9a dabd ad70 bebd
0.25013903 -0.17867865 0.11364337 0.22777875 -0.2563275 0.18850538 0.03616229 -0.27938464
-0.25575736 -0.040699657 -0.21225838 -0.114087194 0.10319716 0.2763057 -0.26320654 0.04265952
-0.22513582 0.2377176 -0.11301604 -0.07334539 0.05384305 -0.012452811 0.046489984 -0.25079763
0.021035314 -0.24177513 0.0074238423 -0.13818045 0.05369892 -0.0389054 0.22836149 0.08009618
-0.23189133 0.2605626 -0.22831991 0.12969923 0.22104375 -0.096657775 0.14614712 -0.141229
-0.15191804 -0.060946543 0.10071362 -0.3187407 -0.026377615 0.12577116 -0.060661983 -0.17946674
-0.07097847 -0.03765431 -0.2730553 0.12196818 -0.0814762 0.02544034 -0.07462726 -0.1051762
0.18247408 0.02935856 -0.14427774 0.1854603 0.07951017 0.16901766 -0.07835026 0.09518462
0.1752645 -0.17781575 0.046546694 0.30806082 0.03391439 0.13016246 0.16238026 0.12101069
0.20620593 0.052483886 -0.09756938 0.37053186 0.18501756 0.09403241 0.09115108 0.13483196
0.0535149 0.02178629 -0.02265069 -0.27202183 0.16658059 -0.13247429 -0.115413345 0.2668682
-0.046715263 -0.1232852 0.18138324 -0.17522335 0.22938618 -0.10591854 0.15350965 -0.069371775
-0.22183812 0.043427348 0.038215935 0.12970385 -0.23340917 -0.129942 -0.13788293 0.091858506
-0.2758694 0.24952301 -0.0264678 -0.15911564 0.07431999 -0.17482865 0.2345384 -0.011592388
-0.011102945 -0.055631146 -0.13331059 -0.12142405 -0.19165361 0.19465171 -0.09915682 0.20895949
-0.11920306 -0.0155229485 -0.12930535 -0.25017956 -0.059837338 -0.0005664679 0.1312949 -0.30751646
0.24355333 0.06432657 0.019376606 -0.2565101 -0.097043276 0.048865438 -0.18785691 0.056426078
0.2058016 0.03620121 0.18442976 0.043778896 -0.18721732 -0.018049508 -0.17799065 0.117934525
-0.0117844045 0.1366143 -0.25457957 0.15845603 -0.06650032 0.0943968 -0.24623694 -0.15315449
0.024013847 -0.2548101 -0.11243248 0.23002014 0.19614999 0.13548784 -0.053748444 -0.15649009
-0.13516231 -0.08372183 0.12370881 0.104950465 -0.41617164 0.043082114 -0.4311642 0.02648913
-0.1404714 -0.12294407 -0.11208304 0.13447115 0.18144202 0.009786066 -0.08610807 -0.05835816
0.31061456 -0.07656766 0.05691595 0.040191937 0.007800033 -0.08863667 -0.26962796 -0.23893884
-0.24968594 0.16413543 0.2652575 0.16832638 -0.25531423 0.16535327 -0.06329264 -0.07435611
0.1890963 -0.08267631 -0.11364496 0.17525473 0.07411279 0.02110487 -0.017737681 -0.19426697
-0.16119587 -0.29559466 -0.16557065 0.14876963 0.06761954 -0.10682721 0.13568822 -0.28281236
-0.22752553 -0.047396135 -0.11818939 0.21571171 -0.12622559 0.012203507 0.14263676 -0.28256312
-0.06273436 -0.2856755 -0.044557348 0.063585095 0.20308127 0.27031597 -0.022726357 -0.053138345
-0.052855104 -0.10370317 0.20019782 0.09729749 0.14320445 0.06881258 0.10437524 -0.033912778
-0.1531541 -0.07082078 0.08796133 -0.1436242 0.16750629 0.13108489 -0.09532167 -0.1542301
0.013041543 0.27468544 -0.20544282 0.29710534 0.19993098 0.12388768 -0.054455306 -0.025147393
-0.17230316 0.067263834 0.139547 -0.07500509 -0.06366712 -0.0895136 -0.10674092 -0.09298835

body.0.bias f4 [256]
00000000: 19ea 273e 18ab 59be bb36 fe3d 176e 573e
00000010: 487d 763e 12a6 cfbd a792 93bc 4ffa 65be
00000020: 05d6 21be bf3c 453e 80ee d03b 3512 84be
00000030: eec1 273e ba21 ef3d ec40 35be bb9b 413e
00000040: 0fc2 c93d 00a8 0cb9 b521 f83d aa8b e03c
00000050: 1c89 f0bd 5e7a c23d 42ec ddbc 5f6c 0b3e
00000060: 71fc ea3d a961 563e 10a0 573d 4656 d5bd
00000070: 7d5b d63c a9ab 9bbd 2a6e 6e3e bc6c d3bd
00000080: d00d 3ebe 8036 87bb 3109 c13b d1af 2bbd
00000090: e90e e53c ed47 8b3e 8b47 56bc ceac 553e
000000a0: cb7b 763d d726 823e 5c6e 7a3e 0874 2ebe
000000b0: f7e1 163e bd01 dc3d 8ac4 9e3d 8d47 81be
000000c0: a73f 153e 9504 043e 9d39 b83b 60ef 1fbe
000000d0: 1939 253d 65df 8a3e 99d5 1abe 2bb1 f4bd
000000e0: 97ae 8cbd 5270 143d b8b1 7dbd 8bb2 59be
000000f0: 9d1e 583e c269 2abe 0209 97bd 8ade 29be
00000100: c6cc d3bd 0c17 d6bd ce11 cc3d 6250 68be
00000110: 899a 10bd f998 bbbc 57c7 7b3c d2e5 3cbe
00000120: bd4b 703e fcee cabd c27b 31bc 5292 533e
00000130: dc90 34be 47c6 303e fdd6 093d 7578 fb3c
00000140: 2030 21bc 0daf 2b3e 229a 2b3d 5a7e 72be
00000150: 4cf1 77be d81f 53be 7a1d 803c c07e 17be
00000160: 30aa f0bd 38f7 f7bc a823 573d 04c9 953d
00000170: 928b 18be 9182 13be 300e 17be 3fac 75be
00000180: 80e2 a83d 836b 84be 0083 12be 77fd 65be
00000190: 99c4 653e b0d0 3d3e 8bb4 193d 9a9f 8bbd
000001a0: ad78 063e 608a 5abe 31bd 2b3e 097a 633e
000001b0: b872 14be 888c 553e 0931 e83d d2be 0f3e
000001c0: 262d 2a3e 38a3 1cbe 0495 a73d 8542 17be
000001d0: 5b70 25be 57e8 80be 306a adbc 49b5 b7bd
000001e0: bcc9 2abe de2b 0b3a c539 e8bb fcfc ebbd
000001f0: d514 80bb 7097 38be 0072 a1bb 964a 3d3e
00000200: c800 5b3e 75df 693e 6b4b 023e eb08 98bc
00000210: 83ff 16bd ebcd 7bbe eeaa 643e a598 ff3d
00000220: 7309 53be fe7b 0c3e 28e6 673d 43e9 00be
00000230: 1eaa ec3d fea3 bc3c beae 443e c3bf 8c3c
00000240: ba1a bbbd 713d 323e 78dd 72bd 90c6 16be
00000250: d1eb 993c 1a92 973d fc6c 903d b030 ce3c
00000260: 74a6 bcbb 7b16 09be e69a 1b3c f712 8e3d
00000270: afc4 99bd e919 6fbe a0df 2abc ff5f 013e
00000280: 2095 02bd 5411 ab3d e8a7 96bd f4f1 cc3d
00000290: 7ca9 163e 38b1 7bbe 1bc3 f5bc 622e 7c3e
000002a0: 1048 3b3e dd1a 503d d7e1 413e 9b65 3a3e
000002b0: bc5b 203e 4f64 dd3d 9114 1dbe bc3a 313e
000002c0: 13b5 b7bd 2e1b 01be 5000 6c3d 3d26 85bd
000002d0: 0058 71be d062 8b3d 5fb3 5c3e ab03 3c3e
000002e0: 157b 07be 8603 433e 00bf 1a3c 66a7 4c3e
000002f0: 6aa2 71be dd21 5f3e b130 6a3e be96 efbc
00000300: 4c03 48bd 45eb 39be 8250 98bd 52a4 54be
00000310: 6cb9 3ebe de6b 20be 0d1b 6f3e d666 683e
00000320: 6863 023e 4a0c 3fbe f35e 8b3d 28d0 13be
00000330: 5bd7 8bbe c405 b0bd e0a6 e53d 24dc 5bbd
00000340: 7477 563e 6509 87be 4386 7a3e 5f49 f53d
00000350: 52e5 63be d075 7b3e 552b 49bc f355 09be
00000360: ca39 57be b8d9 723d b6a4 6d3e 4ada 3cbe
00000370: 3588 babd 46de 9fbc d19b 62be 4f3d 723e
00000380: 2003 fdbd d285 cfbd 5096 943d 9761 843d
00000390: a96e 443b 298d 16be f433 f93a 8042 273e
000003a0: 0145 b9bd 23d3 72be 3007 083e da2e 4dbe
000003b0: 0858 36bd 9fb4 0f3e 879d 0abe a623 dd3d
000003c0: 1af0 04be 1bd8 0abe 0b33 2dbe ea35 d1bd
000003d0: df5a 023e 7994 63be bedc cebd 469b acbd
000003e0: b857 57be 0bfc 82be 5087 7fbd fdf1 7abd
000003f0: aef2 b2bd d80d 2ebe a4f0 ee3d e292 36be
0.16397895 -0.21256673 0.12412783 0.2103809 0.24071229 -0.10139097 -0.018014265 -0.22458766
-0.15804298 0.19261454 0.0063760877 -0.2579514 0.16382572 0.11676355 -0.17700547 0.18907063
0.09851467 -0.00013414025 0.12115804 0.027410347 -0.117449015 0.09495996 -0.027090196 0.13615559
0.114739306 0.20935692 0.052642882 -0.10416846 0.026166672 -0.07601101 0.23284212 -0.10323474
-0.18559957 -0.00412637 0.0058909883 -0.04191572 0.027961211 0.27203313 -0.013078581 0.20866701
0.060176652 0.25420257 0.24456161 -0.1703645 0.14734636 0.10742519 0.077523306 -0.252499
0.14575063 0.12892373 0.0056221024 -0.15618658 0.040337656 0.27123562 -0.15120544 -0.119478546
-0.06869238 0.03623993 -0.061937064 -0.21259515 0.21105428 -0.16641906 -0.07374765 -0.16588798
-0.10341792 -0.104536146 0.099643335 -0.22686914 -0.035303626 -0.022900091 0.015367351 -0.18447044
0.23466392 -0.09908864 -0.010832729 0.20661286 -0.17633384 0.17263137 0.033652294 0.030697087
-0.009838134 0.16765995 0.04189504 -0.23681012 -0.24213141 -0.20617616 0.015639056 -0.14794445
-0.11751211 -0.03026925 0.05252424 0.07313731 -0.14896992 -0.14405276 -0.14751506 -0.23991488
0.082463264 -0.25863275 -0.14307785 -0.2245997 0.22438277 0.18536639 0.037525695 -0.06817551
0.13131972 -0.21341848 0.1677139 0.22214521 -0.14496887 0.2085439 0.11337478 0.14037636
0.16618785 -0.15296638 0.08182719 -0.14771469 -0.16156141 -0.2517726 -0.021168798 -0.08970124
-0.16678518 0.0005308966 -0.007086965 -0.11522862 -0.0039087334 -0.18026519 -0.00492692 0.18485484
0.21387017 0.22839148 0.12724082 -0.01855894 -0.03686477 -0.2459027 0.2233083 0.124802865
-0.20609073 0.13719174 0.05661598 -0.12588982 0.11555885 0.023027416 0.19207284 0.017181283
-0.09135957 0.1740625 -0.05929324 -0.14724183 0.018789204 0.074009135 0.07052037 0.0251697
-0.0057571474 -0.13387482 0.00949738 0.06937211 -0.075082175 -0.23349728 -0.010429293 0.12634276
-0.031880498 0.083529145 -0.07356244 0.100070864 0.1471309 -0.24579322 -0.03000026 0.24627069
0.18289208 0.05080687 0.18933807 0.18202822 0.15659994 0.10810148 -0.15339877 0.17307562
-0.08970084 -0.12608024 0.057617486 -0.06501434 -0.23568726 0.06805956 0.215528 0.18360774
-0.13230546 0.19044313 0.009444952 0.19985732 -0.23597112 0.21790262 0.22870137 -0.029246684
-0.04883127 -0.18156154 -0.07437231 -0.20765808 -0.1862542 -0.15666148 0.23350163 0.22695479
0.12733233 -0.18657032 0.068052195 -0.14434874 -0.2731274 -0.0859485 0.112134695 -0.05367674
0.20944005 -0.26374355 0.2446528 0.11976885 -0.22255448 0.2455666 -0.012278398 -0.13411693
-0.21018139 0.059289664 0.23207363 -0.18442646 -0.09108011 -0.019515168 -0.22129752 0.236562
-0.12354112 -0.10132946 0.07255232 0.06463926 0.0029973185 -0.14702286 0.0019012676 0.16333961
-0.090463646 -0.23713355 0.13283992 -0.20037404 -0.044517547 0.14033745 -0.13536654 0.10797815
-0.12982216 -0.13559 -0.16914003 -0.102153614 0.12729977 -0.22224607 -0.10100697 -0.084280536
-0.21029556 -0.2558292 -0.062384903 -0.061265934 -0.08737694 -0.16997468 0.11666992 -0.17829469

body.2.weight f4 [256, 256]
00000000: d319 b23c 102a 0c3c 3997 7abd 5955 4ebd
00000010: 9a73 af3b de03 43bd 184e 12bd 4c67 54bd
00000020: 8425 da3c 000c ddbc 5040 f8bb b054 e2bc
00000030: 529b f3bc 9a14 363d f62b 633d 5dbe 28bd
00000040: 188a 8bbd c000 933c 026c adbc 1ede 703d
00000050: 945d 19bd 7e22 85bd 52e0 21bc f6bb 88bc
00000060: 4035 06bc 1b2e 36bd 0415 113d cdbc a83c
00000070: 7062 46bd 893a 4f3d d40e 57bd 16f6 38bd
00000080: 52e0 55bd aaa5 76bd f0ec e63c 5115 563b
00000090: 2415 20bd 945c b43c a001 63bd ca7d 083d
000000a0: 4440 143d da92 f4bc 27d7 043d b012 0c3d
000000b0: cb8c fb3c 5d60 39bd 120f 233c 0c13 b8bc
000000c0: 468f e43c 8a32 9c3b e042 163d 36dd 0a3d
000000d0: 7339 1dbd f08c 7bbc 20fe 3d3c 90a2 cf3b
000000e0: b83a 4bbc c72b 983b 3c21 313d 662c 293d
000000f0: b89c 81bd 90a4 803c c897 383c 08ff 13bd
00000100: 3cf3 e23c 82b9 2cbd 7256 2bbd 8ca6 d23c
00000110: a61c fc3c 6ad0 af3c 264a 86bd f2d6 59bd
00000120: 6919 a93b ded6 4d3d 6f91 3c3d f461 4ab8
00000130: ea9c 4f3d 3306 0ebd e23f b9bc c030 393c
00000140: 965b 723d 54b1 573d c0fb 5fbb 60df eabb
00000150: 3e72 313d 0c31 54bd e6e9 8abc 70fc dd3b
00000160: 3cb3 6c3d bb8d 6eba 8688 6dbd c034 5abd
00000170: a692 19bd d4bc 6ebd 66d3 7abd a88b 583d
00000180: 3c35 6b3d 2af6 0e3d a400 383d f4b9 fabc
00000190: 81ee 12bd 06d0 123d af9f 043d 786b 1e3d
000001a0: 3911 02bd 5cc5 48bd 4394 f3ba 93b8 70bc
000001b0: a639 3abd 2b9f 8c3c eda2 1e3d 638d 8c3c
000001c0: eecb 4b3d 50d1 073c e622 5e3d 909b 703c
000001d0: e8ae a93c ccef 0fbd fcd1 d3bc 80a8 b03c
000001e0: e647 393d 3463 22bd 3ad2 63bd 3086 f13b
000001f0: 10c2 5a3c 985a 33bc 5ab9 743d 7638 7cbd
00000200: c78f e9b9 e52f 8bbd 9625 a83c 1bc8 3cbd
00000210: ee26 5d3d 1409 013d 0fd4 8cbc f5d5 493d
00000220: b4e6 4ebd 4b3e 3bbc 7bf0 44bd d0be 5dbd
00000230: 0416 173d 0c7c 50bd ec3f e7bc 1056 2dbc
00000240: c0fe 753c 801a 74bd 2476 52bd ce50 373d
00000250: b262 0f3d d5ae 85bd 90dd e7bc 78b3 6dbd
00000260: b892 e63b 41a8 383d 8170 edba 8610 453d
00000270: 1ee3 353d fad6 6cbd 04d8 b1bc 3dc8 323d
00000280: e15c 49bc 1200 1fbd 601c 9f3b 2982 063d
00000290: f443 00bd 8491 bc3c 0ff4 c73c 64ad 2bbd
000002a0: 20d3 c8bc 5b72 b23c 9ac0 3c3b 548e 7bbd
000002b0: e6ce 03bd 2e02 593d 6cf8 513d a92a 17bd
000002c0: 118d 293d fc5e 0abd 6014 f63c bacf 55bd
000002d0: b0a6 ccbc e5ba e63b 337c 1cbc 4065 9dba
000002e0: de85 0bbd 5564 89bc d8c0 1bbc 9a62 65bd
000002f0: 6e9e 403d c489 4f3d abf8 7bbd e8f6 863b
00000300: 08c8 55bc 1ce8 44bd b0e1 15bd e0fe 1bbd
00000310: 789a 16bc 7200 8f3c 59f6 edbc 2745 953c
00000320: 693c 76bd 8c15 f83c ce29 8f3c a84d 04bd
00000330: 4802 7ebd a669 633d 8061 823a c046 db3c
00000340: a4f6 403d c0a6 263c f62e 0e3b b4e7 96bc
00000350: fa01 3dbd b21d d2bc 3cfc e7bc e60f 923c
00000360: 784b e63c 94ef 50bd 6253 05bd ceeb 773d
00000370: ec40 503d fe64 65bd d68c df3c 0894 54bd
00000380: 7eee 07bd 6b49 2bbb 4406 093d 50d4 b6bb
00000390: b87e 60bc a4cf 973c b0ce eebc e55a 0e3d
000003a0: c74b 613d d4af 4dbd 8762 00bd 6065 383d
000003b0: 707b 5dbc d842 edbc 5a27 863c 602c 033b
000003c0: 7594 df3b 0ac6 babc d47a 993c 2080 703b
000003d0: 4210 b63c 10fa 11bd 7830 0dbc c1a0 893c
000003e0: 80c8 baba a9e5 c5bc faf2 043d a770 02bd
000003f0: c08c 06bc 3064 14bd 1081 ebbb c8b8 febc
0.02174083 0.00855495 -0.061179373 -0.050374363 0.005354357 -0.04761111 -0.035719007 -0.051856324
0.026629217 -0.026983261 -0.007576026 -0.027628273 -0.029737148 0.04445324 0.055461846 -0.04119717
-0.06813449 0.017944694 -0.021169666 0.058805577 -0.03744276 -0.065007195 -0.009880142 -0.01669119
-0.008191407 -0.044477563 0.035420433 0.02059784 -0.04843372 0.050592933 -0.052504376 -0.04515656
-0.05221588 -0.060216583 0.028189152 0.0032666514 -0.03908266 0.022016801 -0.05542147 0.033323087
0.0361941 -0.02985518 0.032431748 0.03419751 0.030706784 -0.045257915 0.0099523235 -0.02247002
0.02790035 0.004766767 0.03668487 0.03390237 -0.038384866 -0.015353426 0.011596233 0.0063365176
-0.012404136 0.0046438905 0.043244585 0.041302107 -0.0632872 0.01570347 0.011266656 -0.03613189
0.027703874 -0.0421691 -0.041830488 0.025714181 0.03077538 0.021461684 -0.065571114 -0.053183503
0.0051605 0.05025374 0.046037134 -4.825178e-05 0.050686754 -0.03467388 -0.02261347 0.011303127
0.059169374 0.052659348 -0.0034177154 -0.0071677417 0.04332184 -0.051804587 -0.016957235 0.0067744777
0.05778812 -0.0009100099 -0.057991527 -0.053272963 -0.03749337 -0.05828555 -0.06123676 0.05286756
0.057423815 0.03490273 0.044922486 -0.030606247 -0.035871986 0.035842918 0.03237885 0.03867671
-0.031754706 -0.04901634 -0.0018583614 -0.014692443 -0.045465134 0.017165741 0.038729597 0.017157262
0.04975503 0.00828965 0.0542325 0.0146855265 0.020713285 -0.035140797 -0.025856964 0.021564722
0.045234583 -0.03964539 -0.05562041 0.0073707327 0.013351932 -0.010946892 0.059747078 -0.061577283
-0.00044548346 -0.067962445 0.020525735 -0.046089273 0.053992204 0.0315028 -0.017190961 0.04927631
-0.050512984 -0.011428426 -0.048080903 -0.05413705 0.03688623 -0.05089955 -0.028228723 -0.010579601
0.01501435 -0.059595585 -0.0513822 0.044754796 0.035006233 -0.06527487 -0.028303891 -0.058032483
0.007036533 0.045082334 -0.0018115194 0.04811146 0.04440605 -0.057822205 -0.02170945 0.043647993
-0.01229021 -0.038818426 0.0048556775 0.032838974 -0.031314805 0.023018606 0.024408368 -0.041913405
-0.024514735 0.021783045 0.0028801323 -0.06141503 -0.032179736 0.052980594 0.051262304 -0.03690592
0.041394297 -0.03378199 0.030039012 -0.052200057 -0.024981827 0.0070413225 -0.009551096 -0.0012008324
-0.034063213 -0.016771475 -0.009506427 -0.056002237 0.04702609 0.050668493 -0.061516445 0.004118789
-0.013048179 -0.04807292 -0.036592185 -0.038084865 -0.009192102 0.017456267 -0.029048132 0.018221451
-0.060116205 0.030283712 0.017475989 -0.03230062 -0.062013894 0.055520676 0.000994727 0.026767135
0.047110215 0.010171592 0.0021695471 -0.018421032 -0.046144463 -0.025648925 -0.028318517 0.017829847
0.028112158 -0.05100973 -0.032550223 0.060527615 0.050843164 -0.056004517 0.027288835 -0.051898986
-0.03318643 -0.002613629 0.03345324 -0.005579509 -0.013702087 0.018531628 -0.02915129 0.034754653
0.055003908 -0.05021651 -0.031343963 0.045018554 -0.013518199 -0.028962538 0.016376186 0.0020015463
0.0068231174 -0.02279951 0.018735327 0.0036697462 0.02222455 -0.03563887 -0.008617513 0.016800286
-0.0014250427 -0.024157362 0.032458283 -0.031845715 -0.008212268 -0.03622836 -0.0071870163 -0.03109397

body.2.bias f4 [256]
00000000: b3b9 10bc 9c82 0bbd 0757 44bd 5ce1 a13b
00000010: a2b9 51bd d499 583d 8e82 9dbc 1cd0 883c
00000020: ace2 ea3c d4e6 30bd 5ce7 42bd 4565 cbbc
00000030: 4527 813b e0ed 0f3d c403 89bc c039 11bd
00000040: 2107 0dbd 20f9 bbbc 9099 0d3d 1395 543d
00000050: 59e0 49bd e4d9 85bc ea49 33bd 24c4 753d
00000060: bb4f 5bbc 749c 54bd 12bd 653d 1175 0fbd
00000070: c1ab 8bbc 08dd a6bc 28da 01bc e261 45bd
00000080: 51d1 acbc 87e0 51bb 4f3e 023d 1ab6 19bd
00000090: 8589 79ba c097 783b 0a3e d33c 76ee 3e3c
000000a0: f41b 383d 0e14 4dbd 4218 40bd d3e0 263c
000000b0: 4459 bebc 4103 643d bc33 29bc c0db 513c
000000c0: f010 a73c a01c 5a3d a002 b43b fcfe 2bbd
000000d0: b31b 70bb c68f 233c bc3a f1bc 48d4 26bc
000000e0: fa9b 3c3c cd84 423d e743 44bd 7e84 3fbd
000000f0: 30ab 80bc 601b cd3b 6c49 3f3d 8cc7 0b3d
00000100: 7fd7 2c3d 2f7f c23c 148a 3ebd 20ed 5e3d
00000110: 761e edb8 1508 66bd d2c5 18bb e6b4 103c
00000120: c6b5 0e3d 0094 8a38 3509 15bc 98d1 5c3d
00000130: 8e8a 61bd e058 4a3b f8a1 3f3d e69f 6dbd
00000140: f973 54bb dd76 523c bc42 553d 6381 36bc
00000150: 194c 163d acc5 d33c bf74 60bd ce25 5a3d
00000160: b943 48bd 42ad 523d c081 c1bc 842a f9bc
00000170: e431 26bd bae1 5c3d 2342 d2bb 0c90 a2bc
00000180: 2eb8 203d 7ed0 16bd 1aa0 98ba e864 8a3b
00000190: 6612 283c b2ac f4bc 4ac9 32bd 29dc 013d
000001a0: c788 093c 08ee 463c 4783 43bd 2d09 dbbc
000001b0: 8c16 82bc bb73 28bc f80c a53c 74ad 38bd
000001c0: 6a81 303d 6a2a 4cbc 323b 6ebd e8a2 0dbc
000001d0: 63e7 53bd 61fc 7e3c 6af2 92bc fc42 133d
000001e0: a007 b93b 9e76 213d 2888 393c 5a39 0e3d
000001f0: 079b 523d c0ad 05bd 86bc 3fbd 5cac 8c3c
00000200: 002e 2c3a 9251 423d 69c4 63bc b0bf a63a
00000210: 6c55 10ba f30d 6dbd 800a 4bba 86d1 2fbd
00000220: 6a81 18bd 26a4 10bd f9d7 053d 06d3 4dbd
00000230: 4401 7bbd 4a13 983b 06a7 60bd fd50 483d
00000240: 5045 e3bc 2dc8 163d 8ba7 a33c 3dd7 29bd
00000250: bff1 1dbd 8ba1 46bd 0432 fabc 048f f4bc
00000260: 175d ecbc 04d2 8c3b 4e1f 48bd 875f 2e3d
00000270: 1b72 fb39 6c4b 5d3d 012d 75bd 71d2 d73c
00000280: ae34 a63c 13e1 2e3c b45d 033d f81f 14bd
00000290: f4c4 543c e016 5d3d 1631 7bbb 5ec3 783c
000002a0: 93f3 4b3d a1ce 183d 0ac4 023d c829 ba3c
000002b0: 64a0 b13c fabc a3bb 26be 4b3d 57e0 0c3c
000002c0: cbf7 00bb 1617 61bd 385e 1e3c 962b 50bd
000002d0: 9dd0 8ebc 37c1 aabc 951e 8d3b dd22 a73b
000002e0: 7840 7b3b 6068 17bc f53e 47bd b954 833c
000002f0: 4325 81bc 0c46 883c da07 773d 825e 6fbd
00000300: fad3 6e3d 0886 85bc 46ed 1b3d baef 093d
00000310: a456 08bc 6f25 3ebd ad5a 9fbc a046 bd3c
00000320: 4c3f a83c 74b6 b2bc 8d00 863d 0e0c d53b
00000330: 5e18 f7bc 5c80 683d afea d03b 5713 6e3c
00000340: 888a 13bc 9116 e23a 5bc2 3cbd 52fa 73bd
00000350: 2534 e2bc 4d3c 20bd 7057 e93b c627 633d
00000360: 7cc8 473d 3b07 bb3c 60f1 0bbc f897 1c3d
00000370: 2fb5 4b3d d675 a53b 3614 3cbd 022b 003d
00000380: f332 eb3c 3666 50bd 677c 2d3d 12ce 2b3d
00000390: 70c6 2fbd 4639 f4bb 2f1e 6bbd d937 da3c
000003a0: ddb5 ea3b de37 71bd 6964 473d 80e8 143d
000003b0: df91 5b3d 3897 523d 2995 91bc 56f9 ff3c
000003c0: b136 23bd 3bbf 88bd 7b81 e8bc 809f bd3c
000003d0: a65a fc3c de5c 65bd 7178 743d 6e5a 473d
000003e0: fc70 00bd b85d 7abd acaf 87bc 3a72 593d
000003f0: 0cf3 ba3c 1775 0a3c 619e f43c c041 433c
-0.008833337 -0.034060106 -0.04793456 0.004940195 -0.051202424 0.052881077 -0.019227292 0.016700797
0.028672539 -0.043188885 -0.047583923 -0.024828563 0.003941449 0.035138965 -0.016725428 -0.035455465
-0.034430627 -0.02294594 0.034570277 0.05189998 -0.04928622 -0.01633925 -0.04377166 0.060001507
-0.013385708 -0.051907018 0.056088515 -0.035023753 -0.017049672 -0.020369068 -0.007925548 -0.04818905
-0.021095904 -0.0032024698 0.031797703 -0.03752718 -0.0009519088 0.0037932247 0.025786418 0.011653533
0.044948533 -0.050067954 -0.046898134 0.010185438 -0.023235925 0.055667166 -0.010327276 0.01280874
0.020393819 0.053249955 0.005493477 -0.04199122 -0.0036637604 0.009983009 -0.029446952 -0.010182448
0.011511797 0.04748993 -0.04791632 -0.046757214 -0.015706629 0.006259367 0.04670088 0.03412585
0.0421977 0.023742286 -0.0465184 0.05442536 -0.000113067144 -0.05616005 -0.002331127 0.008832192
0.03484132 6.60792e-05 -0.009096433 0.05391082 -0.055063777 0.0030875728 0.046785325 -0.05801382
-0.0032417758 0.012845722 0.052065596 -0.011139247 0.036693666 0.025851093 -0.054798838 0.05325871
-0.04889271 0.051434763 -0.02362144 -0.03041578 -0.040574923 0.053926207 -0.0064165755 -0.019844078
0.039238147 -0.036819927 -0.0011644394 0.0042234547 0.010258293 -0.029867504 -0.043648995 0.0317041
0.008394427 0.012141712 -0.047732618 -0.026737774 -0.015879892 -0.010281499 0.020147786 -0.045087293
0.04309217 -0.012461284 -0.05816192 -0.008644797 -0.05173434 0.0155631015 -0.017937858 0.035952553
0.005646661 0.039419763 0.011323966 0.034722663 0.051417377 -0.032636404 -0.04681065 0.017172031
0.0006568134 0.047441073 -0.013901808 0.0012721922 -0.0005505893 -0.05787463 -0.00077454 -0.042924426
-0.037232794 -0.035312794 0.03267667 -0.050250076 -0.061280504 0.0046409713 -0.054846786 0.04890536
-0.027743012 0.036811996 0.019977352 -0.041465033 -0.038560625 -0.048493903 -0.030541427 -0.029853351
-0.028852982 0.0042974968 -0.04885798 0.04257157 0.00047959466 0.054027006 -0.059857372 0.026345463
0.020288792 0.010673779 0.032071784 -0.0361633 0.01298641 0.053976893 -0.0038328818 0.015183298
0.049792837 0.03730643 0.03192524 0.022725001 0.021682926 -0.004996893 0.049741887 0.008598409
-0.0019678946 -0.054953657 0.009666018 -0.050822817 -0.017433459 -0.020844085 0.004306624 0.0051005916
0.0038337987 -0.0092411935 -0.048644025 0.01603161 -0.015764838 0.016634963 0.060310222 -0.05843974
0.058307625 -0.016299263 0.03806808 0.033675887 -0.008321438 -0.04642242 -0.019452417 0.023104966
0.020537995 -0.021815516 0.06543074 0.006501681 -0.030162986 0.056763038 0.0063756327 0.014530978
-0.009005196 0.0017249157 -0.04608379 -0.059564896 -0.027612755 -0.039120007 0.007121019 0.055457853
0.04877518 0.022830596 -0.008541435 0.038230866 0.049733337 0.0050494475 -0.045917712 0.031291015
0.028710818 -0.050878726 0.042354967 0.04194457 -0.042913854 -0.0074531166 -0.057401832 0.026637958
0.007162793 -0.05889117 0.048679743 0.03635454 0.05360591 0.051413745 -0.01777132 0.031246822
-0.03984708 -0.06677099 -0.028382054 0.023147345 0.030804943 -0.05599677 0.059685174 0.048670225
-0.03135775 -0.061124533 -0.016563259 0.05308745 0.022820972 0.008450768 0.029860677 0.0119175315

mu_head.weight f4 [2, 256]
00000000: 80c3 28bd 38df 4d3d 9b78 8b3c 48cc 03bd
00000010: 7047 6dbd 8a8b 323d 0de0 79bd c6f3 1a3d
00000020: b43a 15bd 0023 88ba c165 233d 5028 55bc
00000030: 361e e9bb ecba 56bc 2a32 c63c befc a23c
00000040: 502b 74bd 8cc5 14bd 1c37 523d 679a 7d3d
00000050: f985 61bd fc25 46bd 2196 e6bc 8fab 553d
00000060: 0e0e 883d bb75 a03d 42ba e83c 2dbe 083d
00000070: 6b28 b03d 5c68 f7bc e400 c7bc e066 163b
00000080: 94ee 80bd 42d7 8dbd 5e60 83bd 832d 85bd
00000090: 5074 57bc ac0a 213d 9a90 03bb 6760 393d
000000a0: 9ffc 43bd ce7f 3dbd 8d14 f2bb 01d3 1e3d
000000b0: b0d5 8bbb 8a49 0bbb 9cea 783d f90e 913b
000000c0: 98c6 9e3c f0b6 c43c 8c5b 1dbd be62 013b
000000d0: 9eb4 093c 0481 f33c 0e94 80bd 5537 273c
000000e0: 1f80 b43c 571d e4bb b22f 59bd 2d32 573d
000000f0: c034 e9bb d86b 40bc 1875 8b3b 1a68 dabb
00000100: 6479 163d 6e75 143d b085 473d b817 06bd
00000110: 3d5c 8dbc 587e 16bd 500f 533d d1e5 dcbc
00000120: 4a30 be3c 80c4 473a 832f 6fbd 005a d9bc
00000130: 7206 49bd 9010 d1bc b003 e83c 3892 af3c
00000140: 198c df3c f48c 6e3d 05c1 473c f405 0b3c
00000150: 929a 2dbd 6c5d 1c3d a1c6 913c d208 25bd
00000160: a194 92bb 3425 dabc 5a24 0a3d d4da 9dbc
00000170: bed0 20bd 13f6 113d 14db 223b 54bf 58bd
00000180: 7801 fabc b890 d93c 06bc 473d 344d 30bd
00000190: c440 0bbd cd1e 9bbc 94ef f53c 1a64 65bd
000001a0: 3844 283d 381c 953c 3140 17bd ac61 3e3d
000001b0: 9e15 3dbc 26ca 92bc 6ca1 273d 081c 26bd
000001c0: 4679 40bd c0cd 88bd d482 cd3c c7bb d63b
000001d0: 38e5 4c3d 867c b23c ef76 303d 8e25 0abd
000001e0: a6e9 273d f0b2 103c 5062 353d 5ff0 d83b
000001f0: e1e5 d03c e73a 36bd 88bb 403c 38f5 34bd
00000200: 3835 cf3c 17cd 983a 5553 21bd d7da 37bd
00000210: faf2 3ebc d803 463d b03c 11bc fed2 5cbd
00000220: 119b 7c3c 806f 993b 3600 2cbd a803 693d
00000230: 209d 8abb 6f22 e6b9 cd5c 17bb d8c6 643d
00000240: ee91 76bd b87e 7bbd 8e0b 203d 1b42 67bc
00000250: f27a 043d 332f 5f3c d6fe 36bd 4627 52bd
00000260: 44e3 9e3a 23ce b7bc baac 6f3d 5c01 c53b
00000270: 0d6e 9dbd 5a59 a23a 2c48 4e3d 88da e3b9
00000280: 8683 0c3d 637e fd3b 1182 f03c 4011 e1bb
00000290: 81f6 1dbb af42 713d b1e6 823a 7dac 1abc
000002a0: d88f 553c 7260 92bc 68a2 6d3c bf54 16bd
000002b0: cafe 2bbd 94fa cab7 7b7f 813d a664 1cbc
000002c0: c8ac 1dbd 88aa b53c d0bc 07bd 5ad8 59bd
000002d0: bfa4 5bbc a6c0 21bd fcae 2ebd 1ed3 55bd
000002e0: bd0b 80bd 4cd6 cdbc f0cf 283c ea59 5bbd
000002f0: d0ad 2dbc 76bd 5abd 4476 f23c e248 7f3d
00000300: f02b 8abc 18f9 113c 2c9f 6a3c 5ad1 0cbd
00000310: 1b2f 9fbb bb7b 833c bf2e cb3c dbb7 2fbd
00000320: b706 e9bc 8005 89bd 3dc5 793b 4333 133c
00000330: d15a efba 40c2 d9bc 0e67 8fbd 511c 6b3d
00000340: 20b0 f83c b1df c33c e601 61bd 3cfa 92bc
00000350: 71ca 6fbd 0d14 dd3c 1419 71bd 5797 74bd
00000360: dc66 d1bc b60f 45bd 28ba 0d3d 11a9 343c
00000370: 8b22 a4bd b2cd 2b3d 1251 183d 0067 0dbd
00000380: 0e67 523d a0eb 873c 6180 893c 344d f2bc
00000390: 22df 85bd e276 2bbd 7986 823d 1cc0 923b
000003a0: 33fd d4bc daf2 333d 3237 2cbd ab6b 58bd
000003b0: a187 37bd 9e1a 283d 3541 4b3d d5fd 4bbd
000003c0: b68c 17bd ed8c 1fbc 227d 72bd 388e 2ebd
000003d0: cb64 4dbd 3a85 173d 0600 1abd 26fe 54bd
000003e0: 86d0 1dbd bc19 b5bc 5b73 1cbd 76cc 733b
000003f0: 847e e93c 7df0 72bc 02ef 7b3c 3424 813c
-0.04120207 0.050261706 0.017025283 -0.03217724 -0.057929456 0.043590106 -0.061004687 0.037830137
-0.036432937 -0.0010386407 0.039891962 -0.0130100995 -0.007114197 -0.013106089 0.024193842 0.019895907
-0.05961162 -0.036321208 0.051322088 0.061914828 -0.055059407 -0.04837607 -0.028147759 0.052165564
0.06643306 0.07834955 0.028409127 0.03338449 0.08601459 -0.03020113 -0.024292417 0.0022949502
-0.06295505 -0.06925823 -0.06414865 -0.06502821 -0.01315029 0.039316818 -0.0020075203 0.045257952
-0.04784834 -0.046264462 -0.0073877038 0.038775448 -0.004267417 -0.002125355 0.060770616 0.0044268337
0.019381806 0.024013013 -0.038417384 0.0019742693 0.008404879 0.029724605 -0.06278239 0.010206063
0.02203375 -0.0069615054 -0.053024 0.052538086 -0.007116884 -0.011744462 0.004255902 -0.006665242
0.03673686 0.036244802 0.04871148 -0.032737464 -0.017255897 -0.036741585 0.051528275 -0.026965054
0.023216385 0.00076205283 -0.05839492 -0.026532173 -0.049078412 -0.025520593 0.02832207 0.021432027
0.027288483 0.058239892 0.012192016 0.008485306 -0.042383738 0.03817503 0.017794909 -0.040291615
-0.0044732844 -0.026629068 0.033726074 -0.019269384 -0.039261572 0.035635065 0.002484982 -0.05291684
-0.030518278 0.026558265 0.048763297 -0.043042377 -0.033997312 -0.018935585 0.030021466 -0.056003667
0.041080683 0.018201932 -0.036926452 0.046479866 -0.0115407985 -0.017918658 0.04092543 -0.040554076
-0.046990655 -0.06679869 0.025086798 0.0065531465 0.050023288 0.021787893 0.043082174 -0.03372722
0.04099431 0.0088317245 0.04428321 0.0066204513 0.02550024 -0.044489767 0.011763461 -0.04417917
0.025293931 0.0011657801 -0.039386112 -0.044886436 -0.01165461 0.04834351 -0.008864567 -0.053912155
0.01541783 0.0046824813 -0.04199239 0.056888252 -0.0042301565 -0.00043894674 -0.0023096085 0.055853695
-0.060197763 -0.061400145 0.03907352 -0.014114882 0.032343812 0.013622093 -0.044676624 -0.051306985
0.0012122174 -0.02243716 0.058514334 0.006012125 -0.07687006 0.0012386248 0.050361797 -0.00043459632
0.034305118 0.0077360137 0.029358895 -0.0068685114 -0.0024103227 0.058901485 0.0009986964 -0.0094405385
0.013034783 -0.017868254 0.014504053 -0.036701914 -0.041991033 -2.4196961e-05 0.06323143 -0.009545481
-0.038494855 0.022176042 -0.03313905 -0.053184845 -0.013405978 -0.039490364 -0.042647347 -0.05220329
-0.06252239 -0.025126599 0.010303482 -0.053552546 -0.010600522 -0.05340334 0.02959741 0.062325366
-0.016866654 0.008909486 0.014320176 -0.03437934 -0.0048579103 0.01605021 0.024802564 -0.042899948
-0.028445585 -0.06690502 0.0038111948 0.00898439 -0.0018261318 -0.026581883 -0.07002078 0.05740005
0.03035742 0.023910375 -0.05493345 -0.017941587 -0.058542673 0.0269871 -0.058861807 -0.05971464
-0.025561742 -0.048110686 0.03460136 0.011026637 -0.08014401 0.041944213 0.03718669 -0.034522057
0.05136781 0.016591847 0.016784849 -0.029577829 -0.065367 -0.041861422 0.06373305 0.0044784676
-0.025999641 0.043932773 -0.042044826 -0.052837055 -0.04480708 0.04104101 0.049622733 -0.04980262
-0.036999427 -0.009738189 -0.059201367 -0.0426161 -0.05014495 0.03699229 -0.03759768 -0.052000187
-0.03852894 -0.022106998 -0.03819595 0.0037200726 0.02850271 -0.014827845 0.015376808 0.015764333

mu_head.bias f4 [2]
00000000: 7cd9 09bd b31e 0cbc
-0.033654675 -0.008552241

model.0.weight f4 [256, 39]
00000000: 2d87 043e c367 c2bc c2d3 a63d d220 c1bd
00000010: a0fa 493d bed2 4ebd 125c f63c 6e03 33bd
00000020: 632f af3d 7439 a63d 3997 0d3e df02 1abe
00000030: f693 8ebd 88b7 343d 8828 963d 1cca 40be
00000040: 033f 00be 2a48 10be 51e1 8c3c 76bf 343e
00000050: c108 b43d a901 8fbd d618 01be d8d9 e3bd
00000060: e3d9 663d 9c4b 05bd 21e0 ff3c 1c39 a2bb
00000070: f5f2 06be b5e9 ab3d be0b 21bd 5e26 babd
00000080: 1d01 ab3d dab2 b13d 3a59 dd3a 6248 cdbd
00000090: 6a85 073e d637 9a3d 7770 123d 8b12 16bd
000000a0: f807 0bbe 1a8a 39bc 0980 2ebd 046e c33c
000000b0: 159e 97bd 3db2 f83d 6a9c 193e df12 afbc
000000c0: ddb2 253e d5a3 e53c 8d5e 8dbd 8271 5dbd
000000d0: b4ad 253e 9c6d 01bc f815 bf3d 4dfc e9bd
000000e0: 89de 1f3c 3aa3 743d 687b a5bd 1b40 65bd
000000f0: 929d bd3d 166c 86bc 7dd3 a83b a751 a93d
00000100: 787a 103e 9fd2 06be 50fe ea3d 6b3e 20be
00000110: 75da 7cbc c772 0fbe 2ff6 d93c b2ba 043e
00000120: 951e 973b ad7f 123e 654b 2ebd 628b 5cbc
00000130: fa47 a03c 82df ee3c bbdc 873c 44e0 0f3e
00000140: 025a 37be a0e1 bb3d 827b 923d 9a9c ad3d
00000150: edd7 afbd 4a29 b93b cb5d ad3d 281d 0a3d
00000160: 5842 203d c385 a33d be1a 0b3e 1851 cc3d
00000170: 5fa0 fcbd b4d0 d4bd 8e96 c13d c6f5 0e3e
00000180: 5d6b 6f3d 6ab6 cd3d fec6 023e f9f8 f93d
00000190: 8689 c1bc 17f4 d4bd df26 edbd 99fc a2bd
000001a0: 6727 16be b914 193e 5980 efbd 6016 183e
000001b0: 6da8 a3bc 2c2c c33c 81b4 05bd 49f8 4b3d
000001c0: d89d 173e e90f ab3b 1739 c8bd 3cb6 093e
000001d0: 7bed 0b3e 6da6 aa3d cc82 6abd a391 e63d
000001e0: 7b4d fb3d 46af 793d 1753 9ebd 2ab5 8cbd
000001f0: e0fb a7bd db06 c63d cb46 05be 17f4 873d
00000200: f593 fc3d 5af1 9fbd 6d81 59bd 081b 59bd
00000210: 70cf 2ebe f68c 9cbd 83ec 983d 60bf 863d
00000220: f942 aa3d bc6a c3bd 1163 c63d d154 eebc
00000230: 648f 1d3d b62f 5bbd e2fd 313e 18d6 273d
00000240: 9c05 df3d 3ee8 58be 8afd 55bd 0457 8c3d
00000250: bfd0 e43d 6156 d03d f092 043e dbe3 a9bd
00000260: a4fb 3d3c 4d35 babd 0e41 d33d 17fd baba
00000270: 6881 1d3d babf 0dbe 30ae 943d 9cde 943d
00000280: b2d9 103e 98c6 13be 9236 efbd 9624 f4bd
00000290: 33c6 12be 263b 143e 6066 82bb 1cbe 173d
000002a0: aeae 1fbe 08c1 69bd 8fc1 0abe 484d af3c
000002b0: 0067 673d 547f eebd 4040 9bbc ed27 22be
000002c0: a89f ccbc e050 a03b 00c0 c5b9 a8bc e0bc
000002d0: 14e1 0fbe 0e1c 37bd b6d5 14be c090 18bc
000002e0: d12a 12be 566f 53bd c863 b4bc 802e efba
000002f0: c66f 19bd cd8c fcbd 804f a63b c8ca 0c3d
00000300: 9821 e93c e6a4 09be 8614 083e 7526 5ebd
00000310: c4f0 193e 02de 493c afe5 cd3d 6d9c 89bc
00000320: ac0d fd3d 3630 903d bf49 a13d 4bb9 83bb
00000330: 8e9a 0a3e 29f2 203e 4a9a 03be 0593 153e
00000340: 7f63 bbbc bba7 d7bd cfe0 15be 8d74 473d
00000350: 559e 85bc f723 bdbc c847 193e 0529 e13d
00000360: fb37 8abd 92c3 0ebe 2c55 0c3e 4976 b93d
00000370: c53c ce3c 8b9f 27bd 7b90 8cbd 97ba 0bbe
00000380: fa87 eabd b3e4 6c3d 5070 2c3c 95ad c33b
00000390: a9a4 36bd 9473 8abd 01be 38bd 5f7c ebbd
000003a0: e5cc 7ebd 700b 283e d5a8 77bd 7350 fdbd
000003b0: 8126 bdbd d254 82bd d1f2 3abd d1eb 5a3b
000003c0: 58fc 553d 1fec fcbc 69df e03d 93f9 0d3d
000003d0: 697b 873d 5e82 df3d b112 9a3a 10b3 663b
000003e0: 8ffc 233d 26ae fcbd c6ac 62bc 1818 42bd
000003f0: 4cd0 a0bd 297c 83bd 0bfe 8e3c 1912 65bd
0.1294219 -0.023731118 0.08145858 -0.09430088 0.04931128 -0.05049395 0.0300732 -0.043704443
0.0855396 0.08116427 0.13827218 -0.15040158 -0.06961815 0.04412034 0.073319495 -0.18827099
-0.12524037 -0.14090028 0.017197283 0.17651162 0.08790732 -0.069827385 -0.1260713 -0.11125535
0.056360137 -0.03254281 0.031234803 -0.0049506556 -0.13178618 0.083941855 -0.03931784 -0.09089349
0.08349822 0.08676691 0.0016887554 -0.100235716 0.13234487 0.07530181 0.035751786 -0.036638778
-0.13577259 -0.01132443 -0.042602573 0.02385617 -0.07403199 0.12143371 0.15001073 -0.021371303
0.16181512 0.028032223 -0.069028 -0.054063328 0.16179544 -0.007899668 0.09330362 -0.11425076
0.009757646 0.059725977 -0.080801785 -0.05596934 0.0925857 -0.016408961 0.0051521645 0.08267527
0.14109218 -0.13166283 0.114742875 -0.1564881 -0.015432944 -0.14008628 0.026606647 0.12961844
0.0046118 0.14306517 -0.04255237 -0.013460966 0.019565571 0.029159311 0.016584745 0.14050394
-0.17905429 0.09173894 0.071524635 0.08477135 -0.085861064 0.005650674 0.08465155 0.03371921
0.03912577 0.079844974 0.1358442 0.09976405 -0.12335276 -0.103913695 0.09452544 0.13960943
0.058452 0.10044558 0.12771222 0.12205691 -0.023625147 -0.10398119 -0.1157968 -0.079583354
-0.14663468 0.14949311 -0.11694402 0.14852285 -0.019977773 0.023824774 -0.032642845 0.04979733
0.14806306 0.0052204025 -0.09776514 0.13448423 0.1366481 0.083325244 -0.057253644 0.11258247
0.122706376 0.06095817 -0.07730692 -0.06870492 -0.08202338 0.09669276 -0.13015287 0.06638353
0.12332908 -0.07809706 -0.053101946 -0.053004295 -0.17071319 -0.07644074 0.07466986 0.06579471
0.08313555 -0.09541842 0.09686864 -0.029093178 0.038466826 -0.053512298 0.17382005 0.04097566
0.10889742 -0.21182343 -0.052243747 0.068525344 0.11172628 0.101727255 0.12946677 -0.08295413
0.01159564 -0.090921976 0.103151426 -0.00142661 0.03845349 -0.13842669 0.07259786 0.07269022
0.14145544 -0.14431226 -0.1168033 -0.11921041 -0.1433342 0.14475688 -0.003979489 0.037046537
-0.15593979 -0.057068855 -0.13550399 0.021399155 0.056494713 -0.1164538 -0.018951535 -0.15835543
-0.024978474 0.0048924536 -0.0003771782 -0.027433708 -0.14050704 -0.04470449 -0.14534649 -0.009311855
-0.14274146 -0.05161985 -0.022020236 -0.0018248111 -0.03746011 -0.12331543 0.005075395 0.034373075
0.028458402 -0.1344181 0.13289079 -0.054235894 0.15033251 0.012320997 0.10053574 -0.016798222
0.12356123 0.070404455 0.07875394 -0.0040198914 0.1353552 0.15717377 -0.12851825 0.14606865
-0.022874592 -0.10530039 -0.14636539 0.048695136 -0.01631085 -0.023088438 0.14968789 0.10994152
-0.06748959 -0.13941792 0.13704365 0.09055764 0.025175462 -0.040923636 -0.06863495 -0.13645397
-0.11451717 0.057835292 0.010524824 0.0059716203 -0.044590626 -0.06760326 -0.045103077 -0.11498331
-0.06220712 0.16410613 -0.060463745 -0.1236886 -0.0923586 -0.063638344 -0.045641724 0.0033404718
0.052242607 -0.03087431 0.10980112 0.03466184 0.066153355 0.109135374 0.0011754838 0.0035201944
0.04003578 -0.12337904 -0.013835138 -0.04738626 -0.078522295 -0.06420166 0.017455122 -0.055925462

model.0.bias f4 [256]
00000000: a9f6 973d 5a24 893d 46b7 2a3e 2d69 15bd
00000010: 4c9d 69bd a998 263c 9902 253e ec1e d5bd
00000020: cd69 5a3c 5e10 9abc fcc1 1e3e d4f1 0e3d
00000030: e69c 10bd 9685 aa3d 6d73 6b3d 25fa 4abd
00000040: 00ac 7c3d f3f4 02be 9ad7 1d3e 086a 0a3b
00000050: 980d 2a3e b0d1 fb3c d354 253d d969 5abd
00000060: 29ec 01be 9bcb fdbd f2b1 883d 7195 d8bd
00000070: 6a63 1b3e 8068 efbd 482d ac3d 4a05 543d
00000080: 94db ad3d 97ef a8bd 5a89 4abd 28d0 a63d
00000090: 303c 4a3d a8f1 9b3d a5ed 34bc 4d0b e03d
000000a0: c71e 023e 11e0 bc3d 7c56 403d aae9 7cbd
000000b0: eb36 333e 5e7a 15bd 5862 b7bb d40f 453c
000000c0: 708f 02bd ea65 203d 9bf4 793d 3dc1 06be
000000d0: 3f7a 033e e740 343e 72a2 2e3e d813 e5bc
000000e0: 9c08 8b3d 946b f33d 811a 903d 35f5 063e
000000f0: e095 8ebb 615c 163e 18dd ef3c a63e 30bd
00000100: fdb3 d63c aeb8 f53d 80bb 01be 5b91 d03d
00000110: d25b 283e 9987 323d 27f2 d3bd af80 603d
00000120: 351c babd 7604 3dbd 3410 2c3e 9b1c b23d
00000130: 1095 053e a708 e93c 465b c43d 575d 8ebd
00000140: 0ed2 483d 1a93 153e fb6f 323e 1f0d 5dbd
00000150: 3661 37bd 932b 8d3c 80c5 06bd 9caf b8bd
00000160: 835c 1d3e 82c6 d53d 9ec3 d4bd c036 9bbd
00000170: e218 023c 4437 303e 167e f6bd 1a40 463c
00000180: 7e5f c23d f4b0 bfbd 1f5d 6b3d b4fe d73c
00000190: 7a98 303e 45d3 143e a301 683c 0614 a1bd
000001a0: cd5b 243e 8779 de3d f5fa 34bd 947d c9bd
000001b0: 5cb0 003d 6d0e d73c 35e9 773b 4790 2e3d
000001c0: 39db 2a3e 4038 31bb 2018 563c c916 acbd
000001d0: 2ff7 16be 7203 1e3e 98f8 373e 4299 253e
000001e0: aa80 893d 8d50 03be 54aa d83d b0fa 7b3c
000001f0: a433 13bd 738f 9dbc c0a4 51bb 47b3 02be
00000200: 10fc 2e3e 7f96 92bb 88d7 073e c0b6 9dbc
00000210: 1278 1f3e 1aa8 cfbd 2e75 2fba 994d 0d3d
00000220: 327b 373d b218 643d 8896 bebc b711 1e3e
00000230: bc6b 313e e0a7 21be 1cf1 c63d 47cc 15be
00000240: 4251 60bd 50c1 2bbd cd61 ec3d 6a9c 173e
00000250: 9294 c6bd 572d 023e 608f 1dbe 3ace 8bbd
00000260: b218 25bd e131 233e c9e9 243e 0fe2 8cbc
00000270: b9e2 99bd 5558 2d3e b784 96bb 9162 293e
00000280: f266 333e 402b e73d 80bf 073c 0d53 373e
00000290: 1669 003e 9111 0f3e 521a b43b 31f0 813d
000002a0: c871 d43d 18f8 d3bd 542f 403d 01c7 fbbd
000002b0: 4a8f 093e 2e71 943c 2a87 ac3d 9583 ea3d
000002c0: 12f3 b13c 3329 9fbd 6570 f53d 2aa6 173e
000002d0: e209 553c 74c1 2cbc 67eb dd3d 00f7 52bd
000002e0: 227a db3b 3687 f03d 3d23 f63d 74f7 cc3d
000002f0: 91a2 79bb ea5e eabd 2c07 f03d 14ff d13d
00000300: 3e08 edbd 1380 debd 285d 283e 908b ffbc
00000310: c724 1cbd df1e 5e3d 3896 ba3c a1aa d8bd
00000320: 77c0 b7bd 6dd3 50bc cfa8 05be 90b3 20bc
00000330: f8e3 d83d 0974 03be 23b6 983d 8609 843d
00000340: a953 153e dd4f 1d3c b8d2 53bc 3aad 43bd
00000350: 07a9 b3bd f768 203e e0fd 70bc b53a 27bd
00000360: fe43 b2bd 1183 79bd 84f6 67bc 1aad e3bd
00000370: 1c1f 943d c6f4 153e 9823 90bd 60d0 1ebe
00000380: 9064 f53c a67b 0a3d 605d babb 3871 e63c
00000390: 5286 1dbe ac13 183d 71e7 263d 75ca 16be
000003a0: e66a 21be 3e68 fc3d a3e0 803d 2059 c23b
000003b0: 2463 853c c2e9 1dbc 625e 233e a2cd 2cbb
000003c0: c683 063e 1980 aabd 1548 fb3d 8af5 17be
000003d0: 6873 db3d 3cd6 353d 419e a63d 7f5f 14be
000003e0: 6c85 46bd b0ca 39bc 4cbc 1c3e e0cb 983c
000003f0: 3c9c d9bd 322d 87bd 70b7 1bbe cbb9 983d
0.074200936 0.06696387 0.16671476 -0.036477257 -0.057034776 0.010168233 0.16114272 -0.104062885
0.013330889 -0.018806633 0.15503687 0.034898594 -0.03530588 0.08326261 0.057483125 -0.049554963
0.06168747 -0.12788753 0.15414277 0.0021120328 0.16606748 0.030739635 0.040364098 -0.0533236
-0.12687744 -0.1239235 0.066745654 -0.10575379 0.15174642 -0.11689854 0.08407074 0.051762857
0.08489147 -0.08248823 -0.049447395 0.081451714 0.049373806 0.07614452 -0.011042987 0.109396555
0.12707053 0.09222425 0.046957478 -0.061746277 0.17501418 -0.03649365 -0.0055964403 0.0120276995
-0.031875074 0.039159693 0.06102429 -0.13159652 0.12839602 0.17602883 0.17054155 -0.027963564
0.067887515 0.11885753 0.07036305 0.13179477 -0.0043513626 0.14683677 0.02928023 -0.043028496
0.026208872 0.119981155 -0.12669182 0.10183974 0.16441277 0.043586347 -0.10348921 0.054810222
-0.09087411 -0.046146832 0.16803056 0.08696862 0.13045144 0.028446509 0.095877215 -0.06951397
0.04902845 0.14606896 0.1742553 -0.05396759 -0.044770442 0.017232692 -0.032903194 -0.0901787
0.15367322 0.10438253 -0.103888735 -0.07578802 0.007940503 0.17208582 -0.12035768 0.012100244
0.0949087 -0.09359923 0.057461854 0.02636657 0.17245665 0.14533718 0.0141605465 -0.07865147
0.16050644 0.10863023 -0.044184644 -0.09838405 0.03141819 0.026251996 0.0037828211 0.042618062
0.1668519 -0.0027041584 0.013067275 -0.084027834 -0.1474273 0.15431002 0.17965925 0.16171744
0.06713994 -0.12823696 0.105793625 0.015379593 -0.03593792 -0.019233441 -0.0031989068 -0.12763701
0.17088342 -0.004473507 0.13265812 -0.019252181 0.15573147 -0.10139485 -0.00066931813 0.03449783
0.044795223 0.055687614 -0.023265138 0.15436445 0.17326254 -0.15786695 0.09713957 -0.14628707
-0.054764993 -0.041932404 0.115420915 0.14805761 -0.09696306 0.12712608 -0.15386724 -0.06826444
-0.040306754 0.15936996 0.16104807 -0.017197637 -0.07513947 0.16928227 -0.0045934576 0.16541506
0.1751974 0.11287546 0.008285403 0.17902775 0.12540087 0.13971545 0.0054963017 0.06344641
0.103732646 -0.103500545 0.046920136 -0.12293816 0.13433567 0.018120375 0.08424218 0.114508785
0.02172235 -0.0777153 0.11984328 0.1480948 0.0130028445 -0.01054417 0.10835915 -0.05150509
0.006697909 0.117445394 0.1201844 0.100081354 -0.0038091282 -0.11443885 0.11720118 0.102537304
-0.11573838 -0.10864272 0.16441786 -0.031194478 -0.03812101 0.05422866 0.022776708 -0.1057942
-0.08972257 -0.01274572 -0.13052677 -0.009808436 0.105903566 -0.12837233 0.07456615 0.06447129
0.14582695 0.00960156 -0.012928657 -0.047772624 -0.08772474 0.15665041 -0.014708966 -0.04082747
-0.08704375 -0.06091601 -0.014157895 -0.11117001 0.07232496 0.14644155 -0.07038039 -0.15509176
0.029955178 0.033809327 -0.0056874007 0.028130159 -0.1538327 0.037128136 0.040748063 -0.14725669
-0.15763435 0.1232457 0.06292846 0.0059310347 0.016282625 -0.009638252 0.15953973 -0.0026367684
0.13136205 -0.08325214 0.12269608 -0.1483976 0.10715371 0.044393763 0.08135653 -0.14489554
-0.048467085 -0.011339828 0.15306205 0.018651903 -0.106255025 -0.06600417 -0.15206695 0.07457312
