models/mappo_best_stage_2.pt (torch, 853690 bytes, 14 tensors)

log_std f4 [2]
00000000: a8f3 1dbf ade9 aabe
-0.61699915 -0.33381405

body.0.weight f4 [256, 13]
00000000: 3093 6d3e 19eb 16be 5503 313e 05ff bf3e
00000010: ac08 99be f04f 4b3e 5218 903b 34b9 ccbe
00000020: 088c b0be eeff e7bd dda9 99be ee73 08be
00000030: 6ad8 b53d f177 8d3e 02c3 86be c0bb 2e3d
00000040: 018a 66be 3e6c 733e f474 e7bd 1c36 96bd
00000050: 888a 5c3d e006 4cbc 486c 3e3d 8c68 80be
00000060: 4052 ac3c e693 77be dce6 8d3c 667d 1bbe
00000070: aeed cabd 702b ddbd ea5f 993e 2ed8 bc3c
00000080: 4a4f 84be c6d3 cb3e ceca 8dbe 3fe9 6f3e
00000090: 8a9e 7f3e 77f8 fabd 1955 f83d b8f3 0cbe
000000a0: e8de f0bd 15a6 33bd 7873 6c3e c8a5 afbe
000000b0: 0db8 81bc 9af9 c63d 8e3a 0fbe b3b9 a1be
000000c0: b6f3 0dbe 7fff 00be 830c 93be b2b6 e83d
000000d0: 5b22 dcbd 63c4 4f3d 196e abbb 77c6 45be
000000e0: 6eaf 403e 18b4 b7bc fdce 4ebe 6b27 763e
000000f0: 0249 4c3e 59a0 713e 93fc 20bd 8c63 b9bb
00000100: 767a 8f3d f90c 1dbe 3538 ca3c ce3d 9b3e
00000110: 340e c9bd a10b 0f3e 185a 203e ca4f 063e
00000120: fbd7 8e3e 17fe 3b3e 66c4 36bd d78d f13e
00000130: f6a1 353e 844c a43d 0f56 a03d 28f2 df3d
00000140: 47fa 6dbb 0166 0e3e b4da 9ebc 8177 a0be
00000150: 7fc7 133e 8d5b 05be 6c92 8abe 49b5 6e3e
00000160: f4f7 19be fae5 fdbd ac9f 3f3e c06d 33be
00000170: 36e4 6a3e d2eb d8bd a231 1d3e ca12 8ebd
00000180: 8829 63be e0e0 313d 5088 1c3d 16d1 043e
00000190: d002 6fbe 840f 05be 2f31 0dbe 5020 bc3d
000001a0: c13e 8dbe f682 7f3e 00d3 d8bc 36ef 22be
000001b0: 1435 983d 4806 33be d62a 703e 00ee 3dbc
000001c0: 20e9 35bc 7cdd 63bd 9282 08be 2cad f8bd
000001d0: d840 44be bf32 473e c6a0 75bd 9c80 443e
000001e0: 926e e73c d86c 8abd 1a7d edbd 1a3d acbe
000001f0: 0eeb 11be ac21 6cbd 11cc bf3c 2deb bcbe
00000200: 2533 363e 833a d63b 5f57 b63b 6769 78be
00000210: 8e77 babd d7a4 853d f5a1 32be d4ed 2f3d
00000220: 8adc 443e e6c8 2b3d c999 303e cac3 293d
00000230: 1f11 47be c885 03bd 68a2 44be 3f93 f53d
00000240: 0e3f fab9 7e14 1f3e aa1c 9bbe 5c38 103e
00000250: fc75 9bbd 6918 d83d a4fb 85be 1bb6 14be
00000260: c2fe 8b3c 3538 88be 260b ddbd ad05 6f3e
00000270: fecd 403e 2f56 1c3e 66e1 ebbd 91ee afbc
00000280: f853 09be 1115 cebd 1974 d93d bdf6 8c3d
00000290: 8cc0 10bf 828a dc3b 31d4 08bf 7643 cc3c
000002a0: 36e9 09be 2442 e6bd 9e37 01be fb69 2e3d
000002b0: 9150 de3d a176 1d3d 6078 19be 9677 69bd
000002c0: 1a05 dc3e d748 b2bd f03a 023e 8585 eb3d
000002d0: f08c 4a3c 4ad4 acbd ad0c 8abe 62ac 74be
000002e0: acad 7fbe 1e13 283e d5cf 873e c05d 2c3e
000002f0: 8cb8 82be 5e52 293e 929f 81bd 0448 98bd
00000300: 76a2 413e 3252 a9bd b0be e8bd 0e5e 523e
00000310: f2b3 093e df48 063e 9a6c b93c d518 96be
00000320: 2db5 ddbd 303e 94be 1c6a 79be 94b1 8a3e
00000330: 7236 ffbc f8dc dfbd 8ce7 083e 577e 90be
00000340: 5227 56be 98e7 84bc 4ba4 b2bd 0809 953e
00000350: 61b0 4ebe 1c2a 2f3d 70e6 b83d ee06 d2be
00000360: ab94 76bd b881 cabe 4169 a9bd e703 263c
00000370: a4a0 1d3e db66 8a3e a02c babc 98a7 59bd
00000380: 987e 58bd 5462 d4bd a800 4d3e e843 c73d
00000390: 30a4 123e 9ced 8c3d b0c2 d53d 20e8 0abd
000003a0: 6ed4 1cbe 7c0a 91bd 9987 b73d 47b1 26be
000003b0: fa13 6d3d 3ecc c43d 9d3a 15bd a25b 65be
000003c0: 73e0 ccbb 4646 c93e a0fb 81be 1fc7 c53e
000003d0: 9d2c 513e ebfb d53d a6aa 92bd e801 cebc
000003e0: 3d70 30be 9fc1 893d 69e5 0e3e 459c 99bd
000003f0: e863 82bd e852 b7bd fc9a dabd ad70 bebd
0.23200679 -0.1473812 0.17286427 0.37499252 -0.2988943 0.19854712 0.0043974305 -0.3998505
-0.34481835 -0.113281116 -0.30012408 -0.13325474 0.08879168 0.2763057 -0.26320654 0.04265952
-0.22513582 0.2377176 -0.11301604 -0.07334539 0.05384305 -0.012452811 0.046489984 -0.25079763
0.021035314 -0.24177513 0.017321996 -0.15184554 -0.09908615 -0.10799301 0.2995599 0.023052301
-0.25841743 0.39810008 -0.2769379 0.2342882 0.24962822 -0.12254422 0.12125606 -0.13764846
-0.11761266 -0.04385956 0.23090923 -0.3430617 -0.015834833 0.097155765 -0.1398718 -0.3158699
-0.138625 -0.12597464 -0.28720483 0.11362971 -0.1074874 0.0507244 -0.0052316305 -0.1931399
0.18816921 -0.022424743 -0.20196147 0.24038474 0.19949725 0.23596324 -0.039303374 -0.005657619
0.070057794 -0.1533698 0.024685005 0.3032059 -0.09817162 0.1396928 0.15659368 0.13116375
0.27899155 0.18358646 -0.044620894 0.47178528 0.17737564 0.08022407 0.078289144 0.109348595
-0.0036312507 0.13906099 -0.019391395 -0.31341174 0.1443157 -0.13023205 -0.27064836 0.23311342
-0.15035993 -0.1239738 0.18713254 -0.17522335 0.22938618 -0.10591854 0.15350965 -0.069371775
-0.22183812 0.043427348 0.038215935 0.12970385 -0.23340917 -0.129942 -0.13788293 0.091858506
-0.2758694 0.24952301 -0.0264678 -0.15911564 0.07431999 -0.17482865 0.2345384 -0.011592388
-0.011102945 -0.055631146 -0.13331059 -0.12142405 -0.19165361 0.19452952 -0.05996778 0.19189686
0.028250966 -0.067590415 -0.11596127 -0.33640367 -0.14249822 -0.0576493 0.023412736 -0.36898175
0.17792948 0.006537737 0.0055646147 -0.24258958 -0.091048345 0.06525581 -0.17444594 0.04295142
0.19224754 0.04193964 0.17246164 0.041446485 -0.19440125 -0.032110006 -0.19202578 0.119909756
-0.00047730695 0.15535161 -0.30295306 0.14084 -0.07590863 0.10551531 -0.2616855 -0.14522593
0.017089251 -0.26605383 -0.10793142 0.23342009 0.1882858 0.15267251 -0.11517601 -0.021476062
-0.13410938 -0.10062612 0.10617847 0.06882999 -0.56543803 0.0067303786 -0.5344878 0.024934512
-0.13467869 -0.11243084 -0.12618873 0.04258154 0.108552106 0.03844321 -0.14987326 -0.05699881
0.42972642 -0.08705299 0.12717795 0.11500076 0.012362704 -0.084389284 -0.26962796 -0.23893884
-0.24968594 0.16413543 0.2652575 0.16832638 -0.25531423 0.16535327 -0.06329264 -0.07435611
0.1890963 -0.08267631 -0.11364496 0.20543692 0.1344755 0.13113736 0.022634793 -0.2931582
-0.10825572 -0.28953695 -0.24356884 0.27088606 -0.031153891 -0.10930818 0.13369578 -0.2822139
-0.20913437 -0.016223714 -0.08722743 0.29108453 -0.2018447 0.042764768 0.090283275 -0.41020912
-0.060200375 -0.39552093 -0.08272029 0.010132766 0.15393311 0.27031597 -0.022726357 -0.053138345
-0.052855104 -0.10370317 0.20019782 0.09729749 0.14320445 0.06881258 0.10437524 -0.033912778
-0.1531541 -0.07082078 0.0896141 -0.16278563 0.05788038 0.096092686 -0.03643285 -0.22398236
-0.0062523424 0.39311427 -0.25387287 0.3862848 0.20427175 0.1044844 -0.07161455 -0.025147393
-0.17230316 0.067263834 0.139547 -0.07500509 -0.06366712 -0.0895136 -0.10674092 -0.09298835

body.0.bias f4 [256]
00000000: 3d6b 163e 18ab 59be 43e8 d03d a7b2 4d3e
00000010: 88a5 0a3e 09bc e6bd c30a 3ebc 4ffa 65be
00000020: 05d6 21be b246 063e 8c3f fabb c106 82be
00000030: 6d49 2c3e fc6a ff3d ec40 35be 7d71 413e
00000040: 2f68 353d 00a8 0cb9 6463 da3d aa8b e03c
00000050: 1c89 f0bd 10e4 9b3d db24 37bd 4e8a 3e3e
00000060: 63d9 fc3d f145 2b3e 10a0 573d 70b6 02be
00000070: 65cd 433d 62bb dabd fbb9 4f3e bc6c d3bd
00000080: 6af3 3ebe 8036 87bb 579f 4c3c b0b2 65bd
00000090: e90e e53c 434b 883e 9dec 9fbc 2f5e 0f3e
000000a0: f8a5 1a3d 5087 5c3e 59db 733e 0874 2ebe
000000b0: 6e7d e83d 7bdc ac3d de02 1c3d 8d47 81be
000000c0: 8cb3 e83d ba93 813d 58b2 1a3c 60ef 1fbe
000000d0: 03b3 093d 8bfd 873e 99d5 1abe b51b 19be
000000e0: 97ae 8cbd f981 533b b8b1 7dbd 006e 53be
000000f0: 5479 0a3e 5db7 2fbe 0209 97bd af4b 30be
00000100: d975 f6bd 0c17 d6bd 17c9 453d 6250 68be
00000110: 10fa 79bd 8f4e 6ebd 5029 b63c d2e5 3cbe
00000120: c4c8 4e3e fcee cabd 06b4 fbbc 6151 373e
00000130: dc90 34be b283 0d3e e9c5 063d e30f 3dbb
00000140: 2030 21bc 54d1 3d3e dcf1 333d 5a7e 72be
00000150: 4cf1 77be d81f 53be 5756 d23a c07e 17be
00000160: 30aa f0bd 2f5a 9ebd a823 573d 04c9 953d
00000170: 928b 18be 9182 13be 300e 17be 3fac 75be
00000180: 80e2 a83d 836b 84be 0083 12be 77fd 65be
00000190: 9a6a 513e ca4b 563e 0417 893d 9a9f 8bbd
000001a0: e1ba c13d 608a 5abe fc6e ed3d 2b49 bb3d
000001b0: 0c30 1ebe b2f6 153e cf1a fe3d ff90 e53d
000001c0: 352a 0a3e 1cac 1ebe 0495 a73d 8542 17be
000001d0: dcb5 b7bd 57e8 80be 306a adbc b6a6 c9bd
000001e0: 77d8 21be e09d 72bd 6ad9 58ba 6d9c c5bd
000001f0: 3705 ca3b 1475 3cbe 0072 a1bb 5d72 433e
00000200: b085 3f3e fee0 3c3e 3a5f c83d f3cd d4bc
00000210: b8d0 30bb ebcd 7bbe a4d0 2f3e 35f0 f83d
00000220: 96a4 48be 9a29 c53d 4eab f33c 9a15 efbd
00000230: 77f5 803d 96d4 9b3c a254 3e3e d4f9 413c
00000240: ba1a bbbd 5a44 513e 78dd 72bd c59b 21be
00000250: 87e6 3c3c fe22 3a3d 1937 a93d b030 ce3c
00000260: bd6d 103d 00c5 29be 9b9c d7bc f712 8e3d
00000270: 7405 dcbd e919 6fbe a0df 2abc ab8a 883d
00000280: dc35 babd d83f a63d e8a7 96bd 8aa3 cf3d
00000290: 52df f93d 38b1 7bbe 010a 83bd fa49 5b3e
000002a0: 9634 1a3e 7294 fd3c 9747 213e 0e20 ba3d
000002b0: 5e03 153e c77a f03d 9114 1dbe 2c6d 243e
000002c0: 59d9 cbbd 3375 0bbe 5000 6c3d 53cd 85bd
000002d0: 0058 71be 28ec c03c 3e85 513e 4f60 3e3e
000002e0: 157b 07be b2c7 363e 00bf 1a3c 63ad 4b3e
000002f0: 6aa2 71be 9b19 623e 17b8 533e db3a 1dbd
00000300: 0c05 22bd 45eb 39be d120 04be 52a4 54be
00000310: 00b8 30be 8cdb 36be d7dc 4a3e 67d2 0c3e
00000320: 0759 ee3d 2929 40be d614 15bd 64d2 18be
00000330: 5bd7 8bbe c405 b0bd e0a6 e53d 24dc 5bbd
00000340: 606d 473e 6509 87be d9a8 733e 292e 793d
00000350: 8203 56be 94d7 723e be25 e4bc abde efbd
00000360: ca39 57be b8d9 723d c6a9 223e 4ada 3cbe
00000370: 761c 0abd 088e 8ebc b8d7 74be d702 4a3e
00000380: 2003 fdbd fc24 c5bd 3422 313d a083 c93d
00000390: 1daf 2ebb 298d 16be facf 8c3b 319b 203e
000003a0: a0cd d0bd 23d3 72be 790e a63d da2e 4dbe
000003b0: 0858 36bd 6de4 df3d a14a 13be d4ef 123e
000003c0: 96a9 10be b473 12be 5229 51be ea35 d1bd
000003d0: dd9d db3d 7994 63be 2028 e2bd ef3d d3bd
000003e0: b857 57be fd31 87be 36aa 6bbd 797a bdbd
000003f0: aef2 b2bd d80d 2ebe b51d cf3d 4f86 1cbe
0.14689346 -0.21256673 0.102005504 0.20087682 0.13539708 -0.112663336 -0.0115992455 -0.22458766
-0.15804298 0.13112906 -0.00763697 -0.25395778 0.16824885 0.124715775 -0.17700547 0.18890949
0.04428881 -0.00013414025 0.106634885 0.027410347 -0.117449015 0.07611859 -0.044712882 0.18607447
0.12346151 0.167259 0.052642882 -0.12764907 0.0478033 -0.10680272 0.2028579 -0.10323474
-0.18647543 -0.00412637 0.012489161 -0.056078613 0.027961211 0.2661992 -0.019522006 0.14000772
0.037755936 0.21535993 0.23814143 -0.1703645 0.11352049 0.08440491 0.038088672 -0.252499
0.11362371 0.06327005 0.0094419345 -0.15618658 0.033617985 0.26560625 -0.15120544 -0.14951976
-0.06869238 0.0032273515 -0.061937064 -0.2064743 0.13522846 -0.17159791 -0.07374765 -0.17216371
-0.120341964 -0.104536146 0.048287477 -0.22686914 -0.061029494 -0.058180388 0.022236496 -0.18447044
0.20193774 -0.09908864 -0.03072549 0.17902137 -0.17633384 0.13819769 0.032903586 -0.002884858
-0.009838134 0.18536884 0.043931827 -0.23681012 -0.24213141 -0.20617616 0.001604746 -0.14794445
-0.11751211 -0.07732045 0.05252424 0.07313731 -0.14896992 -0.14405276 -0.14751506 -0.23991488
0.082463264 -0.25863275 -0.14307785 -0.2245997 0.20450822 0.20927349 0.06693843 -0.06817551
0.094594724 -0.21341848 0.11593434 0.09144815 -0.15448016 0.14644888 0.12407457 0.112092964
0.13492663 -0.15495342 0.08182719 -0.14771469 -0.08970234 -0.2517726 -0.021168798 -0.09846251
-0.15805231 -0.059232593 -0.00082721433 -0.096489765 0.0061651724 -0.18404037 -0.00492692 0.19086595
0.18703341 0.18445203 0.09783788 -0.02597711 -0.0026979875 -0.2459027 0.17169434 0.12155191
-0.19594035 0.096270755 0.02974477 -0.11674042 0.06296819 0.019022267 0.18586972 0.011839349
-0.09135957 0.2043623 -0.05929324 -0.15782078 0.011529571 0.045443527 0.08262462 0.0251697
0.035260905 -0.16579056 -0.026319792 0.06937211 -0.107432276 -0.23349728 -0.010429293 0.06667074
-0.09092304 0.08117646 -0.07356244 0.101386145 0.12200798 -0.24579322 -0.063983925 0.21414939
0.15059122 0.030954573 0.15749966 0.09088145 0.14552066 0.11742168 -0.15339877 0.16057271
-0.09953565 -0.13618927 0.057617486 -0.06533303 -0.23568726 0.023550108 0.20460984 0.18591426
-0.13230546 0.17849615 0.009444952 0.1989036 -0.23597112 0.2208008 0.20675693 -0.038386207
-0.039555594 -0.18156154 -0.12903143 -0.20765808 -0.1725769 -0.17857188 0.19810806 0.13752137
0.11638074 -0.18765701 -0.036396824 -0.14924008 -0.2731274 -0.0859485 0.112134695 -0.05367674
0.19475317 -0.26374355 0.23794879 0.060835037 -0.20899776 0.23715049 -0.027850028 -0.117123924
-0.21018139 0.059289664 0.15885076 -0.18442646 -0.03371855 -0.01740171 -0.23910415 0.19727646
-0.12354112 -0.09626195 0.04324551 0.098395586 -0.0026654669 -0.14702286 0.0042972537 0.15684201
-0.1019547 -0.23713355 0.08108229 -0.20037404 -0.044517547 0.10932241 -0.14383937 0.143493
-0.14127192 -0.1430195 -0.20425919 -0.102153614 0.107234694 -0.22224607 -0.110428095 -0.10314547
-0.21029556 -0.26405326 -0.057535373 -0.092518754 -0.08737694 -0.16997468 0.10113088 -0.1528561

body.2.weight f4 [256, 256]
00000000: d319 b23c 102a 0c3c 3997 7abd 5955 4ebd
00000010: 9a73 af3b de03 43bd 184e 12bd 4c67 54bd
00000020: 8425 da3c 000c ddbc 5040 f8bb b054 e2bc
00000030: 529b f3bc 9a14 363d f62b 633d 5dbe 28bd
00000040: 188a 8bbd c000 933c 026c adbc 1ede 703d
00000050: 945d 19bd 7e22 85bd 52e0 21bc f6bb 88bc
00000060: 4035 06bc 1b2e 36bd 0415 113d cdbc a83c
00000070: 7062 46bd 893a 4f3d d40e 57bd 16f6 38bd
00000080: 52e0 55bd aaa5 76bd f0ec e63c 5115 563b
00000090: 2415 20bd 945c b43c a001 63bd ca7d 083d
000000a0: 4440 143d da92 f4bc 27d7 043d b012 0c3d
000000b0: cb8c fb3c 5d60 39bd 120f 233c 0c13 b8bc
000000c0: 468f e43c 8a32 9c3b e042 163d 36dd 0a3d
000000d0: 7339 1dbd f08c 7bbc 20fe 3d3c 90a2 cf3b
000000e0: b83a 4bbc c72b 983b 3c21 313d 662c 293d
000000f0: b89c 81bd 90a4 803c c897 383c 08ff 13bd
00000100: 3cf3 e23c 82b9 2cbd 7256 2bbd 8ca6 d23c
00000110: a61c fc3c 6ad0 af3c 264a 86bd f2d6 59bd
00000120: 6919 a93b ded6 4d3d 6f91 3c3d f461 4ab8
00000130: ea9c 4f3d 3306 0ebd e23f b9bc c030 393c
00000140: 965b 723d 54b1 573d c0fb 5fbb 60df eabb
00000150: 3e72 313d 0c31 54bd e6e9 8abc 70fc dd3b
00000160: 3cb3 6c3d bb8d 6eba 8688 6dbd c034 5abd
00000170: a692 19bd d4bc 6ebd 66d3 7abd a88b 583d
00000180: 3c35 6b3d 2af6 0e3d a400 383d f4b9 fabc
00000190: 81ee 12bd 06d0 123d af9f 043d 786b 1e3d
000001a0: 3911 02bd 5cc5 48bd 4394 f3ba 93b8 70bc
000001b0: a639 3abd 2b9f 8c3c eda2 1e3d 638d 8c3c
000001c0: eecb 4b3d 50d1 073c e622 5e3d 909b 703c
000001d0: e8ae a93c ccef 0fbd fcd1 d3bc 80a8 b03c
000001e0: e647 393d 3463 22bd 3ad2 63bd 3086 f13b
000001f0: 10c2 5a3c 985a 33bc 5ab9 743d 7638 7cbd
00000200: c78f e9b9 e52f 8bbd 9625 a83c 1bc8 3cbd
00000210: ee26 5d3d 1409 013d 0fd4 8cbc f5d5 493d
00000220: b4e6 4ebd 4b3e 3bbc 7bf0 44bd d0be 5dbd
00000230: 0416 173d 0c7c 50bd ec3f e7bc 1056 2dbc
00000240: c0fe 753c 801a 74bd 2476 52bd ce50 373d
00000250: b262 0f3d d5ae 85bd 90dd e7bc 78b3 6dbd
00000260: b892 e63b 41a8 383d 8170 edba 8610 453d
00000270: 1ee3 353d fad6 6cbd 04d8 b1bc 3dc8 323d
00000280: e15c 49bc 1200 1fbd 601c 9f3b 2982 063d
00000290: f443 00bd 8491 bc3c 0ff4 c73c 64ad 2bbd
000002a0: 20d3 c8bc 5b72 b23c 9ac0 3c3b 548e 7bbd
000002b0: e6ce 03bd 2e02 593d 6cf8 513d a92a 17bd
000002c0: 118d 293d fc5e 0abd 6014 f63c bacf 55bd
000002d0: b0a6 ccbc e5ba e63b 337c 1cbc 4065 9dba
000002e0: de85 0bbd 5564 89bc d8c0 1bbc 9a62 65bd
000002f0: 6e9e 403d c489 4f3d abf8 7bbd e8f6 863b
00000300: 08c8 55bc 1ce8 44bd b0e1 15bd e0fe 1bbd
00000310: 789a 16bc 7200 8f3c 59f6 edbc 2745 953c
00000320: 693c 76bd 8c15 f83c ce29 8f3c a84d 04bd
00000330: 4802 7ebd a669 633d 8061 823a c046 db3c
00000340: a4f6 403d c0a6 263c f62e 0e3b b4e7 96bc
00000350: fa01 3dbd b21d d2bc 3cfc e7bc e60f 923c
00000360: 784b e63c 94ef 50bd 6253 05bd ceeb 773d
00000370: ec40 503d fe64 65bd d68c df3c 0894 54bd
00000380: 7eee 07bd 6b49 2bbb 4406 093d 50d4 b6bb
00000390: b87e 60bc a4cf 973c b0ce eebc e55a 0e3d
000003a0: c74b 613d d4af 4dbd 8762 00bd 6065 383d
000003b0: 707b 5dbc d842 edbc 5a27 863c 602c 033b
000003c0: 7594 df3b 0ac6 babc d47a 993c 2080 703b
000003d0: 4210 b63c 10fa 11bd 7830 0dbc c1a0 893c
000003e0: 80c8 baba a9e5 c5bc faf2 043d a770 02bd
000003f0: c08c 06bc 3064 14bd 1081 ebbb c8b8 febc
0.02174083 0.00855495 -0.061179373 -0.050374363 0.005354357 -0.04761111 -0.035719007 -0.051856324
0.026629217 -0.026983261 -0.007576026 -0.027628273 -0.029737148 0.04445324 0.055461846 -0.04119717
-0.06813449 0.017944694 -0.021169666 0.058805577 -0.03744276 -0.065007195 -0.009880142 -0.01669119
-0.008191407 -0.044477563 0.035420433 0.02059784 -0.04843372 0.050592933 -0.052504376 -0.04515656
-0.05221588 -0.060216583 0.028189152 0.0032666514 -0.03908266 0.022016801 -0.05542147 0.033323087
0.0361941 -0.02985518 0.032431748 0.03419751 0.030706784 -0.045257915 0.0099523235 -0.02247002
0.02790035 0.004766767 0.03668487 0.03390237 -0.038384866 -0.015353426 0.011596233 0.0063365176
-0.012404136 0.0046438905 0.043244585 0.041302107 -0.0632872 0.01570347 0.011266656 -0.03613189
0.027703874 -0.0421691 -0.041830488 0.025714181 0.03077538 0.021461684 -0.065571114 -0.053183503
0.0051605 0.05025374 0.046037134 -4.825178e-05 0.050686754 -0.03467388 -0.02261347 0.011303127
0.059169374 0.052659348 -0.0034177154 -0.0071677417 0.04332184 -0.051804587 -0.016957235 0.0067744777
0.05778812 -0.0009100099 -0.057991527 -0.053272963 -0.03749337 -0.05828555 -0.06123676 0.05286756
0.057423815 0.03490273 0.044922486 -0.030606247 -0.035871986 0.035842918 0.03237885 0.03867671
-0.031754706 -0.04901634 -0.0018583614 -0.014692443 -0.045465134 0.017165741 0.038729597 0.017157262
0.04975503 0.00828965 0.0542325 0.0146855265 0.020713285 -0.035140797 -0.025856964 0.021564722
0.045234583 -0.03964539 -0.05562041 0.0073707327 0.013351932 -0.010946892 0.059747078 -0.061577283
-0.00044548346 -0.067962445 0.020525735 -0.046089273 0.053992204 0.0315028 -0.017190961 0.04927631
-0.050512984 -0.011428426 -0.048080903 -0.05413705 0.03688623 -0.05089955 -0.028228723 -0.010579601
0.01501435 -0.059595585 -0.0513822 0.044754796 0.035006233 -0.06527487 -0.028303891 -0.058032483
0.007036533 0.045082334 -0.0018115194 0.04811146 0.04440605 -0.057822205 -0.02170945 0.043647993
-0.01229021 -0.038818426 0.0048556775 0.032838974 -0.031314805 0.023018606 0.024408368 -0.041913405
-0.024514735 0.021783045 0.0028801323 -0.06141503 -0.032179736 0.052980594 0.051262304 -0.03690592
0.041394297 -0.03378199 0.030039012 -0.052200057 -0.024981827 0.0070413225 -0.009551096 -0.0012008324
-0.034063213 -0.016771475 -0.009506427 -0.056002237 0.04702609 0.050668493 -0.061516445 0.004118789
-0.013048179 -0.04807292 -0.036592185 -0.038084865 -0.009192102 0.017456267 -0.029048132 0.018221451
-0.060116205 0.030283712 0.017475989 -0.03230062 -0.062013894 0.055520676 0.000994727 0.026767135
0.047110215 0.010171592 0.0021695471 -0.018421032 -0.046144463 -0.025648925 -0.028318517 0.017829847
0.028112158 -0.05100973 -0.032550223 0.060527615 0.050843164 -0.056004517 0.027288835 -0.051898986
-0.03318643 -0.002613629 0.03345324 -0.005579509 -0.013702087 0.018531628 -0.02915129 0.034754653
0.055003908 -0.05021651 -0.031343963 0.045018554 -0.013518199 -0.028962538 0.016376186 0.0020015463
0.0068231174 -0.02279951 0.018735327 0.0036697462 0.02222455 -0.03563887 -0.008617513 0.016800286
-0.0014250427 -0.024157362 0.032458283 -0.031845715 -0.008212268 -0.03622836 -0.0071870163 -0.03109397

body.2.bias f4 [256]
00000000: b3b9 10bc 9c82 0bbd 93e5 57bd 29ef 833b
00000010: a2b9 51bd ef59 4d3d bce7 1abc 1cd0 883c
00000020: fdcd 9d3c d4e6 30bd 4cce 26bd 8d8d e0bc
00000030: dfb3 b4bb 4d0e 053d c403 89bc 4458 2dbd
00000040: dd2e 05bd 27f3 ecbc 9099 0d3d cfe3 ad3c
00000050: 9518 54bd b06b b6bc ea49 33bd 437f 843d
00000060: b443 113a 41fb 11bd cb09 8d3d 1175 0fbd
00000070: 59b4 c3bb 08dd a6bc 28da 01bc e261 45bd
00000080: 0b2d 00bd 40bc e6ba 23d3 cb3c 23a0 27bd
00000090: 3186 b9bb c097 783b 0249 cb3c f603 7eb9
000000a0: f4fe 0c3d 0e14 4dbd bf1b f6bc ec8f 613c
000000b0: 4459 bebc f848 7e3d 0872 a7bb 0250 b93c
000000c0: f010 a73c 0723 333d 0c6f 83bb b805 43bd
000000d0: cf3a 55bb a261 123c 69e9 d1bc d532 69bc
000000e0: 7fec 8b3b e7c3 6a3d 62f8 05bd df8c 66bd
000000f0: 30ab 80bc 601b cd3b 136e 233d fb1c c33c
00000100: 8b66 3e3d fe9f 9f3c 148a 3ebd d7f5 393d
00000110: 3538 16bc 2dc2 57bd a140 a43a e6b4 103c
00000120: be2b e03c 0094 8a38 44da 54bb 98d1 5c3d
00000130: 338a 72bd 4c4b c6bb 6759 3c3d e69f 6dbd
00000140: 689f cdbb a79d 9d3c a117 663d 959f 1cbb
00000150: 0284 c83c acc5 d33c 8bed 3bbd c491 5e3d
00000160: b943 48bd 42fb 203d c081 c1bc e687 23bd
00000170: e431 26bd 8228 3d3d 5bc7 a4bc 0c90 a2bc
00000180: d34b f53c 7ed0 16bd 03ed abbb f430 a1bc
00000190: bafc 803b 5659 09bd 4ac9 32bd 29dc 013d
000001a0: 58fd 313c 8bde 2e3b e564 8bbd b531 83bc
000001b0: 5fe4 95bc cf49 38bc 905f 413c 74ad 38bd
000001c0: 6a81 303d 4230 f1ba 323b 6ebd 0bc8 8ebc
000001d0: 168c 21bd deb0 813c 23b2 c8bc 62c0 0c3d
000001e0: 841d 78bb 92b4 093d 43e7 ff3a bf99 cd3c
000001f0: b053 743d c0ad 05bd 86bc 3fbd 2391 113c
00000200: 002e 2c3a aa3b 243d fa0a d2bc 21f5 c0bb
00000210: 6c55 10ba cf6f 30bd 4143 01bc 86d1 2fbd
00000220: 756f 58bd 26a4 10bd 3156 053d 06d3 4dbd
00000230: 4401 7bbd 4a13 983b 06a7 60bd 419a 173d
00000240: 5045 e3bc 49b0 2e3d 2a0d edb8 3dd7 29bd
00000250: b0c4 f8bc e179 50bd f781 21bd 048f f4bc
00000260: 175d ecbc 4b87 5e3a 582d 71bd 40a9 733c
00000270: e70a caba 88cc 5e3d 9559 8dbd ddcf bd3c
00000280: d65a 8a3c 7c58 0d3c b45d 033d f81f 14bd
00000290: f4c4 543c e016 5d3d 6b01 fa39 a3d8 1a3c
000002a0: 4895 2c3d d8d3 e03c 0ac4 023d d212 293c
000002b0: 1650 6c3c 172f 033c d8a6 eb3c 5f32 9c3b
000002c0: 52b4 81bb 1617 61bd 8540 4539 2a1f 6fbd
000002d0: 7071 74bc 37c1 aabc 951e 8d3b c590 5b3b
000002e0: 7840 7b3b 6068 17bc f53e 47bd 1564 943c
000002f0: 059c debc 5361 7c3c da07 773d 825e 6fbd
00000300: c1af 4b3d 73f2 ccbc 1a2b f43c 7560 c63c
00000310: a456 08bc 4477 54bd 6efb 20bd b54b d5ba
00000320: 906b 753c 9a44 c2bc e02d 953d 1c26 0e3c
00000330: 5e18 f7bc d998 403d a520 a43b 46d4 b43b
00000340: ad96 97bc e074 05bb 04fc 5bbd 52fa 73bd
00000350: a7ba 06bd 4d3c 20bd 7057 e93b 2bc0 863d
00000360: 1714 2a3d 3b07 bb3c 60f1 0bbc 3a52 153d
00000370: bdf9 683d d3ea acbb ab4b 5bbd e2dc df3c
00000380: 290b 943c 3666 50bd 677c 2d3d 12ce 2b3d
00000390: 515d 88bd a249 f0ba 8344 9ebd 3974 8e3c
000003a0: 7637 333b de37 71bd 73ad 253d ce20 e63c
000003b0: 695b 3f3d ef0d 623d b274 97bc bac2 ce3c
000003c0: 5767 5bbd 3bbf 88bd 34cb febc 18cc 0c3d
000003d0: 103a f03c de5c 65bd 7c6a 643d 899a 753d
000003e0: 8a1f 16bd b85d 7abd 820f bfbc 77dd 573d
000003f0: 4cc1 643c b273 7b3b c7ca db3c 339e 1c3b
-0.008833337 -0.034060106 -0.052709173 0.004026313 -0.051202424 0.050134595 -0.009454664 0.016700797
0.019263262 -0.043188885 -0.040724084 -0.027411247 -0.0055146064 0.03248434 -0.016725428 -0.042320505
-0.032515395 -0.028924538 0.034570277 0.021226792 -0.051781256 -0.022268146 -0.04377166 0.06469586
0.00055413996 -0.035640005 0.068866335 -0.035023753 -0.005972427 -0.020369068 -0.007925548 -0.04818905
-0.031292956 -0.001760371 0.024880951 -0.040924203 -0.005661749 0.0037932247 0.024815086 -0.00024224803
0.03442283 -0.050067954 -0.030042527 0.013767224 -0.023235925 0.062081307 -0.005110029 0.022621159
0.020393819 0.043734577 -0.0040110406 -0.047612876 -0.0032536273 0.00893441 -0.025623994 -0.014233311
0.004270136 0.057315733 -0.03270758 -0.05628669 -0.015706629 0.006259367 0.039899897 0.02381753
0.04648451 0.01948547 -0.0465184 0.045400467 -0.009168674 -0.052675415 0.0012531468 0.008832192
0.027364608 6.60792e-05 -0.003247873 0.05391082 -0.05921383 -0.0060514566 0.0459837 -0.05801382
-0.006275106 0.019240214 0.056174878 -0.002389883 0.024477009 0.025851093 -0.045880836 0.05433823
-0.04889271 0.039302118 -0.02362144 -0.039924525 -0.040574923 0.04618121 -0.020114591 -0.019844078
0.029943382 -0.036819927 -0.00524676 -0.019676663 0.0039363774 -0.033532463 -0.043648995 0.0317041
0.0108636245 0.002668294 -0.068063535 -0.016014913 -0.018297372 -0.011248066 0.011802569 -0.045087293
0.04309217 -0.0018401223 -0.05816192 -0.017429372 -0.039440237 0.015831407 -0.024499005 0.034363158
-0.003785939 0.03361947 0.0019523877 0.025097726 0.059650123 -0.032636404 -0.04681065 0.008884701
0.0006568134 0.040095963 -0.02564 -0.0058885966 -0.0005505893 -0.04307538 -0.00788957 -0.042924426
-0.05284067 -0.035312794 0.0325529 -0.050250076 -0.061280504 0.0046409713 -0.054846786 0.037012342
-0.027743012 0.042648587 -0.00011303493 -0.041465033 -0.030367225 -0.050897483 -0.039430585 -0.029853351
-0.028852982 0.0008488788 -0.058881134 0.014871895 -0.0015414626 0.054394275 -0.06901852 0.023170406
0.016889017 0.008627053 0.032071784 -0.0361633 0.01298641 0.053976893 0.00047684772 0.009451064
0.042134553 0.027444765 0.03192524 0.0103194285 0.014423391 0.008006833 0.02876608 0.004766747
-0.0039582634 -0.054953657 0.0001881142 -0.05837933 -0.014919624 -0.020844085 0.004306624 0.0033503037
0.0038337987 -0.0092411935 -0.048644025 0.01811413 -0.027174005 0.015404063 0.060310222 -0.05843974
0.04972816 -0.025017953 0.029805709 0.024215916 -0.008321438 -0.051871553 -0.039302282 -0.0016273173
0.014979258 -0.023714352 0.072841406 0.008676078 -0.030162986 0.047020767 0.0050087743 0.005518469
-0.018504465 -0.0020363852 -0.053707138 -0.059564896 -0.03289285 -0.039120007 0.007121019 0.06579622
0.041523065 0.022830596 -0.008541435 0.03645537 0.056878794 -0.0052770167 -0.05353896 0.027327005
0.018071728 -0.050878726 0.042354967 0.04194457 -0.06658424 -0.0018332491 -0.07727911 0.017389404
0.002734629 -0.05889117 0.040448617 0.028091814 0.046718035 0.05518907 -0.018488262 0.025239337
-0.05356535 -0.06677099 -0.031102754 0.034374326 0.029324561 -0.05599677 0.055765614 0.05996183
-0.03665117 -0.061124533 -0.023322824 0.05270144 0.013962101 0.003836852 0.02683009 0.0023898005

mu_head.weight f4 [2, 256]
00000000: 80c3 28bd 38df 4d3d f8c1 313d 944e 03bd
00000010: 7047 6dbd af9c 703d 5c1a a1bd c6f3 1a3d
00000020: 532a 0abd 0023 88ba de61 773d c588 9fbc
00000030: 7147 a73a 753e 37bd 2a32 c63c 258a b73c
00000040: 9529 b5bd b209 64bd 1c37 523d 96e1 c13d
00000050: 3738 61bd 759e 21bd 2196 e6bc 1953 603d
00000060: 6540 063e c302 d83d 3684 0c3d 2dbe 083d
00000070: 13c3 c83d 5c68 f7bc e400 c7bc e066 163b
00000080: 359e 80bd 75f9 e2bd d0c1 65bd 3488 0abe
00000090: 7d91 31bc ac0a 213d 7e22 ddba 3a92 0b3d
000000a0: 51cb 44bd ce7f 3dbd 0809 f2ba 225c 1f3d
000000b0: b0d5 8bbb a339 033b fa09 703d 4b3f 51bb
000000c0: 98c6 9e3c 200d 7a3c dcd8 08bd 2e08 63bb
000000d0: ac19 133c c930 ad3c 0971 e8bd 95a7 4a3c
000000e0: 5be9 e03c 0878 65bc 73b2 94bd 002b 303d
000000f0: c034 e9bb d86b 40bc f2b3 453c ceca e0b9
00000100: a0f7 233d 204e 0e3d b085 473d ef8f c7bc
00000110: 5e3a c0bc b41d 35bd c3c2 503d d1e5 dcbc
00000120: 0974 ad3c 80c4 473a c7a7 8cbd 005a d9bc
00000130: cdef 47bd a00a acbc d3f3 e63c 3892 af3c
00000140: a10e d93c ff73 6f3d 3ad1 853c 3142 ad3b
00000150: dbc1 13bd 6c5d 1c3d 276c de3c 5aed 61bd
00000160: a194 92bb 66b8 16bd 5a24 0a3d 9784 22bc
00000170: bed0 20bd 81e2 323d 0ea4 d23b 54bf 58bd
00000180: 882e d1bc b890 d93c 1eb0 4a3d e761 00bd
00000190: c071 babc 707c 93bc 94ef f53c 1a64 65bd
000001a0: d9b8 f93c a1e6 223c efc6 9abd a9d8 793d
000001b0: dfa6 bebc 7da3 92bc fd62 033d 081c 26bd
000001c0: 4679 40bd 3861 88bd d482 cd3c aec3 9d3b
000001d0: ae19 5d3d 1159 a53c 51e5 3a3d c0b6 babc
000001e0: 762c 173d 63ee 943c eeef 103d 76a4 453c
000001f0: 1082 f93c e73a 36bd 88bb 403c d128 35bd
00000200: 3835 cf3c 387e 8c3c cf56 1fbd 01c1 3abd
00000210: faf2 3ebc 4e4e 963d f330 0bb9 fed2 5cbd
00000220: 1a37 053d 806f 993b 7ddb 44bc a803 693d
00000230: 209d 8abb 6f22 e6b9 cd5c 17bb 97df 433d
00000240: ee91 76bd ab1e 97bd 2e3c 113d 1b42 67bc
00000250: 1e53 ec3c 745d 2ebc ea1a 3dbd 4627 52bd
00000260: 44e3 9e3a ceea e7bc 99fb 333d db34 6dbb
00000270: 4256 f5bd 08e9 ed3a 2b5b 183d 0b4b 8dbb
00000280: 1418 4c3d 796f fc3b 1182 f03c 4011 e1bb
00000290: 81f6 1dbb af42 713d 74e4 e03b 5c1f 33bc
000002a0: 6742 5f3c 4027 a2bc 68a2 6d3c 6a4d 00bd
000002b0: 80f0 edbc 313f 083a 69fd 6d3d 880a 1dbc
000002c0: ba59 1fbd 88aa b53c b81f ddbc ee0e 28bd
000002d0: 108c a7bc a6c0 21bd fcae 2ebd 34da 58bd
000002e0: bd0b 80bd 4cd6 cdbc f0cf 283c 828d 4ebd
000002f0: 9311 82bb 6e4f 60bd 4476 f23c e248 7f3d
00000300: c5aa 06bc 55b4 38bb e7cb ee3c d9a5 d9bc
00000310: 1b2f 9fbb 5afe 833c 1c26 043d 6e91 c5bd
00000320: b435 ffbc 2d28 7abd f60a a33c f1d8 8e3c
00000330: d15a efba 1c00 adbb c715 bebd 4591 433d
00000340: 3c1f ca3c 018d ba3b 23ca 4abd 3cfa 92bc
00000350: 4a91 93bd 0d14 dd3c 1419 71bd 2246 d8bd
00000360: 908a 9fbc b60f 45bd 28ba 0d3d d1e9 303c
00000370: 51d9 c3bd e39a a23d 4f0c 093d ca15 0dbd
00000380: 0084 043d a0eb 873c 6180 893c 344d f2bc
00000390: 92ab 7fbd d57d 2bbd 74aa 9f3d b788 c83b
000003a0: 0314 d4bc daf2 333d 7a9b c5bc 6807 b7bd
000003b0: 63ae 36bd 5634 363d 6868 243d e1c7 4bbd
000003c0: a228 96bc ed8c 1fbc c6ed 32bd 1fac 8cbd
000003d0: f6d9 49bd 3a85 173d bce3 50bd 8a68 97bd
000003e0: 05f3 1bbd bc19 b5bc 30a6 58bd 49d0 743b
000003f0: 7ae2 e93c 7192 c9bb 69bc bfbb cad1 d23b
-0.04120207 0.050261706 0.043397874 -0.03205736 -0.057929456 0.058743175 -0.07866356 0.037830137
-0.03373177 -0.0010386407 0.060396068 -0.019474396 0.001276238 -0.044737298 0.024193842 0.02240474
-0.08845822 -0.05567331 0.051322088 0.09466855 -0.05498525 -0.039457757 -0.028147759 0.054766748
0.13110502 0.10547402 0.034305774 0.03338449 0.098028325 -0.03020113 -0.024292417 0.0022949502
-0.062801756 -0.110827364 -0.056093037 -0.1352852 -0.01083791 0.039316818 -0.0016871241 0.034075
-0.04804546 -0.046264462 -0.0018465826 0.038906224 -0.004267417 0.0020023368 0.058603264 -0.0031928595
0.019381806 0.015261918 -0.03340994 -0.0034642327 0.008978289 0.021141427 -0.11349685 0.012369056
0.027455023 -0.014005668 -0.07260599 0.043009758 -0.007116884 -0.011744462 0.012066828 -0.0004287571
0.040031075 0.034742475 0.04871148 -0.024360625 -0.023465332 -0.04421778 0.05096699 -0.026965054
0.021173494 0.00076205283 -0.068679385 -0.026532173 -0.048812676 -0.02100116 0.028192436 0.021432027
0.026496233 0.058460232 0.016335119 0.0052874316 -0.036073547 0.03817503 0.02715118 -0.055157997
-0.0044732844 -0.03679695 0.033726074 -0.009919307 -0.039261572 0.043673042 0.0064282482 -0.05291684
-0.025534883 0.026558265 0.049484365 -0.031343367 -0.022759318 -0.018003672 0.030021466 -0.056003667
0.03048365 0.0099426815 -0.07557475 0.06099764 -0.02327293 -0.017900223 0.032076824 -0.040554076
-0.046990655 -0.06659168 0.025086798 0.0048145866 0.05397957 0.020184072 0.04562885 -0.02279222
0.036907636 0.018180078 0.035385065 0.012063136 0.030457526 -0.044489767 0.011763461 -0.04422838
0.025293931 0.01715003 -0.038901147 -0.04559422 -0.01165461 0.07339154 -0.00013274308 -0.053912155
0.032523252 0.0046824813 -0.012015221 0.056888252 -0.0042301565 -0.00043894674 -0.0023096085 0.047820654
-0.060197763 -0.07378896 0.035457782 -0.014114882 0.028848227 -0.010642398 -0.046168245 -0.051306985
0.0012122174 -0.028310206 0.043941114 -0.0036194834 -0.11979343 0.0018151114 0.03719632 -0.0043119243
0.04982765 0.0077037183 0.029358895 -0.0068685114 -0.0024103227 0.058901485 0.0068631712 -0.01093277
0.013626671 -0.019794106 0.014504053 -0.031323828 -0.029045343 0.00051974045 0.058103 -0.00958503
-0.03890393 0.022176042 -0.026992664 -0.041029863 -0.02045253 -0.039490364 -0.042647347 -0.05294247
-0.06252239 -0.025126599 0.010303482 -0.05042792 -0.00396938 -0.05476325 0.02959741 0.062325366
-0.008219426 -0.0028183658 0.029149963 -0.02656834 -0.0048579103 0.016112495 0.032262906 -0.09646879
-0.031153537 -0.06107347 0.019902688 0.01743743 -0.0018261318 -0.005279554 -0.092814974 0.04774596
0.024673097 0.0056930785 -0.04950918 -0.017941587 -0.07205446 0.0269871 -0.058861807 -0.10560252
-0.019475251 -0.048110686 0.03460136 0.010797934 -0.09562934 0.079396985 0.033459004 -0.034444608
0.032352448 0.016591847 0.016784849 -0.029577829 -0.06241948 -0.04186805 0.07796183 0.0061198133
-0.025888449 0.043932773 -0.024121989 -0.089369595 -0.044599902 0.044483505 0.040138632 -0.049751166
-0.018329922 -0.009738189 -0.04368379 -0.06868767 -0.04928013 0.03699229 -0.050998434 -0.07392986
-0.03807356 -0.022106998 -0.052892864 0.0037355593 0.028550375 -0.0061514904 -0.0058513177 0.0064337

mu_head.bias f4 [2]
00000000: 2999 d2bc 3656 d5bb
-0.025707798 -0.0065105213

model.0.weight f4 [256, 39]
00000000: 4d4e c93d 7268 8dbc 19bc 113e f807 23bd
00000010: 5920 653e 6e43 513e dd21 963e dda6 47bd
00000020: 5010 543d b099 d23d 3127 d83d b1ce 27be
00000030: dbe8 83bd 5882 663c 1abd 8e3d 8994 03be
00000040: fda4 7abd 8a56 3b3d 536d 963e fae3 d83e
00000050: 755a be3d e8b4 13bd 1d56 c0bd fc15 e7bd
00000060: d2a5 2d3d cc23 e5bc 9b24 fc3b daa3 4dbc
00000070: 7f10 9abd ba57 eb3d 06b9 043e 0dfc 383e
00000080: 1bd2 a83e 8f52 853d 54f9 0c3d f491 07be
00000090: 6223 093e d7f8 803d 8cb4 2d3d 626c 41bd
000000a0: 9814 fabd f0b2 d0bc 4f2d a5bc ddb1 0f3e
000000b0: 6850 023e 7299 6d3e e692 073e 90f2 08bb
000000c0: f91e 0d3e 51d8 b13c 4746 67bd 41a2 0fbd
000000d0: e4c2 163e 62bf 0e3c 86ed 0e3e 5f43 ffbd
000000e0: 47ee 123e 3818 863e 5898 bc3c b019 1dbd
000000f0: 6f20 963d bd7b b1bc 8983 a1bc 04d8 c13d
00000100: e1f0 243e 56c0 17be 8b02 fb3d 053a e3bd
00000110: 0674 183d 57b5 ffba 004b 833e 2f9d 6e3e
00000120: 1067 ea3c 34f9 183e a5c3 18bd 6ee5 3a3c
00000130: 2a4c 033d e54b 4a3d 6cbf ebba 750b 3e3e
00000140: c487 6fbe 29ba af3d 67c1 0c3e 04c4 6a3e
00000150: af81 84bd 071b 103c ab4b c93d 28b6 f43c
00000160: 5a0c 4e3d cdd1 eb3d c9e0 2f3e 2942 ac3d
00000170: e502 9dbd 20c3 efbd b67a 9c3d f087 4e3e
00000180: 626c 4e3e a7d2 fe3d 3c1d ff3d 2d0b de3d
00000190: 983e fcbc 0a1e dbbd a395 a7bd 357b 33bd
000001a0: c279 2abe 968d 453e a6f5 02be 4136 323e
000001b0: a0f5 4b3d 3faf 393e 6ef6 38bc 52ba 5b3d
000001c0: 692b 0c3e 49f2 4a3c 240f c2bd d14a 2c3e
000001d0: 3433 313e f48c 913d 6289 43bd 0c5b f13d
000001e0: 4fec 243e e5bf 3e3e 3679 0c3e ad16 7b3d
000001f0: 6f5a c5bd 5721 e13d f8b8 18be 9fd0 683d
00000200: f941 f83d d219 93bd 551f 8bbd 7809 2cbd
00000210: d0c8 f6bd 92cd 92bd cd31 553e ee9f 913e
00000220: 351d 513e 2d0c a6bd 9548 ab3d c54c 06bd
00000230: 1ffa 8a3c 772c 65bd 2370 393e b4ac c63c
00000240: ea64 e53d 81a7 1cbe 6a6c 9dba cc8f 563e
00000250: 6825 b43e 2d96 633e 1805 183e 2258 96bd
00000260: 3185 7a3c 302c 8ebd 132b cf3d ba35 cc3b
00000270: 6881 1d3d babf 0dbe 30ae 943d 9cde 943d
00000280: b2d9 103e 98c6 13be 9236 efbd 9624 f4bd
00000290: 33c6 12be 263b 143e 6066 82bb 1cbe 173d
000002a0: aeae 1fbe 08c1 69bd 8fc1 0abe 484d af3c
000002b0: 0067 673d 547f eebd 4040 9bbc ed27 22be
000002c0: a89f ccbc e050 a03b 00c0 c5b9 a8bc e0bc
000002d0: 14e1 0fbe 0e1c 37bd b6d5 14be c090 18bc
000002e0: d12a 12be 566f 53bd c863 b4bc 802e efba
000002f0: c66f 19bd cd8c fcbd 804f a63b c8ca 0c3d
00000300: 9821 e93c e6a4 09be 8614 083e 29c7 79bd
00000310: 2698 283e 4da2 3c3d 8b0e 253e b299 fb3d
00000320: 1679 b63e d817 893e c049 893d 45ac e43a
00000330: 9642 f53d 8679 103e e68e 26be 6385 ff3d
00000340: 9eb7 fbbc 7019 babd 8fe9 b6bd efe0 913d
00000350: 90dc 003e b165 5d3e 2576 a93e 0429 f93d
00000360: 3b06 96bd 394b 12be 3ad8 ee3d 31ae 653d
00000370: 747e a43b 0698 50bd 377b 81bd 0358 5dbd
00000380: 8443 86bd cd4e 593e 8bc1 833e 042f 413e
00000390: 9e7e edbc 0105 53bd 559f 2abd 4caa c1bd
000003a0: 4e7b c3bd 3a0f 143e ec46 abbd 13cb abbd
000003b0: 7176 0ebe 6846 bfbd 738b 24bd d47c a93c
000003c0: ae64 b4bc e47e 79bc 452c f13d abc7 273d
000003d0: f620 b63d 3c06 163e 13fb 063d fa4e 46bc
000003e0: 2da9 a33d 2cd2 2abe 02aa 08bd 1a9b 72bd
000003f0: 0a69 88bd 3af5 03be ac14 ed3a 0bd6 82bd
0.09829388 -0.017261717 0.1423191 -0.03980252 0.22375621 0.20435879 0.2932271 -0.048743118
0.05177337 0.1028322 0.1055435 -0.1638744 -0.06440898 0.014069162 0.06969662 -0.1284963
-0.0611925 0.045736827 0.29380283 0.42361432 0.09294597 -0.036061198 -0.09391425 -0.1128349
0.042394467 -0.02797117 0.0076947934 -0.012551272 -0.07522678 0.11491342 0.12961206 0.180649
0.32972798 0.065098874 0.034417465 -0.1323927 0.13392404 0.062974624 0.04240851 -0.047222503
-0.12210959 -0.025475949 -0.020163206 0.14032693 0.12725985 0.23203066 0.13239631 -0.0020896532
0.13781346 0.021709593 -0.056463506 -0.035066847 0.14722782 0.008712621 0.13957796 -0.12464022
0.14348708 0.26190352 0.023021862 -0.038354576 0.07330405 -0.021665448 -0.019716041 0.0946503
0.16107513 -0.14819464 0.122563444 -0.11095051 0.037220024 -0.0019509 0.25643158 0.23302148
0.028613597 0.14938813 -0.037295956 0.011407239 0.032055058 0.049388785 -0.0017986125 0.18559058
-0.23391634 0.08580429 0.13745652 0.22926337 -0.06470048 0.008795506 0.09828886 0.029872015
0.050304748 0.11514626 0.17175592 0.084110565 -0.07666568 -0.11707139 0.07640593 0.20169044
0.20158532 0.124425225 0.12456748 0.10841975 -0.030791566 -0.10699089 -0.08182838 -0.04381867
-0.1664801 0.19292292 -0.1278902 0.17403509 0.049794793 0.18133257 -0.011289222 0.053644486
0.13688435 0.012386867 -0.09475544 0.16825415 0.17304689 0.07106963 -0.04773844 0.11784944
0.1610577 0.1862789 0.13718113 0.061300922 -0.096363895 0.10992687 -0.1491431 0.05683958
0.12121958 -0.07182659 -0.067930855 -0.042001218 -0.12050021 -0.07168116 0.20819779 0.2844233
0.20421298 -0.08107791 0.08363453 -0.032788057 0.01696497 -0.055950608 0.18109183 0.024252273
0.112008885 -0.15298273 -0.0012010459 0.20953292 0.3518479 0.22225256 0.14845693 -0.07341029
0.015290544 -0.06942022 0.10115638 0.0062319906 0.03845349 -0.13842669 0.07259786 0.07269022
0.14145544 -0.14431226 -0.1168033 -0.11921041 -0.1433342 0.14475688 -0.003979489 0.037046537
-0.15593979 -0.057068855 -0.13550399 0.021399155 0.056494713 -0.1164538 -0.018951535 -0.15835543
-0.024978474 0.0048924536 -0.0003771782 -0.027433708 -0.14050704 -0.04470449 -0.14534649 -0.009311855
-0.14274146 -0.05161985 -0.022020236 -0.0018248111 -0.03746011 -0.12331543 0.005075395 0.034373075
0.028458402 -0.1344181 0.13289079 -0.06098095 0.1646429 0.04605322 0.16118829 0.122851744
0.35639256 0.26776004 0.0670352 0.001744636 0.11975591 0.14108858 -0.16265449 0.124766134
-0.030727204 -0.09086883 -0.089312665 0.07122981 0.12584138 0.21620823 0.3309795 0.12166026
-0.07325407 -0.14286508 0.11662336 0.056074325 0.005019957 -0.05092623 -0.063223295 -0.054039013
-0.06555846 0.21221466 0.257336 0.18865591 -0.02899104 -0.051518444 -0.041655857 -0.0945631
-0.09545003 0.14458933 -0.08363137 -0.08388343 -0.1391237 -0.09339601 -0.04017205 0.020689406
-0.022020664 -0.015228007 0.11776022 0.040961903 0.088930055 0.14650816 0.032954287 -0.01210379
0.07991252 -0.16681737 -0.033365257 -0.059229948 -0.066606596 -0.12886515 0.0018087826 -0.06388482

model.0.bias f4 [256]
00000000: 0f84 983d 45bd b23d 0608 503e ea5b f2bc
00000010: 4c9d 69bd e33e 49bc c61b 473e ec1e d5bd
00000020: c0e3 b3bb 5786 753c 7acf 3f3e 0cff ad3d
00000030: 1ee7 85bb 6da7 4c3d a75d 833d 6d6a 82bc
00000040: 08af 303d f3f4 02be 56fa 063e f4f1 9d3d
00000050: 08f3 1a3e 3c56 c73c 5a5f b53c c55b 283c
00000060: 938a 1bbe 9bcb fdbd f2b1 883d a7a5 b9bd
00000070: 9ada 3f3e 8068 efbd 95c7 b33d a959 a93d
00000080: 80f1 ca3d 97ef a8bd 5a89 4abd 79ef 843d
00000090: 8b83 073d 5a1d 723d 961c 293d 60e5 ca3d
000000a0: 46d7 403e 5a40 ac3d 02a8 ba3c 1bab b6bb
000000b0: 8e63 553e 402a 6bbd 3642 9dbc 98c0 073b
000000c0: c350 44bd a27b 693d 73c3 2b3d 2333 0dbe
000000d0: 54b6 fa3d c733 433e d719 343e e1fc 83bd
000000e0: f67a df3d 946b f33d 5575 753d 418d 253e
000000f0: c9ba b9bb 1f52 203e 18dd ef3c a63e 30bd
00000100: 1e42 f83b b476 e43d 80bb 01be 6897 153e
00000110: 418f 423e a8d9 5c3d 27f2 d3bd 5bc4 b03d
00000120: 351c babd 7604 3dbd 5b72 343e 5b8e 023e
00000130: 4c29 dd3d 2e65 843d 273d 973d 220f abbd
00000140: e2c2 cf3d 9d87 293e ccff 313e aa21 d7bc
00000150: 3661 37bd 729e 7c3d d336 693c 629a aebd
00000160: 5c51 0e3e 2555 ed3d 9ec3 d4bd 61cc a9bd
00000170: 24a9 433d 3ff8 1f3e 15c6 04be 7daa 1b3c
00000180: b6e9 073e f4b0 bfbd 4afc 0b3d 2ed7 a53d
00000190: 13b6 263e 2018 2a3e 22c5 b93b 502e b6bd
000001a0: 5826 4b3e 278f 093e 6377 3bbc 947d c9bd
000001b0: 5cb0 003d 3c7e e73b ceb4 c9bb 71ac 0d3c
000001c0: a60a 3e3e 4038 31bb 2018 563c c916 acbd
000001d0: 2ff7 16be 7053 453e 0458 373e ea62 4a3e
000001e0: aa80 893d ef3c c0bd 9c7f e63d b0fa 7b3c
000001f0: e3a9 9a3b 9e60 0ebd c0a4 51bb a021 1abe
00000200: a219 4f3e ebf8 3d3d 88d7 073e c0b6 9dbc
00000210: 90ed 173e 1aa8 cfbd 8377 2fba 5bc7 783d
00000220: c637 ad3d bc69 7b3d 8896 bebc df26 243e
00000230: 0989 443e 5114 2abe 7abe c53d 47cc 15be
00000240: 4251 60bd dc54 aabc 6424 dd3d b3c7 113e
00000250: 676c 6cbd 3711 273e 608f 1dbe 6a58 dfbc
00000260: 7e11 efbb c4b9 113e 1da9 353e 91ad debb
00000270: ba3e a3bd 7bca 3e3e a3ac a3bc 60da 123e
00000280: bdfb 553e fcc8 1a3e 80bf 073c f76e 5c3e
00000290: 1669 003e b4c2 f13d 58d4 6e3d 9cd2 0b3d
000002a0: c871 d43d 409b b9bd 542f 403d 9e19 10be
000002b0: 954a 023e d1e4 4c3d 4f75 953d 83ca bd3d
000002c0: fce8 8d3d 3bb8 c0bd 87cc ce3d 593e 213e
000002d0: b930 963d 8f5d bd3c a0a2 b83d 00f7 52bd
000002e0: 44da 69bc ad19 0b3e ede1 c83d a951 cb3d
000002f0: 4219 b93c ea5e eabd 2c07 f03d 14ff d13d
00000300: 3e08 edbd 1380 debd b6b7 463e 908b ffbc
00000310: 0238 ca3b f9fe 8c3d 3896 ba3c ef51 29bd
00000320: 77c0 b7bd 24fa 41bc 6a7a c8bd 90b3 20bc
00000330: af32 163e 0974 03be 5460 f43d 093c 7d3d
00000340: 7a58 3d3e 6187 83bc 0851 babb 3aad 43bd
00000350: 07a9 b3bd db69 143e e0fd 70bc f591 06bd
00000360: fe43 b2bd 5caf a1bd 07c5 253d 1aad e3bd
00000370: c3af 823d d191 133e aaa7 aabd 60d0 1ebe
00000380: 9064 f53c 38fd 473d 605d babb 46b4 c93c
00000390: 5286 1dbe ac13 183d ad42 ae3d 75ca 16be
000003a0: e66a 21be 1adc 243e 9de5 b93d 2059 c23b
000003b0: 3106 8b3b 2e22 083d b192 423e af9f f13b
000003c0: 6095 283e d6d8 d0bd 1548 fb3d 7101 10be
000003d0: ee19 b33d f648 153d 7a4d 8c3d 7f5f 14be
000003e0: af34 2bbd f296 0cbd 6924 2e3e 9152 b43a
000003f0: 3c9c d9bd 322d 87bd 70b7 1bbe 227e f53d
0.07447063 0.087275065 0.2031556 -0.029584844 -0.057034776 -0.01228306 0.19444188 -0.104062885
-0.0054897964 0.014985642 0.1873149 0.08495912 -0.004086389 0.049964357 0.06414347 -0.015919888
0.043135673 -0.12788753 0.13181433 0.077121645 0.15131772 0.024333112 0.022140194 0.010275786
-0.1518958 -0.1239235 0.066745654 -0.09064799 0.18735734 -0.11689854 0.087783016 0.082690544
0.09909344 -0.08248823 -0.049447395 0.06490988 0.033084434 0.059110023 0.041287027 0.09907031
0.1883212 0.084107116 0.02278519 -0.0055745966 0.20838758 -0.05741334 -0.01919661 0.002071416
-0.047928583 0.05700267 0.04193444 -0.13789038 0.122418076 0.1906272 0.17587982 -0.06444717
0.10912125 0.11885753 0.05992635 0.16167165 -0.0056680185 0.15656327 0.02928023 -0.043028496
0.007576241 0.11155453 -0.12669182 0.14608538 0.1899996 0.05391851 -0.10348921 0.08631202
-0.09087411 -0.046146832 0.17621748 0.12749617 0.107988924 0.06464611 0.07384711 -0.08352496
0.10144593 0.16555639 0.17382735 -0.02626117 -0.044770442 0.061674543 0.0142342625 -0.0852554
0.13898224 0.11588506 -0.103888735 -0.08290935 0.047768727 0.15622042 -0.12966187 0.009501097
0.13272747 -0.09359923 0.03417615 0.08097683 0.16280393 0.16610765 0.005669252 -0.08895552
0.19838846 0.13433515 -0.011442038 -0.09838405 0.03141819 0.007064609 -0.006155587 0.00864707
0.1855875 -0.0027041584 0.013067275 -0.084027834 -0.1474273 0.1927011 0.17904669 0.19764295
0.06713994 -0.09386622 0.11254808 0.015379593 0.004719959 -0.03476011 -0.0031989068 -0.1505189
0.20224622 0.046379965 0.13265812 -0.019252181 0.14836717 -0.10139485 -0.0006693529 0.060736995
0.084579036 0.061380133 -0.023265138 0.16030453 0.191929 -0.16609313 0.09655471 -0.14628707
-0.054764993 -0.020792417 0.107979566 0.14236335 -0.057720568 0.1631516 -0.15386724 -0.027263839
-0.0072957864 0.1423102 0.17740293 -0.006795593 -0.079709485 0.18631928 -0.01997978 0.14341116
0.20896812 0.15115732 0.008285403 0.21526705 0.12540087 0.11804715 0.058307976 0.0341364
0.103732646 -0.09062815 0.046920136 -0.14072272 0.12723763 0.050022904 0.072977655 0.09267142
0.06929204 -0.09410139 0.10097604 0.1574644 0.07333512 0.023115901 0.09015393 -0.05150509
-0.01427323 0.13584013 0.09808717 0.09927685 0.022595052 -0.11443885 0.11720118 0.102537304
-0.11573838 -0.10864272 0.19406018 -0.031194478 0.0061712274 0.0688457 0.022776708 -0.041337904
-0.08972257 -0.011839423 -0.09788974 -0.009808436 0.14667772 -0.12837233 0.11932436 0.061824832
0.18490782 -0.016055765 -0.005685929 -0.047772624 -0.08772474 0.14493506 -0.014708966 -0.03285404
-0.08704375 -0.07894775 0.040471103 -0.11117001 0.0638118 0.14411093 -0.08332761 -0.15509176
0.029955178 0.048825473 -0.0056874007 0.024622094 -0.1538327 0.037128136 0.08508811 -0.14725669
-0.15763435 0.16099587 0.090769984 0.0059310347 0.0042426814 0.03323572 0.19001271 0.007373772
0.16463232 -0.10197608 0.12269608 -0.1406305 0.0874518 0.036446534 0.06850715 -0.14489554
-0.04179829 -0.03432364 0.17006077 0.0013757517 -0.106255025 -0.06600417 -0.15206695 0.119869485
