models/mappo_best_backup.pt (torch, 853474 bytes, 14 tensors)

log_std f4 [2]
00000000: be15 87bc 80c0 38bb
-0.01648986 -0.002819091

body.0.weight f4 [256, 13]
00000000: e1a9 8c3e 2b72 dabd a8a9 603e 4033 dd39
00000010: 0813 f5bd c4ca b0bd 0136 b2bd dfd1 9fbe
00000020: d0c8 193b b5e9 643e 6539 06be ec6f 5a3e
00000030: b24d 49bc 50c4 e7bd 508c b6bc aadf 86be
00000040: edfc 883e 6072 0d3c f68e 80be ea46 27be
00000050: a843 5d3d 8304 09be 0006 71be e862 743d
00000060: 00ef 923c 55ff 16be 00ce 603c cab1 473e
00000070: aab6 49be c21a 40be 22e4 75be d229 683e
00000080: 4064 ad3c 8cdf 3f3e e688 d0bd 7041 003e
00000090: f404 c03d d413 97bd f0df f03d e9ec 7a3e
000000a0: f9c9 593c 14a0 3cbe 9a32 063e 187b 0cbe
000000b0: 90bb 71be f947 88be 6eff 993d 05b4 4f3e
000000c0: fcf8 95be 92ca ed3c 1f4c 1ebd dba5 643e
000000d0: 89cf 58be 979b 1fbe 0cc8 1dbe ce43 2bbe
000000e0: 2c7f 8d3d f73a 68be d8c9 8dbe 3078 103e
000000f0: 9068 fbbd 705a b13d 9970 5cbe b606 b1bd
00000100: e821 323d 407d 803e bea1 393e 8d54 553e
00000110: 850d a83d 9406 ecbc edde 1ebe d083 783d
00000120: c2d1 05bd 7471 363e cb82 963e 31e9 40be
00000130: 7340 05bd 07cb a3bc 102f debd e031 a3bc
00000140: 6c2d e73d 623d 703e c5c4 04be ac28 bdbd
00000150: 0b61 79be 4276 b4bd 88ad eabd 46e5 763e
00000160: b052 87bc 58dc 13be 54f7 5ebe 040d e1bd
00000170: 8d54 62be 32e9 1a3e 44c4 c33d 1f78 40be
00000180: a449 1fbe 143c 3ebe 5520 8d3e 1640 093e
00000190: 29c0 82be cc84 853d a4c9 b63d 7dff 69be
000001a0: a796 7e3e 932c 483d 44e7 833e a57d 76be
000001b0: 8f60 6a3e f4ad 573e df0d 95be 90b8 3e3e
000001c0: 2b0d f83d cfaa d13b e354 0e3e 1228 afbd
000001d0: 8a63 5b3e 1357 843b 31ef c03d 67eb d03d
000001e0: bf0b da3d dba4 473e 112b 643e fec4 c73d
000001f0: cc81 13be c317 4ebe 28a1 a6be 929f 8ebe
00000200: 2527 2e3e f6f5 19bd a8e1 503e 4875 6d3e
00000210: 40bc fabd 55b8 853e e859 1d3e 0e86 4a3e
00000220: 8cb1 633e 7f40 483d 9b47 a8bd 724e fd3d
00000230: 49a0 08be 13b5 94bd 63b8 46be 8c45 1d3e
00000240: 3798 a6bd 5567 323e 4a7e d73c 11d2 f53d
00000250: b944 013e 3c8e 55be e1a1 50be 6358 11be
00000260: 7de1 90bd 26f8 be3d 98c4 e0bd 8590 0fbe
00000270: 5e9a a2bd 15eb 1abe caa4 a7bd 950b c8bc
00000280: 4b47 833e be36 93bd c1f3 9a3d a469 90bd
00000290: bae1 fcbc f382 323e 2a60 1bbe f2ba 8fbd
000002a0: e1c1 843e f0de 043d b612 76be 4428 f53d
000002b0: e1bc 803e c8fb 313e 6780 813e 90d5 efbd
000002c0: aee2 483e 786b d33d 41ab 07be 184f 8cbe
000002d0: d5e1 2abe 4c6e 11be db82 8b3e f9fa 95bd
000002e0: 038f 8dbe 82f0 933e c45f 57be 1cc8 1ebe
000002f0: 8e66 29be c661 f0bd 536d 853d 1352 71be
00000300: 6bb2 883e 525d 92be fc5c 043e 182f 43be
00000310: fa5f 08bb d4af 3dbe e42b 33be 3896 073e
00000320: bd33 8e3e bff0 72be 249f 49be 5f66 f03c
00000330: 6f8b 6cbe 83e1 cf3c 390f 623e 9175 893d
00000340: d7b6 42be 6cbc 0fbe 3d64 2abe 7b07 a03d
00000350: 5ca9 91be 59b7 c33d 6523 70be fba9 80be
00000360: ee47 b2bd 8719 87be 9793 9bbe 3715 913e
00000370: 8bff 05bd b4bb 803d 2c51 6abd de95 313e
00000380: 6e23 0c3e dd1e 17be 92dc 01be a4e7 7bbe
00000390: 3018 7a3d 0c38 333e 20b7 ba3d 6039 5e3e
000003a0: 345f 80be f2b8 80be 01f4 63bd aa85 6a3e
000003b0: 0429 90bd a222 943e 8ab6 043e a18a 43be
000003c0: cbcb e7bd d7c8 813c d1bb a13e 5ac7 293e
000003d0: c23c 5b3e 33ee 3d3e 1e88 cbbc 17c0 623b
000003e0: 2a48 39be 492b 21be c001 553e f3bd a6bd
000003f0: 03e7 8b3e 86e3 4e3e 824b 743d 960b 883e
0.27473357 -0.10666307 0.21939719 0.0004219059 -0.119665205 -0.086324245 -0.08701707 -0.31214806
0.002346564 0.22354777 -0.13107832 0.21331757 -0.01228659 -0.113167405 -0.022283703 -0.26342517
0.26755467 0.008633226 -0.2510907 -0.16335645 0.0540196 -0.13380627 -0.23537445 0.059664637
0.01793623 -0.14745839 0.013720989 0.19501415 -0.19698587 -0.18760207 -0.24012807 0.22672203
0.021165967 0.1873762 -0.10182361 0.12524962 0.09375945 -0.07376829 0.11761463 0.24504437
0.013292783 -0.1842044 0.1310524 -0.13718832 -0.23606706 -0.2661741 0.075194225 0.20283516
-0.29291523 0.029027257 -0.038646813 0.22328894 -0.21172918 -0.15586697 -0.15408343 -0.16725084
0.06909022 -0.22678743 -0.27693057 0.14108348 -0.12275803 0.08659828 -0.21527328 -0.08643858
0.043489367 0.25095558 0.18128106 0.20833035 0.08205704 -0.02881173 -0.15514727 0.06067258
-0.032670744 0.17816716 0.29396662 -0.18838955 -0.032532167 -0.019994272 -0.1084882 -0.019921243
0.112879604 0.23460916 -0.12965687 -0.09236273 -0.24353425 -0.088116184 -0.1145888 0.24110898
-0.01651892 -0.14439523 -0.21774036 -0.10988811 -0.22102566 0.1512802 0.09558919 -0.18795823
-0.15555435 -0.18577605 0.2756373 0.13403353 -0.25537232 0.065194696 0.08925179 -0.22851367
0.24862157 0.048870634 0.2576238 -0.24071367 0.22888397 0.21062452 -0.29112145 0.18625093
0.121118866 0.006398536 0.13899569 -0.08552565 0.2142469 0.0040387004 0.09420622 0.102011494
0.10646772 0.19496481 0.22282054 0.0975437 -0.14404982 -0.20126252 -0.32544827 -0.27856117
0.1700712 -0.037588082 0.20398581 0.2318927 -0.12242937 0.26117197 0.15366328 0.197777
0.22235698 0.048889633 -0.08216783 0.12368478 -0.13342394 -0.072611 -0.19406275 0.15358561
-0.081345014 0.1742223 0.026305337 0.120029576 0.12623872 -0.2085504 -0.20374252 -0.14193873
-0.070742585 0.09324674 -0.10974997 -0.14019974 -0.079395995 -0.15128739 -0.08185728 -0.024419585
0.2564033 -0.071881756 0.075660236 -0.07051399 -0.030869354 0.17432766 -0.15173402 -0.07018079
0.25929168 0.032439172 -0.24030575 0.11970571 0.25144103 0.17381203 0.25293276 -0.11710656
0.19617721 0.103232324 -0.13248922 -0.27404094 -0.1668771 -0.14202231 0.27248272 -0.0732326
-0.27648172 0.2889443 -0.21032625 -0.15506023 -0.16543028 -0.11737399 0.065149926 -0.23566465
0.26698622 -0.28586823 0.12926096 -0.19060934 -0.002080916 -0.18524104 -0.17497212 0.13240898
0.27773848 -0.2372465 -0.19689614 0.02934569 -0.23100065 0.025376087 0.2207612 0.06711877
-0.1901506 -0.14036721 -0.166398 0.07813927 -0.28449523 0.09556455 -0.23451002 -0.25129685
-0.08705126 -0.26386663 -0.3038604 0.28336498 -0.032714408 0.062858015 -0.057206318 0.17342326
0.1368539 -0.14757867 -0.12681797 -0.24600083 0.061058223 0.17501849 0.091169596 0.21701574
-0.25072634 -0.25141102 -0.055652622 0.22902551 -0.07039073 0.28932673 0.12960258 -0.19095851
-0.11318167 0.015842838 0.31588605 0.16579953 0.21409896 0.18547897 -0.02484518 0.0034599358
-0.18093935 -0.15739168 0.20801449 -0.08141699 0.27324685 0.20203981 0.059642322 0.2657134

body.0.bias f4 [256]
00000000: 9373 2e3e 7afe 8cbe f019 7cbe 9353 0d3d
00000010: fdef 18be f8bc 0cbe fedd 07be b0f1 88be
00000020: 2671 34bd 81a3 a23d 00e7 2b3e 46bf 793e
00000030: 1e65 923d adec 2abe ab2a 693e fa42 543e
00000040: ddfc 29be e599 7abe 29ca cebd 9906 663e
00000050: 1550 373e 4c33 51be 3242 c43d 7e81 e0bd
00000060: c0c0 f73d 7861 8cbe ceed 44be 31b6 a0bd
00000070: 8c5c 293e 8916 ff3c 9040 17be 4d60 a1bc
00000080: 9570 473e e38b 5abd d365 62be f76a 09be
00000090: d95d 4cbe 7a30 66bd 3681 173d 0e06 2a3e
000000a0: c11f 0e3b 2680 223e ffb8 333e f9a2 553e
000000b0: 2ab2 02be 5723 3cbe 9a2d 19be c701 14be
000000c0: 00b7 92ba 3775 133e 1c01 4cbe 53ee 2ebe
000000d0: 082f f6bc a97c 753e d7c8 4c3d e17f 12be
000000e0: 4ebc df3d d5d3 6d3e 0d73 33be 430c 443e
000000f0: a93a 8bbe 15c8 65bc bd32 e53d 385e d03d
00000100: 78bb 7cbe d465 3fbb 3055 b0bd a3b1 4f3e
00000110: c916 fabd 0b9e 843e b073 44be 2252 1bbe
00000120: d259 263e b018 133e 2c76 ef3d 725e 0bbe
00000130: 20b3 5bbe fc80 1dbd d8e4 983c 5476 4dbe
00000140: b5ed d03d c32a 82be 87f9 8bbe a4e7 263e
00000150: d7b9 1c3d 2e52 5e3e 5093 403d 2392 35be
00000160: c752 013e 8f8a c6bd 9064 debc 5503 acbd
00000170: 6058 b1bd 5af5 6ebe c081 e3bd ae93 ae3b
00000180: f76c d23d 0e9b 333d 36cf 41be f3d3 553e
00000190: a263 133e cc38 533e 8f9f 193c 5ad6 77bd
000001a0: 8ee7 c6bd 6488 753e 683a 773d b71f 2cbe
000001b0: 4200 2cbe ae6a 513e 2598 69bc 8eee b73d
000001c0: d0cc ff3d c7fb 44be e039 79bc 8bab 7d3e
000001d0: 18ef 2e3e 0844 2c3d 0754 74bd 9c91 d53c
000001e0: 552d 223d 1ab8 5b3e e282 673e d963 f73d
000001f0: ce86 89be 90cf 0bbe c11f a83c 1db9 593e
00000200: fbe8 9d3d 6b54 42be 2847 283e 65e4 8bbe
00000210: f54f dcbd df08 603e c551 b73d 5d59 0fbe
00000220: 896f 23bd eab7 db3d 40e8 c2bc b3d5 183e
00000230: dd48 55bc 804e a7bc effe 193e c3ef e7bd
00000240: 52ad d0bd 532b 8abe df52 203e a51a 463e
00000250: 1e60 613e 360e 0b3e 1bc1 183d a182 7dbe
00000260: a096 7e3d 4103 ddbd bc29 13be 161a dc3d
00000270: 9279 3f3e 039d cf3d 2b8b 16be 8878 5f3e
00000280: 3f6e 70be c423 bfbd 6455 893d 6f52 1f3d
00000290: b0bc ca3c e03a 273c b826 e8bd e800 7cbd
000002a0: d32a 863e 603b 763b 401a be3c d400 69be
000002b0: e168 673e 3aa2 e4bc a7c6 083d fc80 0cbd
000002c0: 58b6 2b3e 47d1 8ebe 5baa 2dbe e605 983d
000002d0: d516 59be d0cd a8bd ae57 853e 6c9d 7f3e
000002e0: c0ee 7cbd 3e2b df3c 060f 6cbe f219 5e3e
000002f0: 1e08 3bbe 80f5 793e 8063 33be dd8d 7d3e
00000300: 185c 6cbe 8442 b33d 4aa6 b13c 51f5 9fbd
00000310: 0fd9 9e3d dcb2 32be 87ea e8bb 728b c23d
00000320: 60ff 16be 14f4 4abe d343 263e f64f 133e
00000330: 00b4 d4bc 30bc 723d ee13 a2bd 1c77 23be
00000340: 1e16 653d a76b e9bd 25da cebc f179 293d
00000350: a4a9 10be 283c 82be 1109 f93d ec3e 82be
00000360: 71ba 60be 1b60 0fbd 7548 523e 93a8 7b3c
00000370: 35da 423d b12c 95bd c2ea 173e f646 66be
00000380: 900c 67be 2a25 debd 6c8e 07be 4e9f fa3d
00000390: c32c e03c f0aa 593e c912 92bc 3d30 15bc
000003a0: b223 3ebe 0cab bb3c 6c71 cbbd 0604 58be
000003b0: 726a d83c 4922 4f3e b693 dcbd 783c 013e
000003c0: a57b 183e 55f5 8cbe c3ab 9dbd 5553 0f3d
000003d0: a9c3 74be 6f1e 86be c433 f5bd f07d fd3c
000003e0: 1259 fdbd c6bc 473e 5d8c 253d 0577 813e
000003f0: ebcc 72bd ac29 5ebe b325 903a 411a ec3d
0.17036276 -0.275379 -0.2461927 0.03450353 -0.14935298 -0.13743961 -0.13268277 -0.26746893
-0.04405322 0.07941342 0.16787338 0.24389371 0.07148193 -0.16691847 0.22770183 0.20728675
-0.16600366 -0.24472769 -0.10097153 0.22463454 0.17901643 -0.20429724 0.09582938 -0.10962199
0.12097311 -0.27418113 -0.1923134 -0.0784725 0.1653921 0.031138675 -0.14770722 -0.01969924
0.1947654 -0.053356063 -0.22109155 -0.1341971 -0.19957675 -0.056198575 0.03698846 0.16603872
0.0021686407 0.15869197 0.17551039 0.2086295 -0.12763277 -0.18372856 -0.14958802 -0.14453803
-0.0011193454 0.14400183 -0.19922298 -0.17083101 -0.030051723 0.23973335 0.049996223 -0.14306594
0.10924588 0.23225339 -0.17524357 0.19145302 -0.27193192 -0.014024754 0.11191318 0.10174221
-0.24680889 -0.0029204981 -0.08609998 0.20282607 -0.12211377 0.25901827 -0.19184756 -0.1516805
0.16245201 0.14364886 0.11692461 -0.13610247 -0.2145505 -0.038453087 0.018663809 -0.2006467
0.10201589 -0.2542325 -0.27338812 0.16299301 0.03826317 0.21711037 0.04701549 -0.17731528
0.12629233 -0.09694397 -0.027147561 -0.08399073 -0.08659434 -0.23335782 -0.11108732 0.0053276634
0.1027469 0.043849044 -0.18926701 0.20881633 0.14393476 0.20627135 0.009376421 -0.060507156
-0.09712134 0.2397781 0.060358435 -0.16808973 -0.16796973 0.20450851 -0.0142574655 0.089810476
0.12490237 -0.1923667 -0.015211552 0.2477247 0.17083395 0.042057067 -0.059650447 0.026070409
0.039594013 0.21456948 0.22608522 0.12079591 -0.2686066 -0.13653398 0.020522954 0.21262021
0.07710453 -0.18977515 0.16433394 -0.2732269 -0.10757438 0.21878384 0.08951143 -0.13998933
-0.03990129 0.10728438 -0.023792386 0.1492527 -0.01301786 -0.020423174 0.15038656 -0.11325028
-0.10189308 -0.2698618 0.15656613 0.19346102 0.22009322 0.1357964 0.037293535 -0.24756862
0.062155366 -0.10791636 -0.14371389 0.10747163 0.18698719 0.101373695 -0.14701526 0.21823323
-0.23479556 -0.093329936 0.0670574 0.038896974 0.024748176 0.010206908 -0.1133551 -0.0615243
0.26204547 0.0037572011 0.023205876 -0.22754222 0.22598602 -0.027909387 0.033392575 -0.034302697
0.16768777 -0.2789404 -0.16959517 0.07423 -0.21200116 -0.082423806 0.26043457 0.24962395
-0.061751127 0.0272423 -0.23052606 0.21689585 -0.18264815 0.24410057 -0.17518425 0.24761148
-0.23082006 0.08752921 0.021685738 -0.07810462 0.077562444 -0.17451042 -0.007108036 0.09499253
-0.14745855 -0.19819671 0.1623681 0.14385971 -0.025964737 0.0592615 -0.079139575 -0.15963405
0.055929296 -0.11397486 -0.025250504 0.041376058 -0.14127213 -0.2543652 0.121599324 -0.2543863
-0.21946122 -0.035003763 0.20535453 0.015360015 0.04757138 -0.07283915 0.14835647 -0.22488007
-0.22563386 -0.10846932 -0.13237923 0.12237416 0.027365094 0.21256614 -0.017831223 -0.009105739
-0.18568304 0.02290871 -0.09933743 -0.21095285 0.026417945 0.20227922 -0.10770361 0.12620723
0.14890917 -0.27530923 -0.076987766 0.03499158 -0.23902763 -0.26195094 -0.11972764 0.03094384
-0.123705044 0.19505605 0.040417064 0.25286117 -0.059277456 -0.21695584 0.0010997563 0.11528445

body.2.weight f4 [256, 256]
00000000: 28b0 a6bc 3e83 473d 201e 293d 2b17 40bc
00000010: 140a 6fbd be09 6a3d aed9 5f3d 0adc 2d3d
00000020: 88d5 79bd aa3f 063d 08ca 3b3c 420a cbbb
00000030: c97c 0bbd 4e98 2c3d bf72 48bd fdfb cd39
00000040: 4b12 5f3d c078 48bc 904f debb 1a6d 693d
00000050: 0240 79bd 502e 7ebc 72b1 153d be30 10bd
00000060: fbe2 623d 20d6 c43c 80bc ca3c 8725 fe3c
00000070: fa97 11bd 0002 babc e8b9 55bd 872a 703d
00000080: 7c23 a53c 7db1 f93c 281c 22bc 4026 32bb
00000090: 9481 68bd 3b5e 81bd 78ff 21bd 4a38 ffbc
000000a0: ecaf 063d 17a8 6bbd 3656 033d d7bb 503c
000000b0: ace8 213d c39c 033d ee62 26bd 21db 2bbd
000000c0: e059 573b 0f06 80bc 38f5 4e3c d208 413d
000000d0: 1033 0d3d 0acd ca3c 4793 473d 7020 fa3c
000000e0: be28 49bc 7207 1ebc 2669 d23c 432a 83bd
000000f0: 087d 53bd 293c 003c 21ac 0fbc 49eb 663d
00000100: e00d 89bc e230 613d 2b99 573d f273 9c3c
00000110: ca02 1e3d b859 593c 5cf7 12bd 1f13 d13c
00000120: 2014 79bc ecb3 443d 2ac4 7bbb 861b 713d
00000130: c829 923c 8467 cdbc 041a cbbc de68 603d
00000140: 28e2 713d 2826 bebc 7a0b 78bd b76d 55bd
00000150: a508 0f3d ed9a dcbb aec1 1c3c ddec 6abc
00000160: f092 963c de3e c9bb 50cd 2abc 646b f53c
00000170: 2ca0 4a3d 1853 893c 28dd 073c 8ee1 1ebd
00000180: 4ab4 d3bc 4c37 6dbd dccf 3a3d bca5 523c
00000190: b0b2 cebb 9288 e63c 1949 ddbc 0ebb 123c
000001a0: 4e0b 073d 05c2 e13c d87c 65bd 3e58 3c3d
000001b0: d246 7d3d 2881 0cbd 1405 adbc bfa0 ea3c
000001c0: bcd7 d73c 8470 893c a2a0 7d3d 55f6 71bd
000001d0: 1acb 723d 34f0 ad3c f0e8 7abd 805e 07ba
000001e0: b2b7 483d 188d b73c 72ed f83c 0382 203c
000001f0: 806a 003a b6eb 03bd 4286 833c b269 e63c
00000200: 410b 6abd e030 13bd 80e6 e83b 9613 73bd
00000210: 3ae3 20bd 5a32 d03c 6c00 81bd 3a7f 3f3d
00000220: 32ab 6ebc 753b 933a f426 2bbd 43fe e8bc
00000230: ee57 253c dea9 543d ea08 6dbd d2af 13bd
00000240: 7a81 073d 1cef 96bc db65 0dbd 2831 76bd
00000250: 60f6 52bd 4041 c6bb e80c 54bd 8a6b e23c
00000260: f048 72bc 59ee 17bd ded9 2cbd 01ae 513d
00000270: 3030 4bbd 005a 53bb 268d 703d f7d9 53bd
00000280: 4c1b 9e3c 10c2 073d 6027 edbc 53f0 23bd
00000290: a040 7b3b 08f7 56bd 3859 723d 35de b43c
000002a0: 3a57 fbbc d3c2 03bd ace8 3ebd 789c 9abc
000002b0: 025f b6bc a4fb 0cbd b807 ac3c b8c8 b23c
000002c0: d7c0 58bd 2a82 28bb 9674 c9bb 4243 9cbc
000002d0: e675 7ebd b431 3a3d 3f92 8b3c 62de 48bc
000002e0: 2c17 6a3d 45d8 67bd 3ad1 3abd 1a2f 3ebc
000002f0: a47c 463d 8cb9 423d 5fed 34bd 071b 6a3d
00000300: 00ad 633b fbaf 3a3d 4067 d1bc a815 983c
00000310: 00ce 39b9 fc07 24bd 58f7 bdbb e2a7 b73c
00000320: 6cd6 d4bc c017 843a 525a 683d 5be4 49bd
00000330: ccf4 6bbd a82e 4e3c 01ee 8dbc a03d c83b
00000340: 00f7 e73c 6474 6a3d 647d 443c 8ce6 32bd
00000350: f9f0 0cbd 7092 b43c d6af a03c 3e64 663d
00000360: 4013 7fbd 87f7 803c 159e 343d 41aa 6f3d
00000370: 16aa ccbc 5541 6abc 8815 493d 6c93 83bc
00000380: 2a45 61bd 5ee6 203d db63 e73c 949b 363c
00000390: d6a3 7dbd fd8a 0f3c 12f8 5d3d c982 8f3c
000003a0: 78bd 493c 330e 903c 40cd 363c 78f1 763d
000003b0: b064 043d 2ac0 59bc b14d 67bc 19be 923c
000003c0: fc52 7cbd d078 603d b48b 3bbd 3a7d 6dbd
000003d0: 79f9 55bd 06c4 373d 94ba babc 80fd d13c
000003e0: e00f 88bc 8e46 d9bc 57da 403d 702a d73c
000003f0: fa80 653c 6db4 433d 8d22 cf3c 1f2b 2f3a
-0.02034767 0.048709147 0.041288495 -0.011724274 -0.05835922 0.057138197 0.054650955 0.042446174
-0.060994655 0.03277556 0.011461742 -0.006196291 -0.03405455 0.042137437 -0.048937555 0.00039288393
0.054460805 -0.01223582 -0.006784387 0.056988813 -0.06085206 -0.015513971 0.03654618 -0.035202734
0.055392247 0.024027884 0.024748087 0.031023754 -0.035545327 -0.022706032 -0.052179247 0.058634307
0.020158522 0.03048014 -0.009894408 -0.0027183443 -0.0567642 -0.06316801 -0.039550275 -0.03115477
0.032882616 -0.05753335 0.03206464 0.012740097 0.039528534 0.03213192 -0.04062169 -0.041957024
0.0032859966 -0.015627889 0.012631707 0.047127552 0.034472525 0.024755973 0.04872444 0.030533046
-0.01227778 -0.00964533 0.025684904 -0.06404545 -0.05163291 0.007826843 -0.008769066 0.05637673
-0.016730249 0.05497826 0.052636307 0.019098256 0.03857688 0.0132660195 -0.03588043 0.025521813
-0.015202552 0.04802315 -0.0038416483 0.05886414 0.017842188 -0.025073774 -0.024792679 0.05478751
0.05905357 -0.023211554 -0.06055782 -0.052106585 0.034920353 -0.006732336 0.009567661 -0.014338699
0.018380612 -0.0061415276 -0.010424927 0.029958434 0.049469158 0.016763255 0.008292474 -0.038789324
-0.025842804 -0.057914063 0.045608386 0.012856897 -0.0063079223 0.028141294 -0.027012395 0.00895573
0.032969765 0.027558336 -0.056027263 0.04598259 0.061835118 -0.03430286 -0.021120586 0.028641103
0.026347987 0.016777284 0.06192077 -0.05907281 0.059275724 0.021232702 -0.061257303 -0.0005163923
0.04900331 0.022406146 0.03038666 0.009796622 0.0004898682 -0.032207213 0.01605523 0.028126571
-0.05713964 -0.035935283 0.007107556 -0.05934485 -0.0392792 0.025414634 -0.062989086 0.046752192
-0.014567183 0.001123293 -0.041785195 -0.028441554 0.010091765 0.05191981 -0.05786983 -0.036056347
0.033082463 -0.018424563 -0.034520965 -0.060105473 -0.051504493 -0.006050259 -0.05177012 0.02763917
-0.0147878975 -0.03709254 -0.04219996 0.051191334 -0.049606502 -0.003224969 0.05872836 -0.05172154
0.019300126 0.033144057 -0.02894944 -0.040024113 0.003833808 -0.05248168 0.059167117 0.022078613
-0.030681241 -0.03216822 -0.046608612 -0.018873438 -0.0222621 -0.03441967 0.020999774 0.021824226
-0.05291828 -0.002571235 -0.0061479313 -0.01907504 -0.062124155 0.045457557 0.017037509 -0.012260051
0.057151005 -0.056602735 -0.04560969 -0.01160791 0.04845871 0.047540233 -0.044171687 0.05715468
0.0034740567 0.045577984 -0.025561929 0.018565014 -0.00017719716 -0.040046677 -0.005797308 0.02241892
-0.02598115 0.0010077879 0.05672676 -0.049290042 -0.057606503 0.012584366 -0.017325403 0.006110862
0.028316021 0.057239905 0.011992786 -0.043676898 -0.034409497 0.022042483 0.019615095 0.056247942
-0.062274218 0.01574303 0.04409607 0.058511976 -0.024983447 -0.014297803 0.0490928 -0.016061507
-0.0549976 0.039282195 0.028245857 0.011145491 -0.061923824 0.008761165 0.054191656 0.017518418
0.012313239 0.017584896 0.011157334 0.060288876 0.032322586 -0.013290444 -0.014117644 0.017912911
-0.061602578 0.054802716 -0.04578753 -0.057980753 -0.05223987 0.044864677 -0.022794046 0.025633574
-0.016609132 -0.0265229 0.047083225 0.026265353 0.014007801 0.04777949 0.02528503 0.0006682146

body.2.bias f4 [256]
00000000: b77a bfbc bbbf 63bd 5a3c 1dbc 371e cc3c
00000010: 08d0 6a3d ac9d d93c 5779 333d 0883 4b3d
00000020: 8094 dd3c fe91 b93a 96e2 6dbc 3d34 283d
00000030: f447 c9bc 9ea1 213d a911 65bd ea98 41bd
00000040: b57a 4cbc 1399 3f3c 546b a8bc dfaf 2a3c
00000050: fe9c 53bd 9a00 5d3d 5443 b2bc b504 d83c
00000060: 43b9 4f3d 1516 253c 14c5 eebc 98ae 0339
00000070: 0e1c d3bc 201b 81bc 78e6 37bd 648f 3b39
00000080: 4d2e 78bb 25c7 1a3d 564a 0ebd 0db2 4c3d
00000090: c7fa 1f3d 5512 ae3c 9e32 6a3b 271c 1e3c
000000a0: 04f1 78bd 034c bbbc cb31 f9bc e5e4 05bd
000000b0: b941 3abd 5937 083d 1c02 a13c 17c5 563b
000000c0: dae3 39bd f179 563d ec40 83bc c3d0 deba
000000d0: 884d 03bc 949b 7fbd ca91 0d3d 63ca 33bc
000000e0: 8c8a 5f3d 5e94 1abd caa7 74bd dfb0 76bc
000000f0: 2713 41bd 3d58 58bc 1ce3 6c3d 6261 123d
00000100: fe01 273d ec5a 043d e121 253d a06b 6c3b
00000110: dd60 5c3d 6ce9 b53c c98a 1fbb c9b8 c03c
00000120: c2d8 363d d0e4 163c 2f62 b43c 43c5 473c
00000130: f0d1 07bd fe1d 5d3d d5ce 343d e622 13bd
00000140: 864f ab3b bebc 75bc 9664 eabc ecb4 a03c
00000150: 085b f9bc 80ab 903a ca8e 37bd aed3 f13c
00000160: 72de bcbc 66fe 31bd 2e1b 17bd 6db4 2e3c
00000170: 2842 0abd 77a6 753d 6f99 42bd 10f2 66bc
00000180: 0812 6b3c a62f 65bd d39d 9fba 121c 8dbc
00000190: f920 543d c4da 41bd 5065 443c 9f51 40bd
000001a0: 8d58 22bd 42e0 4fbd 3044 d63b 17df 683d
000001b0: 9984 1cbd f607 80bd cf3b 683d fc59 41bd
000001c0: 0265 ca3b badc a33c 3c08 70bd 8128 783c
000001d0: 0231 013d e6f8 eabc e475 9c39 09b4 463d
000001e0: ff9b 163d 20e3 54bd b1c0 84bd 76dc ee3c
000001f0: f6b6 b93b f0c7 c0bc a49f febc 303f 523d
00000200: 6125 fd3c e028 ef3c 1ec6 a4bc a4f2 42bd
00000210: 3bf0 8b3a 64bf 5f3c ec81 b43c 4017 1f3d
00000220: b74f e93b 78f3 70bd 8243 693d da13 763d
00000230: 5683 6ebd eb85 0f3d 699c 413d 8e6d d63c
00000240: 3dac 053d b803 e43c 6216 753d 6a39 59bd
00000250: 18d4 e5bc c029 013d 0ea9 433d 2d3b b3ba
00000260: 75a0 4cbd ab4d 613d 4109 003d dc71 1ebd
00000270: b6f4 00bd f41f 933c a010 bdbc e221 1cbd
00000280: 3e5f 443d 95eb c33c 3ba8 553d d811 403c
00000290: 1281 353c c030 9fbb ccc5 a43c deef 5b3d
000002a0: 9b8f 5d3c 98d6 263d 06be b9bc 34fe c63c
000002b0: d83a 97bc 517e 553d 316d 2ebb 83a5 ac3c
000002c0: 848d 513d 4039 913c 4874 1cbd e02f b83c
000002d0: 3364 173d 0c24 e0bc 0bb1 123d d8fd c93c
000002e0: 979f 5d3c dfb2 683c e4db fabc 5cfa 31bd
000002f0: be00 fd3a 01ff 393d ec5f 673c fca1 3b3d
00000300: d2fa 60bc e670 43bd 2260 223d f643 11bd
00000310: 0c8b 5b3d 97c7 2e3d d07c 063d b32e 3bbd
00000320: 3065 e13c dcfd 39bd bbd7 9ebc c2c3 533c
00000330: dc06 0c3c 16b5 37bd 5f31 46bd 30d7 49bd
00000340: d1b7 14bd 36fa 233d 4a10 3f3d fe78 ae3c
00000350: 3c75 19bd ca79 3abd 00d9 8f3c 8274 c2b9
00000360: a25a 253c 72bc 2a3d b943 06bd f85f 35bd
00000370: 0d55 4bbd fac8 453d 5b85 0b3d ac7f 32bd
00000380: e092 ef3c b0ca 38bd 24b9 bd3c 6ab7 e73c
00000390: 7f97 003d 6231 0c3c 9091 633d f854 43bd
000003a0: 759f d4bc 9036 723d 6c58 3fbc 7504 45bd
000003b0: 6d13 033c d7cb 623c debd 35bc 42d7 1f3d
000003c0: 6a1d d23c 5cf2 8bbc b414 51bd d207 a4bc
000003d0: 3895 2bbc f605 883b 2c3c 6cbd b379 56bd
000003e0: 81e8 fa3b edfe 1a3d 36cf 083d 5ae8 533d
000003f0: d6ab 41bd c82e 133d 89ea 4abc efb5 56bd
-0.023373945 -0.05560277 -0.009596908 0.024916751 0.0573273 0.026564442 0.04381689 0.049685508
0.02704835 0.0014157889 -0.014519354 0.041065443 -0.024570443 0.03946077 -0.055925045 -0.04726497
-0.0124804275 0.011694211 -0.02055899 0.0104179075 -0.05166339 0.05395565 -0.02176062 0.026369432
0.05071379 0.010076066 -0.029146709 0.00012558175 -0.025770213 -0.015760005 -0.044897527 0.00017887127
-0.0037869394 0.037787575 -0.03473886 0.04997449 0.03905752 0.021248976 0.0035735737 0.009650267
-0.060776725 -0.022863394 -0.030419251 -0.032688994 -0.045472834 0.03325591 0.019654326 0.0032771283
-0.04538331 0.052362386 -0.016022168 -0.0016999472 -0.00801409 -0.06240423 0.034562863 -0.010973546
0.054575488 -0.03773915 -0.05973033 -0.015056818 -0.047137406 -0.013204631 0.057833776 0.035737403
0.040773384 0.032313272 0.040315513 0.0036074892 0.053803314 0.02220603 -0.0024344197 0.023525612
0.04464031 0.009209827 0.022019474 0.012193027 -0.033159196 0.05398368 0.044142563 -0.035921954
0.005227986 -0.014998613 -0.028612416 0.01961752 -0.030438915 0.0011037439 -0.04481391 0.029519882
-0.023055289 -0.043455504 -0.036891155 0.010663134 -0.033754498 0.059973206 -0.047509607 -0.014095798
0.014347561 -0.055953644 -0.0012177773 -0.017225299 0.051789258 -0.04732777 0.011987045 -0.04695284
-0.03963523 -0.05075098 0.0065388903 0.05685338 -0.038212392 -0.062515184 0.056697663 -0.047204956
0.006176592 0.020002712 -0.058601603 0.015146376 0.031540878 -0.028683137 0.00029842474 0.04851154
0.036769863 -0.051974416 -0.064820655 0.029157858 0.0056675626 -0.023532838 -0.031081982 0.05132979
0.030901613 0.029194295 -0.020114 -0.04759468 0.0010676453 0.013656471 0.022034608 0.038840532
0.0071200985 -0.05882594 0.056949146 0.060077526 -0.05823072 0.035039824 0.047268305 0.026175287
0.032634962 0.027833804 0.0598358 -0.05303327 -0.028055236 0.031533957 0.047768645 -0.0013674252
-0.04995771 0.05500571 0.031258825 -0.038682804 -0.031483375 0.017959572 -0.023079216 -0.03811825
0.047942393 0.023916045 0.05216239 0.011723004 0.011078136 -0.0048581064 0.020113848 0.053695552
0.013523008 0.040731996 -0.022673618 0.024291135 -0.018460676 0.052122418 -0.0026615376 0.021075016
0.05116035 0.017727494 -0.038196832 0.022483766 0.03696079 -0.027360938 0.035813373 0.024657175
0.013526819 0.014202802 -0.03062243 -0.043451652 0.0019302589 0.045409206 0.014121991 0.045808777
-0.013731675 -0.04771509 0.03964246 -0.035465203 0.053599402 0.042670812 0.032833874 -0.045698833
0.02751407 -0.045408115 -0.019389978 0.01292509 0.008546557 -0.04485043 -0.048386928 -0.049277484
-0.036308113 0.04003354 0.046646394 0.021297928 -0.03746532 -0.045526303 0.017559528 -0.0003708937
0.010092409 0.04168362 -0.03277943 -0.044280976 -0.049641658 0.04828737 0.034062725 -0.04357879
0.02924484 -0.045115173 0.023159571 0.0282857 0.031394478 0.008556696 0.05555874 -0.047688454
-0.025954941 0.059134066 -0.011678796 -0.048099954 0.008000237 0.0138425445 -0.011092631 0.039023645
0.025648791 -0.01708334 -0.051045135 -0.02002326 -0.010472588 0.004151101 -0.057674572 -0.052362155
0.007657111 0.037840772 0.033400737 0.05173526 -0.047283016 0.035933286 -0.012385019 -0.0524196

mu_head.weight f4 [2, 256]
00000000: ef30 17bd 5338 47bd 0990 3fbd f001 21bd
00000010: b81d 68bd b43a 0a3d 66e3 e1bc ff3c 0fbd
00000020: 41e9 c3bb a2f7 de3c 3f9f 99bc f408 c63c
00000030: 903d 033c 839b 443c de76 4abd 1489 9d3c
00000040: 5406 22bd 7966 0fbd c88e 853c 593c 2c3d
00000050: e87d 253c acb1 9dbc 687d 413c f945 24bd
00000060: f5be 343d 6a05 8bbc b871 063d 59ac fa3c
00000070: 1f34 9abc b4ab c4bc 1f9f b73c 6157 163d
00000080: 5fe2 30bd 885e 4a3d b34d efbb 3fe8 d43c
00000090: b8ef 0fbd 7975 4f3b 7557 a5bb 021d 1ebd
000000a0: 70be babc 2175 c03c 52bf 36bb 9a25 fa3c
000000b0: 6b58 2ebc f412 483d f4a1 883c aa9f 35bb
000000c0: 6ac0 40bd 5b54 0a3d 6c2b 05bd bbad d0bb
000000d0: 00af a93a d08a c53b f43e 49bd 8317 2abd
000000e0: a25c ebbc aeeb 0dbc f4b2 7dbd 7f3d 5bbd
000000f0: 4c62 b9bc 4418 303d 8293 45bd 72cb 57bd
00000100: 9bac 19bb cb19 3c3d 899b ebbc 92c1 65bd
00000110: ce7b 123d 49a7 3c3c 1059 e13b 932f 073d
00000120: b006 d2bc 5936 02bd e792 4d3d f5d1 1b3d
00000130: 4776 80bd 7074 953b b2c5 94ba a45a 15bd
00000140: 77f5 a03b 1f8a adbd 4dca 94bb 3794 ef3c
00000150: 5093 31bd 96c3 2f3d e0fa 283c 3344 27bd
00000160: 5972 c93c b0b5 0b3c 0253 76bd c6a5 d7bc
00000170: 7430 943c 3240 7d3d 7d2d b0bc 72c2 cbbc
00000180: fa61 75bd b9a6 c53c fc8d 613d e37c 8bbb
00000190: 1590 4a3d 21dc 463d 603e 63bb 1411 4f39
000001a0: e060 b03c 71d8 aebc 9e84 523d bc89 fcbc
000001b0: a1d2 5c3c b95d 0cbb cc3a 29bd 5cb3 44bd
000001c0: b399 663d 18bb 7ebc b868 223d 01a9 6cbd
000001d0: 2df8 58bc 496f eebc e97b 64bd 9eb4 7b3c
000001e0: 2a1f f8bc 3438 963c 6b3d f63c 719c aab7
000001f0: eae6 373c 5c2d 60bd 789a 34bc c4ef 77bd
00000200: 78d3 e2bc fa53 19bd a648 5cba 5e40 18bd
00000210: a8fe 123d 456c dabb 1bb5 90bc 7b33 d83c
00000220: 5c47 b2bb 803e f2bc 11ed 39bd 2db9 51bd
00000230: 2441 b9bc 45e7 6e3c 8e06 453c 0a34 7a3d
00000240: 9424 02bd 6a48 853d 536e 6a3b 9cf6 15bd
00000250: 6813 e73c 2c46 06bd c093 5b3d 66db c3bb
00000260: 9a99 d5bb 4ff7 ba3c 172a 13bc edad 30bd
00000270: a408 8abc 4ccb 733d a0c9 02bc c263 53bd
00000280: 0ef3 333d 0268 9dbc e930 ea3c 44b5 263d
00000290: dd74 cdbc 62e7 693d 5867 36bc 8c44 dd3c
000002a0: f2e1 40bd 30b3 33bd 10d7 6d3c e0db 07bd
000002b0: aa00 94bc 7ef5 933c 78c1 aebc c320 9a3b
000002c0: a1ad 1c3d ac8e 68bd a073 803b 5053 6d3c
000002d0: ef63 063d b80f 65bd 30b6 463d 903f b0bb
000002e0: 4876 af3c 026e 963c 29c5 6d3d c27e 103d
000002f0: c0c5 76bd f8fc 683d a66b 85bd 0bb2 943c
00000300: 5f89 6cbd 00ba 753a d02e 68bd ed2b 50bd
00000310: b6b2 d73b a0ea 993b dbd1 753c 912f 51bd
00000320: 90e0 723d c087 663d 618c 2f3d 2143 373d
00000330: 154c b13c 0e39 cd3b 5eb9 6b3d baaf 76bd
00000340: 21e5 74bd d5b5 6ebd 3bd7 f43c d52d 333d
00000350: 9c8c c53c a00f 753b 10dd 123c 691f 8cbc
00000360: 412f ffbc 907d 6fbd 9378 40bc 2d58 9cbb
00000370: 0b8e 4dbd 4a49 0fbd 1616 823d fcbc 23bd
00000380: a55d 403d 9e4a 6d3d 1176 7b3d 3e52 ffbc
00000390: 26f1 fb3c 30d1 25bd a29b 64bd 5871 acbc
000003a0: c8bc 353c 5325 2e3c 740d 33bd c97c 53bd
000003b0: 037b 7abc 33ac 133d 666e 993c ae54 ac3c
000003c0: 6abb 253d 0046 67bd e82c 43bc 9528 713d
000003d0: 9014 07bc f3d6 3ebd 8e94 143d 52e7 4a3d
000003e0: f113 813c 9887 edbb 25a1 e5bc f9db 2a3c
000003f0: 3994 87bd 8951 00bd b092 8ebd 7505 2ebd
-0.0369119 -0.0486377 -0.046768222 -0.03930849 -0.056668967 0.03374739 -0.027574252 -0.03497028
-0.0059787338 0.02721769 -0.018752692 0.024174191 0.008010283 0.0119999675 -0.049429767 0.019230403
-0.039556816 -0.035009835 0.016303435 0.04204974 0.010100819 -0.01924976 0.011809684 -0.040105794
0.044127423 -0.016970355 0.032823294 0.03059976 -0.018823681 -0.024007656 0.022414742 0.036704425
-0.043184634 0.04940656 -0.0073029636 0.02598965 -0.035140723 0.0031655713 -0.005045826 -0.038601883
-0.022795886 0.023493351 -0.0027885032 0.030535508 -0.010641198 0.0488462 0.016678788 -0.0027713575
-0.0470585 0.033771854 -0.032512113 -0.0063683665 0.0012945831 0.0060285106 -0.049132302 -0.04152633
-0.028730694 -0.008662147 -0.06193824 -0.053525444 -0.02262988 0.04299189 -0.048236378 -0.052684255
-0.0023448828 0.045923036 -0.028760688 -0.056092806 0.0357626 0.011514493 0.006877072 0.033004355
-0.025637954 -0.03179011 0.050188925 0.038042028 -0.062725596 0.0045609996 -0.0011350422 -0.036463395
0.004912074 -0.0847361 -0.0045407177 0.029245479 -0.04335338 0.042911135 0.0103137195 -0.040836524
0.024590658 0.008527204 -0.060137756 -0.026324164 0.01808951 0.0618288 -0.021506066 -0.024872992
-0.05990789 0.024127351 0.055067047 -0.004256831 0.049453814 0.048549775 -0.003467463 0.0001974742
0.021530569 -0.021343442 0.051396005 -0.030827396 0.013477952 -0.0021418168 -0.04131584 -0.048022613
0.056298923 -0.015547536 0.03965065 -0.057778362 -0.0132427635 -0.0291058 -0.055782232 0.015362887
-0.030288298 0.018337347 0.030058583 -2.0338428e-05 0.011224488 -0.054730758 -0.011023156 -0.060531393
-0.027688727 -0.037433602 -0.00084031594 -0.03717076 0.03588739 -0.0066657388 -0.017664483 0.026391735
-0.0054406356 -0.029570818 -0.0453921 -0.051201988 -0.02261407 0.014581506 0.012025489 0.061084785
-0.031773165 0.065079525 0.0035771325 -0.03661214 0.028207496 -0.032781765 0.053607702 -0.005977082
-0.006518555 0.022823004 -0.008982203 -0.04313462 -0.016849823 0.05952005 -0.007982641 -0.05160881
0.043932967 -0.019214634 0.028587775 0.040700212 -0.025080139 0.05710543 -0.0111330375 0.027010225
-0.04709048 -0.04387206 0.014516607 -0.033168674 -0.018066723 0.018061396 -0.021332487 0.0047036125
0.038251523 -0.056776688 0.0039200336 0.014485195 0.032810148 -0.055923194 0.04851359 -0.005378671
0.021418706 0.018363003 0.058049355 0.035277136 -0.060247183 0.056881875 -0.06514673 0.018151304
-0.057748195 0.00093737245 -0.05668527 -0.05082314 0.0065825833 0.004697159 0.015003647 -0.051070753
0.05929619 0.056281805 0.042858485 0.044741753 0.021642724 0.006262905 0.057549827 -0.06022618
-0.059788827 -0.058278877 0.029887786 0.04374488 0.0241149 0.0037393346 0.008963838 -0.017104821
-0.031150462 -0.058469355 -0.011747497 -0.0047712536 -0.05018429 -0.034982003 0.06351869 -0.03997515
0.046964306 0.05793249 0.061391894 -0.031167146 0.030754637 -0.0404827 -0.055812486 -0.02105014
0.011092372 0.010629016 -0.043714 -0.051632676 -0.015288117 0.036052894 0.0187294 0.021036472
0.040461935 -0.05646324 -0.011912562 0.058876593 -0.008244649 -0.04659171 0.036274485 0.04953701
0.01575658 -0.00724883 -0.028030941 0.010428422 -0.06620068 -0.031327758 -0.06961572 -0.042485673

mu_head.bias f4 [2]
00000000: acf9 10bc 0032 5a3c
-0.008848589 0.013317585

model.0.weight f4 [256, 39]
00000000: 6cf6 113e 92e2 d2bc 194b 2ebe 16a6 383e
00000010: 1de8 13be 7c0d babc a0e1 643d 8fa3 fd3c
00000020: 2f05 3d3e 8d80 943d 9d65 2a3c c006 853d
00000030: 2c5f ed3d 8be9 6c3d bbaa 30bc 84fe 903d
00000040: 160f e2bd d148 f53d ce96 073d dba0 45bd
00000050: d922 033e abd5 433d 014f 2fbc b71d 8b3c
00000060: c129 e4bd 9ba6 963d 3c00 e8bd bd74 d13d
00000070: aeec 64bc 5ea5 a1bd 4531 fb3c 1a1e 743c
00000080: 4cf5 e23c 3cdf 243e b1a2 55bd f050 3e3e
00000090: 4add 73bd d0cd fe3d 46b6 493d d687 1b3e
000000a0: 43fb d2bd fa24 46be 39a4 39bd c7e2 fbbd
000000b0: b1f5 eabd 181a 8abd 27ab e0bd 47a1 4e3c
000000c0: c03a 1d3e 0c31 b7bd 1f45 203e 874c 173e
000000d0: a01e 3fbd 2901 a6bd 5c81 36bd 7680 083e
000000e0: 5210 073d e31c 1e3c 7c42 03be 735b 8d3d
000000f0: 9367 21be 0045 1e3e c2ea 9fbd 68b8 f93c
00000100: 8128 e13d 223b 89bd 7c04 a3bd e52d a9bd
00000110: 1430 68bd 050a f5ba c0fb 10bd d9c0 b13d
00000120: d0fb 883d c561 b43c b91f f83d 91e4 873d
00000130: fb23 d43c 3fbb 5b3d 31b6 f9bd c38f b13d
00000140: 84df bc3d 6f8c 24bd fb78 303e c899 2fbd
00000150: e5ed 00be 5028 a03d 1403 9ebd c931 f3bd
00000160: f751 443d 9cb5 97bd f394 fc3d 37b4 ee3d
00000170: 6587 023e f9e1 8ebc b4b8 e33d bf76 f0bc
00000180: 7bfe c93d 3b84 983d 9c8b d83d f895 a33d
00000190: 27ed fa3d fa4e 7d3d 399b 3b3e 0109 04bd
000001a0: 27c0 0cbe c928 e4bc 5888 03be e3d4 ed3d
000001b0: 19a7 f33d 267c fdbc 4a40 51bd 86fd f9bd
000001c0: 54ec bcbd 5a74 10be 2ffc 063d e4fc 9a3d
000001d0: 9a39 133e 94d5 c93d d810 003e 70b3 bb3d
000001e0: 30e0 12be 4a7b ecbd b6d4 94bd 20c0 fc3d
000001f0: b087 d5bd 50ed 453d a04b 1bbe 3067 193e
00000200: e00b e4bc f423 4a3d 10bf a9bc 4034 da3d
00000210: 5cc4 0c3e 1e30 073e fe68 8e3d 00e7 98bb
00000220: 90d0 cbbc 0c50 4a3d b80b ed3d 0002 ad39
00000230: e424 0a3e ac41 563d d024 f2bc de25 223e
00000240: 870b 21be b9ca 23be 10a8 5fbc 00f2 7ebb
00000250: 9f27 bbbd f0a5 403c 0055 11bc d4df 85bd
00000260: d822 fabc 0039 25bb eea5 38bd 99b6 a9bd
00000270: 7efa 3e3e 319b 423d 1e85 b43d 553d b63c
00000280: d04c 833d 325a db3d a1ea 19bd f828 ef3c
00000290: 0f06 18be f7db ac3d 8e15 fb3d 98bf 303e
000002a0: b820 093e 3c87 fc3c 0b64 3e3d df5b 223d
000002b0: c55e 213e 4620 263e 996b f83c 5ffb 343e
000002c0: 43bf e03d 8d4a dc3d e967 cb3d 54f1 6f3d
000002d0: 7d44 e6bd 0abf 5fbc 1451 2f3e 95e5 0b3e
000002e0: f7fb ebbb e6fc 443e 8374 82bd 1599 5abd
000002f0: f1f7 413e 1a53 a9bc 1d44 0f3e f7a5 113e
00000300: 8cb6 f13d 5e8e ca3d 2670 01bd af3c f23d
00000310: 549f 98bd 906c f33d 8bd0 fc3d ce36 5a3d
00000320: b94f 83bd 9897 ac3d 66b9 c13c 4dd8 083e
00000330: 03d2 0d3e 8b9b 0cbe dbd4 373e 8109 1b3e
00000340: 87c5 91b9 e2c5 493e 1e7b db3b a730 2cbc
00000350: 1c1a 6bbc 4e78 9bbd 6fa6 50bd 1ef8 923d
00000360: 2ca3 8a3d e5b7 e8bd b500 05be bfac 123e
00000370: ee3a d3bd d7bb 6bbd 507f 77bc 487f 27be
00000380: 056b eebc 6810 febd 93a6 e73d 3395 b53d
00000390: d198 6abd 53bf 083d d947 b93c 0aa2 c5bd
000003a0: 18e9 b53c c4bb ecbd 5dba 1c3d f603 a93d
000003b0: 4372 0b3d 1df4 333e 35c1 823b 55a1 0abe
000003c0: a594 393e eb44 0ebe d6ee c63d f261 e33c
000003d0: 6d02 d53d f6ef 6c3d d708 0e3e 6553 a83d
000003e0: 34b9 b73d 047d e1bd bff8 0e3d 95cd 06bc
000003f0: 67bf f6bd a4f9 383e db39 0cbc b105 173e
0.14254159 -0.025742803 -0.17020835 0.18032107 -0.14444013 -0.022711508 0.055879235 0.03096178
0.18459009 0.072510816 0.010400203 0.06495428 0.11590418 0.05783991 -0.010782893 0.07079795
-0.11038034 0.11976779 0.033102803 -0.048249107 0.12806262 0.04781119 -0.010699988 0.016981943
-0.111407764 0.07355996 -0.1132817 0.10227344 -0.013972444 -0.078928694 0.030663142 0.014899755
0.027704857 0.16100782 -0.052157108 0.18585563 -0.05953721 0.12441599 0.049246095 0.15188536
-0.103018306 -0.19350043 -0.04532263 -0.12299114 -0.11472643 -0.06743258 -0.10970145 0.012611694
0.15354443 -0.08944902 0.15651368 0.14775287 -0.046660066 -0.0810569 -0.04455696 0.13330254
0.03297455 0.009650442 -0.1281833 0.06902208 -0.15762167 0.15456009 -0.078084484 0.03048344
0.10994054 -0.06700732 -0.0795984 -0.08260707 -0.056686476 -0.0018695003 -0.035396338 0.08679361
0.066886544 0.022019276 0.121154256 0.066353925 0.025896063 0.05364537 -0.121929534 0.086699985
0.0922232 -0.04017299 0.1723365 -0.042871267 -0.1259075 0.07820189 -0.07715431 -0.1187473
0.04792973 -0.07407686 0.12333097 0.11655467 0.12746961 -0.017441737 0.11119214 -0.029353498
0.098629914 0.07447096 0.105735034 0.07987589 0.122522645 0.061842896 0.18320931 -0.03223515
-0.13745175 -0.02785148 -0.1284498 0.116128705 0.11897106 -0.030942988 -0.0510867 -0.12206559
-0.092247635 -0.14106885 0.032955345 0.07567766 0.14377442 0.0985519 0.12506425 0.09165084
-0.14343333 -0.11546953 -0.07267134 0.123413324 -0.10426271 0.048322022 -0.15165567 0.14980769
-0.027837694 0.049350694 -0.020720989 0.10654497 0.1374678 0.13201949 0.069536194 -0.004666209
-0.024879724 0.049392745 0.11574501 0.00032998621 0.13490635 0.052308723 -0.02955857 0.15834758
-0.15727054 -0.15995301 -0.013650909 -0.0038901567 -0.091384165 0.011758313 -0.008870363 -0.065368325
-0.030534193 -0.0025210977 -0.045080118 -0.08286781 0.18650243 0.047511283 0.088144526 0.022246042
0.06411135 0.10710563 -0.037577275 0.02919434 -0.14846061 0.084403925 0.122599706 0.17260587
0.13391387 0.030826204 0.046482127 0.039638396 0.15758808 0.16223249 0.030324744 0.17674015
0.1097398 0.10756407 0.09931929 0.058579758 -0.11243532 -0.013656387 0.17120773 0.13661797
-0.0072016674 0.19237098 -0.06369879 -0.053368647 0.18942238 -0.020669509 0.13990827 0.14223467
0.11802396 0.09890436 -0.031601094 0.11827981 -0.074522644 0.11885941 0.12344464 0.053274922
-0.0641169 0.08427352 0.023647975 0.13363762 0.13849644 -0.1373121 0.17952292 0.15140344
-0.00027803725 0.19704393 0.0066980263 -0.0105096465 -0.014349487 -0.07591306 -0.050939973 0.07176231
0.06769404 -0.113632 -0.12988551 0.1432371 -0.10313974 -0.057552185 -0.015106037 -0.16357148
-0.029103765 -0.12405473 0.113110684 0.08866348 -0.057274643 0.033385586 0.022617267 -0.09650047
0.022205874 -0.11559251 0.038263667 0.082527086 0.034044515 0.1757359 0.003990317 -0.13538106
0.1812311 -0.13893478 0.09713523 0.027756665 0.10400853 0.057846032 0.1387056 0.08219031
0.089708716 -0.11010173 0.03490519 -0.0082277255 -0.12048226 0.1806398 -0.008558716 0.14748265

model.0.bias f4 [256]
00000000: cfa8 eabd 56eb 993d dc00 ee3d 835d b6bd
00000010: 7047 81bd b626 d83d 9bb5 b63d b147 153e
00000020: fd31 1cbe 5fed 043e bc50 833d 10f6 0c3e
00000030: 645f dfbd fdd7 95bd db74 cebc f158 2f3e
00000040: 3f82 253e 7459 b83d 49f7 dbbd 5022 e83c
00000050: f00a af3d 3015 a8bd 3399 aabd 8ca8 48bd
00000060: 0741 aabc a32e 17be 8e03 16bd 11f5 39bd
00000070: 0299 1ebe e098 3cbc af7a 973c 2dd9 d53d
00000080: af4b df3c 2f01 adbd 143e fcbd 804f cfbd
00000090: b084 833d 2c2f a33d 81a0 77bd c049 d5bd
000000a0: a3a3 333e 206a 9b3d 214f dbbd cc36 64bc
000000b0: 3bfe 873d 2d40 8bbd 9166 583c 59db 23be
000000c0: 10dc c03d d9dd 393e 71c3 17be 7964 3dbd
000000d0: 0c42 7dbd 7bf3 b8bd b2a2 92bd d427 da3d
000000e0: c0b1 2cbb b0bb 0a3e 5376 3f3e dd6a 2b3e
000000f0: dce5 933d 36e8 2d3e 3c19 f3bd 2945 063e
00000100: a2c8 f5bb 5895 953d 5879 65bd 7600 1a3e
00000110: afc2 f7bd d0b6 0f3e 9c7d d7bd 0851 f23c
00000120: eeeb d83d d34a a43d b071 f0bd 76e7 11bd
00000130: 8413 5f3d a5f9 fd3d 40a7 233d c8bf c8bc
00000140: 589d 173d 364d c2bd 6b59 f2bd 1064 b7bd
00000150: fcde e7bd 2232 f23d 5d1b afbd b94d 213e
00000160: 7892 b33d 66c8 58bd ad6c 623d fdd6 7dbd
00000170: ad0e 8abb 0476 03be 4239 abbd d524 193e
00000180: c113 163e e0a7 593d a5e0 6fbd a632 70bd
00000190: 63f6 c63d 1c75 7dbd cf71 273e 2039 77bd
000001a0: 96d2 f0bd eaec d8bd 1a86 b6bd 7253 f23d
000001b0: 8466 0dbd 831e 01be 2c22 373d 7548 793a
000001c0: edd8 173e 67e2 ab3d 61e0 e0bc e637 f33d
000001d0: 0079 933d 6ef2 d23c a925 ac3b b879 1a3e
000001e0: 3faf 89bd b893 e0bd b078 82bc b70f d7bd
000001f0: d4d9 b7bd c30c 8d3d 36b6 3e3e 0213 1ebd
00000200: 5419 4c3d 9040 bd3d 2c8f 193e 229b 05bd
00000210: a1f5 0fbe 044e a7bd d58c 22bc 1bbb cdbb
00000220: 6e91 083c 0689 373e d0d2 2fbc f1b1 0f3e
00000230: 1f93 96bc 7002 cebd d083 243e 8c23 5e3d
00000240: e59b cb3d 4eac 9bbd ee94 b9bd cc8b 17be
00000250: 0b9a 963d ac58 0f3d 4241 c0bd fc44 1dbe
00000260: 732f 92bd 8900 46bb 9274 febd 6822 2f3e
00000270: ad24 e03d 7f80 cebd c974 5e3d 294a 063e
00000280: 907c c63d e720 843d 544a fcbd 7139 0f3e
00000290: 4b0c 1cbe 2671 c7bd ee7e 053e c0bf 32bc
000002a0: 08ea 78bd 10d9 5fbd 6681 0d3e e74c 283e
000002b0: 8d69 263d 94a5 c3bb a691 0c3c b21d d33d
000002c0: 48ae abbd c7c7 a3bd a8fd 823d 8a33 c03d
000002d0: 3358 ca3a 80cf c33b 69b6 17be 4c97 2c3e
000002e0: 0a47 00be 51b7 9e3c cfab 243e 4bd0 393e
000002f0: 45d9 dc3d ed81 673d a205 7d3c af41 343e
00000300: ff09 983d f579 563d 06d6 cc3b c360 ebbd
00000310: 6ae1 1f3d 00d0 eab8 571d eabd 281e cbbb
00000320: 7bb6 783c 76b2 a2bc cb95 633d e2ad 1abd
00000330: 7470 10bd 645c e7bd 25bd 90bd baaf c23d
00000340: eb59 b6bd f7b1 e53d a4a2 c63d 9d76 293e
00000350: f3ae e23d d41c 303e e19c 0a3e fc4a b83d
00000360: cf8b 053d 0bf2 053e 2f89 adbd c4ec 55bd
00000370: 5534 96bc c406 e23d eb7e 2c3e a3c7 9cbd
00000380: 7fbb b43d a403 033e 3543 443e f653 97bd
00000390: 46a9 a93c ec9c 1cbd 93f4 33bd 08ce ee3d
000003a0: 11c8 b8bd 0785 18be c7ea fcbb bb7c 3ebb
000003b0: 8ba4 8c3a 68f2 12bd dd3b 1fbe a098 c7bc
000003c0: b696 8abd c1f5 273e 0b27 6dbd aedf 0cbd
000003d0: 11cd 1c3e 4888 3bbd 6e36 cf3d 6724 a1bd
000003e0: bff1 1e3e 14de cfbd 8e55 4c3d 80a2 d03d
000003f0: 37c9 cfbd c2e5 263e 321d 873d afba 513d
-0.11457979 0.0751559 0.11621258 -0.08904555 -0.06312454 0.105542585 0.08921357 0.1457813
-0.15253444 0.12981175 0.06411883 0.1376574 -0.10906866 -0.07316587 -0.025202205 0.17123772
0.16162966 0.09001437 -0.10740525 0.028336674 0.08547008 -0.08207166 -0.08330002 -0.048988864
-0.02078296 -0.14763884 -0.036624484 -0.04539973 -0.15488055 -0.011511058 0.018491117 0.104418136
0.027257768 -0.084474914 -0.12316528 -0.10122585 0.064217925 0.07967982 -0.060455803 -0.10414457
0.17542891 0.07588601 -0.10708452 -0.01392908 0.066402875 -0.0679935 0.0132080475 -0.16001643
0.094169736 0.18151034 -0.14820649 -0.046238396 -0.061830565 -0.09030815 -0.07159938 0.10652128
-0.0026351064 0.1354816 0.18697481 0.16739984 0.072215766 0.16983113 -0.118700475 0.1311232
-0.007500724 0.07303876 -0.056023926 0.15039238 -0.1209768 0.14034581 -0.10522005 0.029579654
0.10591875 0.08022084 -0.11740434 -0.03562113 0.05446197 0.124011315 0.039954424 -0.02450551
0.03701529 -0.09487383 -0.118334614 -0.08954632 -0.11321828 0.11825968 -0.08550141 0.15752305
0.08768171 -0.05292549 0.055279423 -0.061972607 -0.0042131753 -0.12837988 -0.083605304 0.14955457
0.14655973 0.053138614 -0.058563847 -0.058642052 0.09714963 -0.061879262 0.16352008 -0.060357213
-0.11758916 -0.10592063 -0.089122966 0.11832322 -0.034521595 -0.12609296 0.044710323 0.0009509393
0.14828844 0.08392792 -0.027450742 0.11875896 0.07200813 0.025750365 0.005253513 0.15085495
-0.06722879 -0.10965675 -0.015926689 -0.10501044 -0.08977094 0.068872 0.18624195 -0.038592346
0.049828842 0.0924083 0.14996022 -0.03261865 -0.14058544 -0.08169177 -0.009921272 -0.006278408
0.008335454 0.17923364 -0.010731414 0.14032723 -0.0183807 -0.10059059 0.16065907 0.05423312
0.09941844 -0.07601224 -0.09061609 -0.14799422 0.073536 0.034996673 -0.09387447 -0.15358347
-0.071379565 -0.0030212721 -0.12424578 0.17102969 0.10944495 -0.100831024 0.054310594 0.13114227
0.09691727 0.06451588 -0.123188645 0.13986756 -0.15239064 -0.09738378 0.13036701 -0.010909975
-0.060770065 -0.054650366 0.13818893 0.16435586 0.040628005 -0.005970666 0.008579647 0.10308398
-0.08382851 -0.07997089 0.06396037 0.0938483 0.0015437662 0.0059756637 -0.14815678 0.1685459
-0.12527099 0.019374521 0.16081165 0.18145864 0.107836284 0.05652039 0.0154432375 0.17603181
0.074237816 0.0523624 0.0062510995 -0.11493065 0.03903333 -0.000111967325 -0.114313774 -0.0061986633
0.0151802255 -0.019860487 0.055562776 -0.037763484 -0.035263494 -0.11296919 -0.070673265 0.095061734
-0.08903869 0.11215585 0.0969899 0.16549154 0.11068525 0.17198497 0.13536407 0.08998677
0.032604035 0.13080613 -0.08473431 -0.05222775 -0.0183355 0.11036447 0.1684529 -0.07655265
0.088248245 0.12794358 0.19166262 -0.07389061 0.020710599 -0.03823559 -0.043934416 0.11660391
-0.09022535 -0.14894496 -0.0077184173 -0.0029066044 0.001073019 -0.035875708 -0.1555018 -0.02436477
-0.06767027 0.16402341 -0.057898562 -0.034393005 0.15312602 -0.045784265 0.101178035 -0.07868271
0.15521906 -0.1014978 0.04988628 0.101872444 -0.101458006 0.16298583 0.065973654 0.051203426
