models/mappo_best_stage1.pt (torch, 853735 bytes, 14 tensors)

log_std f4 [2]
000000 60 46 12 ba 27 f9 a9 3d
       -0.00055799447 0.08299475

body.0.weight f4 [256, 13]
000000 be 8f 1d be 6c 6a 4b 3e 4c 12 05 be 66 21 6c 3e
       -0.15386865 0.19864815 -0.12995261 0.23059615
000010 64 90 38 bd 10 4a 48 3d d0 27 63 be 49 5a 17 be
       -0.045059577 0.048898757 -0.22183156 -0.14780535
000020 8d 7d 8a 3e 2d 5f 83 3e c4 49 81 3d 6c 6b b4 3d
       0.27048913 0.2565855 0.06312898 0.088095516
000030 b2 b7 8a be d6 57 77 3e ce d3 25 be 5a 2b 3d 3e
       -0.27093273 0.241546 -0.16194078 0.18473569
000040 e0 97 62 be 93 0d 86 3e 32 77 2c be 60 61 38 3e
       -0.22128248 0.2618223 -0.16842344 0.18005896
000050 60 a4 2e be 86 d0 84 bd 1c 11 8a be f0 26 23 be
       -0.17054892 -0.06485085 -0.26966178 -0.15932822
000060 d8 0a 58 3d 1d f3 26 be 08 e5 7d 3e c8 94 26 bc
       0.052744716 -0.16303678 0.247944 -0.010167308
000070 f7 84 94 be 9e bc 7a 3e d0 98 73 3e 82 d6 03 be
       -0.29007694 0.24486014 0.23788762 -0.12874797
000080 a2 18 72 be a7 d1 b3 3e 50 67 12 be c4 7e b3 3d
       -0.23642209 0.3512089 -0.14297223 0.08764413
000090 97 1a 50 3d 3d ac 76 3e 86 e3 91 be 47 e4 81 be
       0.050806608 0.24089141 -0.284939 -0.25369474
0000a0 2a 05 78 3d 35 ea 6d be 3e 68 18 3d 86 5d 19 3e
       0.0605518 -0.23233874 0.037208788 0.14977083
0000b0 a1 74 06 be be f6 43 3d 2f 1d 44 3e 9f d5 d5 be
       -0.13130428 0.047842734 0.19151758 -0.41764542
0000c0 c9 0a 43 bd 66 b9 e5 bc d9 76 03 3d c9 d3 40 be
       -0.047617707 -0.028042506 0.032095764 -0.1883079
0000d0 b0 cf e0 3c 30 64 97 bc 77 da 5b be 58 a9 3e 3d
       0.027442783 -0.01848039 -0.21470056 0.046548218
0000e0 cd 05 06 be d8 fa df 3d c8 78 8a 3d 5e 39 b9 bd
       -0.1308815 0.109365165 0.067613184 -0.09044145
0000f0 60 40 d6 bd 40 65 06 bc 60 0b fd 3d fd ec 68 be
       -0.10461497 -0.008202851 0.12355685 -0.22746654
000100 5a 21 ef bd 02 f6 97 bd 44 16 39 be 08 5f 71 3d
       -0.11676283 -0.07419969 -0.180749 0.05892852
000110 00 df 46 bc a4 58 27 bd 68 58 2c 3d 50 88 f5 3c
       -0.012138128 -0.04085602 0.0420765 0.029972225
000120 20 3e 27 3d da ca 47 3e 8e 44 5d 3e 20 ec 45 3d
       0.04083073 0.19510975 0.21608183 0.04832089
000130 6c 2e 50 be 10 fb 93 bd 49 f6 81 3d e0 65 88 3e
       -0.20330209 -0.07225621 0.06345803 0.26640224
000140 35 dd b7 be 83 92 ba 3e 68 80 8b bd c3 67 ea bd
       -0.35910955 0.36439905 -0.06811601 -0.11445572
000150 56 08 d2 bd e7 65 00 bd 40 7f 67 3e 8e 0a 2b be
       -0.10255496 -0.03134718 0.22607136 -0.16703245
000160 b6 18 ec bd ff 4f 25 be 30 00 e8 bd e5 29 75 be
       -0.11528151 -0.16143797 -0.11328161 -0.23941763
000170 c0 80 84 be a0 b7 46 3e d7 36 3f 3d e5 ce c8 3d
       -0.25879478 0.19405985 0.04668316 0.09805087
000180 dd b3 8c bd 6d 6b 0e be 23 48 6d bd 8e a7 f4 3d
       -0.06870244 -0.13908167 -0.057930123 0.11946021
000190 51 d4 42 be e0 2e 10 3e c7 0f 6e be f4 0d 55 3e
       -0.19026305 0.14080381 -0.23248206 0.20806104
0001a0 2d 72 0e bd 04 fd 02 3e af fb 71 3e 08 13 23 be
       -0.034776855 0.1279183 0.23631166 -0.15925229
0001b0 a7 c6 61 bd e8 36 1b 3d b1 8f 20 3d a7 3f 8c be
       -0.05512109 0.03789416 0.039199535 -0.27392313
0001c0 dc 6e ad be fc 94 44 3e aa c8 84 be d1 ec 96 3d
       -0.33873641 0.19197458 -0.25934345 0.07369388
0001d0 20 5f 54 be 74 51 3f 3e a6 0c 14 3e f0 b7 d4 3c
       -0.20739412 0.18683416 0.1445795 0.025966614
0001e0 22 26 10 be a0 ba 08 bd bc fb 09 3e 30 fb eb 3d
       -0.14077047 -0.033381104 0.13474935 0.115225196
0001f0 67 2a 84 be c8 f6 2a 3e de f1 65 3e c8 2b 02 bd
       -0.258136 0.16695702 0.22455546 -0.031780034
000200 fb de 86 3e 08 a0 18 be ea 3d 54 bd 5c 18 81 be
       0.26341996 -0.14904797 -0.05181686 -0.25213897
000210 44 29 32 3e a4 91 a2 be 1d 7e 29 3e 01 68 90 3e
       0.17398554 -0.3175174 0.16552015 0.2820435
000220 91 a5 63 be d9 d0 1b be cf 08 84 3e cc ad a4 3e
       -0.22231127 -0.15216388 0.2578797 0.32163846
000230 e9 ff 47 3e 33 30 e2 3d 5a b8 02 be fa 1a 6e 3e
       0.19531216 0.110443495 -0.12765637 0.23252478
000240 02 36 3d be 71 51 63 be dc c2 03 be a4 0d f6 3d
       -0.18477634 -0.22199036 -0.12867302 0.120143205
000250 c0 50 da 3d c6 b9 56 be 22 5f e9 bd fd d2 53 be
       0.10659933 -0.20969304 -0.11395098 -0.20685954
000260 2a f8 ec bd 72 30 1c 3e 6a 2f 44 3e 9d 92 87 be
       -0.11570771 0.15252855 0.19158712 -0.26479045
000270 d5 19 54 be 3a a8 9b 3d be cc 79 3e a6 4f 90 3e
       -0.20712979 0.07600446 0.24394509 0.28185767
000280 1d 13 62 bd 01 9e 44 3d 1f 8e 80 bd fb 9a 92 bd
       -0.05519401 0.048002247 -0.062771074 -0.071584664
000290 80 7e 58 3d ef c3 bf be f8 8f 83 3e a2 fd 5a 3c
       0.052855015 -0.37454173 0.25695777 0.013366135
0002a0 68 d7 9c bd 33 f0 7d 3e 19 60 1c 3e 68 a9 45 3c
       -0.07658273 0.2479866 0.15271033 0.012064315
0002b0 8e 61 71 bd 01 63 80 3e 75 fc e6 bc 1b 9c 38 3c
       -0.058930926 0.25075534 -0.028196553 0.011267687
0002c0 f4 fa 2f 3c 9a b0 7c be 84 9d 79 3e 84 d0 83 3e
       0.010740984 -0.24676743 0.24376494 0.25745022
0002d0 77 d2 3f 3e 89 7a 6a 3d ae fd 11 be 0f 82 35 be
       0.1873263 0.057245765 -0.14256927 -0.17725395
0002e0 5a 63 9f be c1 e3 f9 3d 57 ae 8c 3e 90 dd 67 3d
       -0.31130487 0.12201644 0.2747676 0.056607783
0002f0 88 23 c7 3d fa 5a 2c bd e5 cf 89 be f6 93 6e be
       0.09723574 -0.04207895 -0.26916423 -0.2329863
000300 c7 59 bc 3d fe a7 3a 3e 8b 08 23 be 60 ce a4 bc
       0.09196811 0.18228146 -0.15921228 -0.020117939
000310 b0 8f f5 3d f5 f2 85 3e 38 39 7e 3d 4e 11 b6 bd
       0.11990297 0.26161924 0.062066287 -0.08890019
000320 f9 b1 52 be 2a 23 4d 3e 38 d6 05 3e ee 06 73 3e
       -0.20575704 0.20032945 0.13069999 0.23733112
000330 d0 fb 53 3e 80 c2 3f be a0 d0 2d 3d a4 1a 77 be
       0.20701528 -0.1872654 0.04243529 -0.24131256
000340 93 41 d0 3c de 2a 19 3d ac e3 b1 3d 67 ca 41 3e
       0.025421893 0.037394397 0.08686003 0.18924867
000350 9b 88 6c 3e 67 8c 76 bd f1 b6 31 be 24 b5 55 be
       0.23098986 -0.06019249 -0.17354943 -0.20869881
000360 4c 58 78 3d 27 ea 1c bd e4 f0 fc 3d 0d e6 3c 3e
       0.06063108 -0.038309243 0.12350634 0.18447132
000370 f1 65 3e 3e eb d1 9d bc 15 df 26 bd 7f 12 64 bc
       0.18593575 -0.019265136 -0.04074009 -0.013920425
000380 4f ae 7e bd 35 79 90 bd 20 2a 3f be 5c 7f 1f be
       -0.062177952 -0.070543684 -0.18668413 -0.15575927
000390 e3 ad 0d be 67 e5 b7 3e 38 f9 85 bc ce 32 44 be
       -0.13835864 0.35917208 -0.016354188 -0.19160005
0003a0 a9 c0 71 3e 24 76 81 3e fd 8b e8 3d c5 f8 cb 3d
       0.2360865 0.25285447 0.11354826 0.099595584
0003b0 01 ca a7 bd a6 ef f0 bc 48 0b 28 be 0f 10 6b 3c
       -0.08192826 -0.029411148 -0.16410553 0.01434709
0003c0 f7 cd 8a 3d 9a 1b 91 3d 24 3e 44 be ec b6 18 be
       0.06777566 0.07085343 -0.1916433 -0.14913529
0003d0 8f 01 33 3d 41 6f 2b be 5b 4c 09 3d 76 ab 24 be
       0.04370266 -0.16741659 0.033520084 -0.16081032
0003e0 d2 0e 3f bd 66 66 26 be 92 82 de 3d 4d a5 2f 3e
       -0.046644993 -0.1625 0.10864748 0.17152901
0003f0 65 f0 de 3d ad 87 05 be 9a 4d a4 3e 56 06 09 3e
       0.10885695 -0.13040037 0.32090455 0.13381323

body.0.bias f4 [256]
000000 a0 b1 70 bd f0 fe 50 be 09 df 2d 3e 2d 30 36 3e
       -0.058763146 -0.20409751 0.16979612 0.17791815
000010 54 4b f2 3d b0 d1 11 3d a3 21 39 3e 34 20 ee bd
       0.11830774 0.035600364 0.18079238 -0.11627236
000020 a0 99 56 3e a7 64 85 be 02 c0 fd 3d 2f 79 14 be
       0.20957041 -0.26053354 0.12390138 -0.14499353
000030 8a 2c e2 3d ce 5c 6e be f3 ff 71 bd 6e de c7 bd
       0.110436514 -0.2327759 -0.059081983 -0.09759222
000040 fa 7a 82 bd c4 56 26 be e4 ae 9c bc 02 89 2d 3c
       -0.06371112 -0.16244036 -0.019126363 0.010591747
000050 70 ab 87 3c bc 33 99 bd 77 a3 41 3e 27 61 c2 bc
       0.01656124 -0.07480571 0.18910013 -0.023727966
000060 fb a8 4d 3d 07 02 d8 bb c6 d6 86 be 3f 72 5d be
       0.05020998 -0.0065920386 -0.26335734 -0.21625613
000070 5a e8 d8 bb 32 4e d6 3d 4f 4c 53 be 83 8a 87 be
       -0.0066194953 0.10464133 -0.20634578 -0.26472864
000080 e1 69 53 3e f2 cf 2b be 05 71 80 3d b5 31 83 be
       0.20645858 -0.16778544 0.06271557 -0.2562386
000090 61 40 cd bd aa 98 98 3d 44 7c 3f bd 0f 09 2f be
       -0.10022045 0.07450993 -0.04674937 -0.170933
0000a0 98 70 69 bd 00 9f 90 bc cc 59 4c bc 50 8b eb 3d
       -0.056992143 -0.017653942 -0.012472581 0.11501181
0000b0 47 b5 b7 bd eb a1 5a 3e c5 17 72 be 6b 15 72 3e
       -0.08970123 0.2135083 -0.2364188 0.23640983
0000c0 bc ea 3e 3e 0b e0 f3 3d 0b ba 70 3e 4b 41 de bd
       0.18644232 0.11907967 0.2350847 -0.108522974
0000d0 bb 3d ed 3d ef 64 7c 3d 47 25 71 3c 88 53 6f bd
       0.1158404 0.061619695 0.01471836 -0.05842927
0000e0 30 c4 63 3e a3 ed 1e 3e aa f8 4b bd af 63 9e 3d
       0.22242808 0.15520339 -0.04979769 0.07733857
0000f0 6e ee 33 be 89 8d f9 bd aa 00 62 3e b9 78 72 3e
       -0.17571422 -0.12185199 0.22070566 0.23678865
000100 ed 05 8a be 57 1b 8b be f0 ba 92 3e 37 b7 ff 3d
       -0.26957646 -0.27169296 0.28658247 0.12486117
000110 ed b2 60 3e 50 98 19 3d 0a 04 38 be c0 bc 86 be
       0.21943255 0.037498772 -0.17970291 -0.2631588
000120 82 67 59 be d6 6b 8d bd 74 cf 0c be 2d db 7c 3e
       -0.21230891 -0.06905334 -0.13751012 0.24692984
000130 3e 48 35 3e 20 0d 7f 3d e3 d0 0a be 1a 6e fb bd
       0.1770334 0.062268376 -0.13556246 -0.122768596
000140 14 d7 26 bd b5 e2 09 bd f4 cb 83 3e a9 e8 23 be
       -0.04073246 -0.03366347 0.2574154 -0.16006722
000150 a0 94 ba bc 3b 57 fa bc 3c 4b 38 bd 26 4b e0 bd
       -0.022775948 -0.030559173 -0.044993624 -0.109518334
000160 a3 ed 39 be af 7e d2 bd cf 61 fd bd 61 9b 12 be
       -0.18157057 -0.10278069 -0.12372171 -0.14317085
000170 47 b7 3a 3e 99 c7 7d be 1d 64 60 3e b9 b5 7a be
       0.18233977 -0.24783172 0.2191319 -0.24483384
000180 c1 2c 69 be 32 7f 42 bd a6 28 39 3d 3a 13 3e be
       -0.22770979 -0.047484584 0.04520478 -0.18562022
000190 49 a4 f0 3c 8e 8a 8e bd 56 4a 1c 3e dd b2 82 bd
       0.029375212 -0.06960021 0.15262732 -0.06381772
0001a0 60 ca fc bc 4f 1c 43 bd 74 e1 18 3e d2 ac ef bd
       -0.030858219 -0.04763442 0.14929754 -0.11702885
0001b0 e8 69 f3 bd 2f 0d 23 3e 21 58 ba bd 37 29 d6 3c
       -0.118854344 0.15922998 -0.090988405 0.0261427
0001c0 9f e6 0a 3d cc 75 78 be 1b 8b 69 bb 79 0b 2f be
       0.033911344 -0.24263686 -0.0035635892 -0.1709422
0001d0 3a e5 4e 3c 71 ab 9f bd 56 eb 48 3e 7d e7 0e 3e
       0.012627894 -0.07796372 0.19621024 0.13955493
0001e0 ce 50 d3 bc b3 e8 39 3e bf 00 32 3e 23 21 76 3e
       -0.025795367 0.18155174 0.17383097 0.24036078
0001f0 64 1a 13 3e 97 0e 59 be a4 21 ba 39 f8 fd 4a 3e
       0.14365536 -0.21196972 0.0003550175 0.19823444
000200 e8 7a 45 3e 3e c8 0a be aa 12 65 3e 9e fb 57 bd
       0.19285166 -0.13552949 0.22370401 -0.052730195
000210 0c c8 17 be 01 b8 55 be e0 02 e7 bc ca ba 02 be
       -0.14822406 -0.20870973 -0.028199613 -0.12766567
000220 f0 89 10 3e 41 f4 8b be ec f8 2d 3e 33 ea 22 be
       0.14115119 -0.27334788 0.16989487 -0.15909652
000230 98 27 8d bd a9 8d ef bd 3a e3 2d 3e 57 66 36 3d
       -0.068923175 -0.116969414 0.16981211 0.044531193
000240 2c 2b 01 bd 60 27 15 3d 60 e9 3e 3d 7e 65 ea 3d
       -0.031535313 0.036414504 0.046609282 0.11445139
000250 0c 7e 3a bd c6 79 03 3d a4 97 17 bc 7e 69 eb 3d
       -0.045530364 0.032098554 -0.009252463 0.114947304
000260 db dd 91 bd 5d c9 2e be 99 1f 0c 3e 5c d9 44 3e
       -0.07122394 -0.17069001 0.13683929 0.19223541
000270 c3 62 a0 bd 32 5e 90 bc 5a c9 7b be 6c 29 33 bd
       -0.07831337 -0.01762304 -0.24588528 -0.043740675
000280 20 41 3f be 1c 5a f5 3d 88 cd 5d be 10 d2 5a 3e
       -0.18677187 0.119800776 -0.21660435 0.21369195
000290 53 90 1f bd 1a 24 ab bd 30 55 ce bd 8a 4e 18 3e
       -0.038955998 -0.08356495 -0.10074842 0.1487371
0002a0 b2 0a 55 be 08 e3 18 3d 60 c7 0f 3e 34 1b 41 3e
       -0.20804861 0.03732589 0.140409 0.18858033
0002b0 7a cc 8b bd 17 cd 19 be d8 bc 4a 3d 77 db 26 3e
       -0.0682611 -0.15019642 0.0494965 0.16294657
0002c0 83 e6 27 3e e0 84 33 3e 48 fe c5 3d 78 51 01 3e
       0.16396527 0.17531157 0.09667641 0.12628734
0002d0 c1 04 5d 3e f1 88 8f 3d 56 72 ef 3d a6 84 80 3e
       0.21583845 0.070085414 0.1169173 0.25101203
0002e0 b4 07 39 3e db 02 3a 3e 5c a5 eb bd 55 08 c8 3c
       0.18069345 0.18165152 -0.11506149 0.024418036
0002f0 c3 97 fa bc a8 8d 1a 3e 05 dd 6d be 4c 5a e9 bd
       -0.030589944 0.150931 -0.23228844 -0.11394176
000300 8c 78 71 bd 31 ca 70 be 07 0b d8 bd 58 0a 86 be
       -0.058952853 -0.2351463 -0.10548978 -0.26179767
000310 9e 7d 69 be c4 c2 87 be d9 80 24 3d 68 7c 37 3e
       -0.22801825 -0.26515782 0.04016194 0.17918551
000320 a8 93 c1 3d 6f a1 8f 3d e3 d8 4f 3e e4 85 4d 3e
       0.09451991 0.07013213 0.2029758 0.20070606
000330 10 0e 35 3e 1b ab 1b 3e 86 03 cb bd 31 26 c6 3d
       0.17681146 0.1520199 -0.099127814 0.09675253
000340 da 1b 0c be 27 19 2f be f5 1c 01 3e 70 a3 6c bd
       -0.136825 -0.17099439 0.12608702 -0.057773054
000350 4e f9 4d 3e 8a 9e 73 be 5e 72 06 3e 20 43 df 3d
       0.20114633 -0.23790947 0.13129565 0.10901475
000360 a5 55 2a bd 7a 3d 8a be c0 47 70 3e 3e 06 58 3b
       -0.041585583 -0.27000028 0.2346487 0.0032962705
000370 30 92 5d 3d cd 8f 59 be 00 56 50 bc 88 9d 4b be
       0.054094493 -0.21246262 -0.0127158165 -0.19884312
000380 48 37 18 3e 45 2b 2b 3d ee b6 d5 bd d6 d9 eb bd
       0.14864838 0.041789312 -0.10435282 -0.11516158
000390 22 ea 8b be ca 5c 30 3e b0 00 64 3d 9d cf 80 3e
       -0.27327067 0.17222896 0.05566472 0.25158396
0003a0 ad 0b 53 be 78 ef 47 be 4b 6c 83 3e 4e 86 41 be
       -0.20609923 -0.19524944 0.25668558 -0.1889889
0003b0 62 cf a0 3c 08 c0 37 be 78 35 3c 3d c1 43 88 bd
       0.019630138 -0.17944348 0.04594943 -0.06653548
0003c0 9b 46 f7 3d fb 20 09 3d 51 aa 06 be 9a 35 51 be
       0.12074014 0.03347872 -0.13150908 -0.20430604
0003d0 cb 11 4e bb cd 26 f2 3d 9e 3b 6f bd 99 71 84 3e
       -0.003144371 0.11823807 -0.058406465 0.25867918
0003e0 b5 75 09 3e 4d ca 32 3e 7b 94 2e be 48 e3 c9 3d
       0.13423808 0.17459984 -0.17048828 0.098578036
0003f0 6a 6c 7c be 25 aa 99 bc 3f 2d 6d 3e ed 49 6c be
       -0.24650732 -0.018757889 0.23161791 -0.23075075

body.2.weight f4 [256, 256]
000000 00 2f 87 39 18 27 47 bc d8 4b 0f bd fa f0 73 3c
       0.00025784224 -0.012155317 -0.03498444 0.014888996
000010 88 1c 2e bc 30 30 e0 3b 60 44 ee bb ab 1f 6e 3c
       -0.01062692 0.006841682 -0.0072713345 0.014533917
000020 e1 0b 37 3d 7a 1f 49 3d 77 7b be 3c 0c db 97 3c
       0.044689063 0.049102284 0.023252232 0.018537067
000030 23 03 21 3d 40 e4 1a bd 62 42 02 3d cc 88 97 3c
       0.039309632 -0.037815332 0.03180159 0.018497847
000040 4b 2f 66 bc 71 4f aa bc d0 ca 49 bc 5d 73 15 3d
       -0.014049361 -0.020789834 -0.012316421 0.036486972
000050 b8 c6 68 bd dc 67 32 3d 34 dc b2 bb 40 3c 07 bd
       -0.056830138 0.04355608 -0.005458379 -0.033016443
000060 a4 0b e8 bc 42 fb 7d bd ec 24 89 bc fe 62 6b bd
       -0.028325863 -0.062007196 -0.016741239 -0.057467453
000070 38 25 f6 bc 36 c2 21 3d f4 03 53 3d 6a c9 07 bd
       -0.030047044 0.039491855 0.051517442 -0.033151068
000080 c0 9a 00 3d 28 0b 80 bc f8 ed 0b 3c c0 f4 69 bd
       0.03139758 -0.01563032 0.008540623 -0.057118177
000090 3f 58 db bc d8 b8 2b 3c 90 24 12 3d 09 54 4c bd
       -0.026775477 0.010481082 0.0356794 -0.04988483
0000a0 c4 5a 4a 3d de 5c 6e bd 04 d1 01 3d 38 d4 1c bc
       0.049402967 -0.058194034 0.031693473 -0.009572081
0000b0 dc 1a da bc 69 c5 51 3c 28 52 1d bc ac 4c 31 bc
       -0.026624136 0.012803414 -0.009602107 -0.010821503
0000c0 e0 cf 14 3d 00 12 36 3d bd c2 d9 3a be 4a 61 3c
       0.036331058 0.04445076 0.0016613823 0.01375073
0000d0 80 1e b8 3a 9b f9 46 3c be 20 51 bc 34 ea db 3c
       0.0014047176 0.0121444715 -0.012764154 0.026845075
0000e0 b6 37 fb bc bd bf 3e bc 05 17 5c bc 83 cd 44 3d
       -0.030666213 -0.011642394 -0.013433223 0.048047554
0000f0 10 dc 7b bd c5 21 62 bd 16 19 56 3d f8 1b d8 3c
       -0.061489165 -0.055207986 0.052270018 0.026380524
000100 20 b1 1e 3c e0 40 17 3b 9c 48 22 3d a0 62 8c 3b
       0.009685785 0.002307944 0.039620027 0.004284218
000110 11 d3 94 bc 00 6a 24 3d f5 d5 ed 3c bc 45 86 bc
       -0.01816705 0.040140152 0.029032687 -0.016390674
000120 30 b9 8d 3c 4c c6 2a 3d 9c e4 cb 3c d8 38 1c bd
       0.017300218 0.041693017 0.024889283 -0.038140148
000130 50 4f d7 3b 80 5c c3 3b 05 86 1d 3d 08 42 05 3d
       0.006570734 0.0059619546 0.03845789 0.032533675
000140 8c 47 40 bd 80 1a 02 3c 04 5a ba bb 10 26 29 3c
       -0.046943232 0.007940888 -0.005687 0.010324016
000150 30 8a 31 bd fe cc 6c bd 8e 00 12 bd b4 70 d2 3a
       -0.043344676 -0.057812683 -0.03564506 0.0016055317
000160 38 7e 5b 3d f3 63 79 bc dc 9e a4 bc 00 60 72 bc
       0.05358717 -0.015221584 -0.020095281 -0.014793396
000170 08 3b e2 bc d4 70 e6 bc 96 3b a1 bb a8 5c 59 bc
       -0.027616039 -0.028129973 -0.0049204333 -0.01326672
000180 e2 fb 15 bd 59 2d 2c 3d 3c 67 2f 3d de a8 36 3d
       -0.036617167 0.042035434 0.04282306 0.044594638
000190 85 e3 27 3d 50 03 0b bc 67 ed 6f bd 40 fb 9c bc
       0.040988464 -0.0084846765 -0.058576014 -0.019162774
0001a0 20 5b 28 3c 4e 92 0c bd c6 6e 8c bd 30 f7 90 3c
       0.010275632 -0.034319215 -0.06857066 0.017695993
0001b0 8b 10 14 bc 1d e3 dc 3c b3 47 f4 3c 77 ff f0 3c
       -0.009037147 0.026963765 0.029819345 0.02941869
0001c0 40 d5 6b bd 00 f8 85 3c 3e bb d7 3c 8e 59 35 bd
       -0.057576418 0.016353607 0.026334401 -0.04427486
0001d0 5a 8c 4c bc 02 c9 65 bd 00 96 f7 3c d8 d4 32 bd
       -0.012484634 -0.0560999 0.030222893 -0.043660015
0001e0 4f cd 0f bc 7d fe 49 bc 8b 3b a9 bc 49 14 73 bd
       -0.008776977 -0.012328741 -0.020658275 -0.059345517
0001f0 30 f6 48 3c 08 41 59 bc 08 49 36 bd 06 d1 38 bd
       0.012265727 -0.013260134 -0.04450324 -0.045121215
000200 a3 57 88 3c b9 82 ba bc b8 77 54 bd 4d 06 75 3b
       0.016643351 -0.022767412 -0.051871985 0.0037387789
000210 70 82 9d 3c 00 6d ac 3a da f4 5c 3d c4 1c 61 3d
       0.019227237 0.0013155043 0.053944446 0.054959074
000220 b4 81 0d 3d 88 4a 6d bc 20 58 7a bd 63 71 63 bd
       0.034547523 -0.014483102 -0.0611192 -0.055528056
000230 09 14 3a bd 20 50 5e bc a4 d6 b7 3c 17 6d f7 3b
       -0.045429263 -0.013568908 0.022441216 0.0075508463
000240 24 0c d6 bc c0 14 1a bc e1 13 08 3d 07 70 5c 3d
       -0.026128836 -0.009404361 0.033222083 0.053817775
000250 a0 12 f1 3b 9a 58 77 bd 56 f0 8e bd ec bf 82 bc
       0.0073569566 -0.06038723 -0.06979434 -0.015960656
000260 a8 01 85 3c ad 30 cb bb d0 e5 48 bd d5 de 21 3d
       0.016236141 -0.006200871 -0.04904729 0.03951915
000270 02 5a b9 bc ff f0 41 bd 2c 37 aa 3c 92 b0 47 3d
       -0.022625927 -0.047348972 0.020778261 0.048752375
000280 00 9d b3 3a ae 72 b3 3c fe ee 40 3d 2e eb 0e bd
       0.0013703406 0.02190527 0.04710292 -0.034892254
000290 28 47 fd bc ae 57 c9 3c 3c e1 d5 3c c4 2f 6d 3d
       -0.030917719 0.024577942 0.026108377 0.05790688
0002a0 10 66 e4 bb a2 9d 46 bd 58 40 08 bc de 4a 4e bd
       -0.0069701746 -0.048490174 -0.008316122 -0.050364368
0002b0 42 dc 59 bd ca 13 31 bd 7e 00 75 bd 81 8d 38 bd
       -0.05318857 -0.043231763 -0.059814923 -0.045056824
0002c0 d8 5f 93 bb f9 a6 0b bd 89 1a 84 bd 22 3b 7c bd
       -0.0044975094 -0.034094784 -0.06450374 -0.06157983
0002d0 90 ef f8 bc 44 77 28 bd 92 f1 4d bc 24 1e d4 3b
       -0.03038767 -0.041129366 -0.012569802 0.0064733196
0002e0 98 74 9c 3c c0 ab 79 bd 50 c3 de 3b 74 22 88 bd
       0.019098565 -0.06095481 0.0067981854 -0.066471964
0002f0 8c 49 56 bd 6f bc db b9 28 61 39 3d 64 8b 2d bd
       -0.052316234 -0.0004191133 0.04525867 -0.04236926
000300 a0 d1 35 3b 00 59 de ba 30 60 88 bb 44 7b 6d 3d
       0.0027743354 -0.001696378 -0.004161857 0.057978883
000310 2c 27 c8 3c 16 a4 76 bd 4a 1d c0 bc 91 05 97 3c
       0.024432741 -0.06021508 -0.023451466 0.018435271
000320 5d b3 7c 3c b0 57 cb 3b c5 fb 2f bc b5 33 6d bd
       0.015423623 0.0062055215 -0.010741179 -0.05791064
000330 c3 bb 11 3d f3 d3 21 3d c4 74 ce 3c 35 3e 64 bc
       0.035579454 0.03950877 0.025202163 -0.013930847
000340 b4 f9 bb bc 1a 0e 42 bd c0 57 85 3c 97 13 50 3b
       -0.022946216 -0.04737673 0.016277194 0.0031749958
000350 25 20 46 bd e0 93 ab bb ac 08 49 3b 31 99 4c bd
       -0.0483705 -0.005236134 0.0030675335 -0.049950782
000360 bd 1f 4d 3c 90 8f 05 bc 9c 8c 16 bd c8 bd 00 3c
       0.012519774 -0.008151904 -0.03675519 0.007857747
000370 16 d5 61 bd 1c 58 99 bc a6 49 4b bd ba 5a 21 3d
       -0.055134855 -0.018718772 -0.049630783 0.039393164
000380 f6 a9 2a 3d ae ae 00 bd 60 b9 b9 bb c8 8f 10 bd
       0.041665994 -0.031416588 -0.0056678504 -0.03529337
000390 e0 3f 2c 3c 6e 25 04 bd d8 4b 8d bd ef 44 1b 3d
       0.010513276 -0.03226226 -0.06899232 0.037907537
0003a0 54 ec f9 bc 60 fc ef bc 07 44 2f bd f0 bb d2 3c
       -0.030508198 -0.029295146 -0.042789485 0.025724381
0003b0 d9 90 ec 3c 1c 21 cc 3c b1 f3 13 bd c0 29 53 3d
       0.028877662 0.024918132 -0.036121074 0.051553488
0003c0 f5 dd 57 3b b8 1c 2f bc 80 04 da 3c dc c7 ea bc
       0.0032938693 -0.010687999 0.026613474 -0.028659754
0003d0 3c 8c 6d bd 38 12 22 bd 06 6a c9 3b 40 e0 29 bd
       -0.057995066 -0.039568156 0.006146672 -0.041473627
0003e0 3d a2 5d bd e2 78 27 bd b0 94 e3 3b 5f 62 0e 3d
       -0.0541098 -0.040886767 0.006945215 0.034761783
0003f0 9a 43 21 3d 14 ef b8 3c e3 fc 21 3d 9a fc 42 3d
       0.03937111 0.022574939 0.039547812 0.04760418

body.2.bias f4 [256]
000000 5b ee de bc f6 3c 51 bd 62 1b 34 bc dc f1 6e bd
       -0.027213266 -0.051083528 -0.010992857 -0.058336124
000010 38 d9 4f bb 43 3c 4a 3d 48 6d 36 bd 1f a2 09 3d
       -0.0031715166 0.049373876 -0.044537812 0.033601876
000020 80 a7 54 bc 07 26 64 bd 31 02 eb 3c 0a fb 1f bd
       -0.012979388 -0.05570033 0.028687568 -0.03905777
000030 55 09 1a 3c c9 08 54 bd 68 c7 db bc db 23 f6 bc
       0.009401639 -0.05176619 -0.026828483 -0.030046394
000040 ae a0 0b 3c 94 1d 85 bb 0e d2 43 bd a4 c3 1e bd
       0.008522196 -0.004062364 -0.047807746 -0.038760796
000050 6e 65 59 bd 71 d8 90 bc a2 ee af 3b a2 5e 56 3b
       -0.053075247 -0.017681332 0.0053690234 0.0032710214
000060 12 d6 40 bd 10 14 59 bd 60 5d 05 bc 18 6e 4d 3d
       -0.047079153 -0.05299765 -0.008139938 0.05015382
000070 35 4d 21 bc d4 15 97 bc 86 2a f6 ba 82 44 46 bc
       -0.009845068 -0.018443026 -0.0018780984 -0.0121012945
000080 a4 8d b9 3c 0e 4b 25 bc cb 46 2c bc b4 ce 32 bd
       0.022650547 -0.010088695 -0.010514925 -0.04365416
000090 a6 04 43 bc c1 22 1a 3b 60 87 82 bc 7f ab d5 bc
       -0.011902964 0.002351925 -0.015933692 -0.026082752
0000a0 20 74 fa bc 0c cc 4b bd bc 0e fd 3c 4c ea 61 bd
       -0.03057295 -0.04975514 0.030890815 -0.055155084
0000b0 27 d7 24 bc 39 1c 41 3c be 91 3a 3d d6 25 5d 3d
       -0.010061062 0.011786514 0.045549147 0.05399116
0000c0 16 14 e0 3b 40 19 f6 3a 5e 6e a1 3c b1 dc 13 3d
       0.006838332 0.0018775836 0.019705947 0.03609914
0000d0 f0 80 c6 3c 72 10 f7 bc 4e d2 64 3d 0c 9a 31 bd
       0.024231404 -0.030159209 0.055864625 -0.0433598
0000e0 2c 8c 2e 3d 6c 3b 88 bd 2a ba 45 bd e0 78 d4 3b
       0.042614147 -0.06651959 -0.048273243 0.006484136
0000f0 18 38 81 b9 c3 30 23 3d 3e 06 77 bd 7a 05 54 3d
       -0.0002464659 0.039841425 -0.060308687 0.051763035
000100 a7 e7 97 3c ff 3b 0f bd 68 ad 5c 3d d0 6d 5a bd
       0.018543078 -0.034969326 0.05387631 -0.05332738
000110 32 fe 3b bd b9 e6 fb bb 30 40 63 bd 28 1d 42 3d
       -0.045896716 -0.0076874164 -0.055481136 0.047391087
000120 62 e0 db 3c 6b 43 af 3c 51 fb 27 bd b5 6b 48 3d
       0.026840393 0.021394452 -0.04101116 0.048930842
000130 ce f6 9a bc c0 bb c4 3a 65 3a 54 bd 7f e6 67 3c
       -0.018916514 0.0015009567 -0.051813502 0.014154076
000140 08 f5 ac 3c d5 b1 52 3d 4c 4b 80 3d 89 c4 21 3d
       0.021112934 0.051439125 0.06264362 0.03949407
000150 fa f3 99 bc 38 68 c9 3c 06 31 b1 bc d4 90 c1 bb
       -0.018793095 0.024585828 -0.021629822 -0.0059071574
000160 28 0c 33 bd 86 ac 2b 3c dc bd 51 bd 19 84 67 bc
       -0.043712765 0.0104781445 -0.051206455 -0.014130616
000170 00 df d8 b9 7c 99 64 bd 72 47 77 bd f3 0c ff 3b
       -0.00041364878 -0.055810437 -0.06037087 0.007783526
000180 e0 80 8d bb 82 20 3d 3d 1e 30 63 3d 6c 38 5b bd
       -0.0043183416 0.04617358 0.05546581 -0.053520605
000190 67 94 56 3d 4a 84 83 bd 80 41 22 3c 64 91 4c bb
       0.05238762 -0.064217165 0.009903312 -0.003121459
0001a0 1c 79 85 bc 08 cf b0 bc 3c ed de 39 9d 68 83 3c
       -0.016293101 -0.021583095 0.00042519893 0.016041094
0001b0 2e 5e 0f bd 21 f1 3d bd 80 c6 3b bb fb 03 be bc
       -0.035001926 -0.046372537 -0.002865225 -0.023195257
0001c0 80 5d 41 bd 2a a4 33 3d 26 f9 c5 bc 53 48 8a bd
       -0.04720831 0.04385773 -0.024166655 -0.06752076
0001d0 90 d1 a2 3c b8 5f 73 3b 47 97 44 3c 6c a4 36 bd
       0.019875318 0.003713591 0.011998958 -0.0445904
0001e0 43 8f 56 bd 1c d3 59 bd 36 47 ff bc eb e9 12 3c
       -0.05238272 -0.053179845 -0.031161886 0.008966903
0001f0 11 5a c2 bc 67 e9 6c bd 65 c3 2b bd 8e 1d 59 3d
       -0.023724588 -0.057839777 -0.04193439 0.0530067
000200 99 b1 76 3c 30 05 3c 3d ba 9d da 3c 4a 40 f4 3c
       0.015056991 0.045903385 0.026686538 0.029815812
000210 d3 aa b4 bc fd c2 e8 3c 71 0c d2 3c d5 1c ac 3c
       -0.022054112 0.02841329 0.025640698 0.021009842
000220 4b 4b 64 bd 0a d6 35 3d 9f ce 84 3d 58 f1 97 3c
       -0.055735867 0.044393577 0.06484722 0.018547699
000230 90 95 1c bd e4 f6 11 3d 01 bc 68 bd 1b 82 76 bd
       -0.03822857 0.035635844 -0.05681992 -0.060182672
000240 ca 69 5e 3d 42 1e 44 3d 5e c2 2a 3d 50 4b 2c bd
       0.054300107 0.04788042 0.04168927 -0.04206401
000250 75 c1 26 bd d7 f3 5a 3c e6 ed bf bc 40 75 62 bd
       -0.04071184 0.0133638 -0.023428869 -0.0552876
000260 4e 87 0b 3d e5 af 4f bd a1 5f 49 3d 78 27 fd 3a
       0.034064583 -0.050704855 0.049163464 0.0019314131
000270 a8 c6 c2 3c c7 9f cb 3c 84 3d 55 3d 46 35 40 bd
       0.023776367 0.024856461 0.05206062 -0.046925806
000280 6a d1 3a bd 58 c4 40 bb a2 e8 71 3d 8d 68 9b 3c
       -0.04560987 -0.0029413905 0.059059747 0.018970752
000290 2d 34 0a 3d 4f 96 98 bc c6 bd ab 3c 9e b7 5e 3c
       0.033741165 -0.01862636 0.020964514 0.013593582
0002a0 46 d4 27 bd 90 96 60 bc e9 e8 37 3d c0 34 c9 3b
       -0.040973924 -0.013707772 0.044899855 0.0061403215
0002b0 99 0d ac 3c fc b7 4e 3d d8 c5 0c 3d 8c 27 f8 bc
       0.021002578 0.05046843 0.034368366 -0.030292295
0002c0 32 2a e4 bb 1c 46 ae bc 38 a8 0b 3d de 04 2d 3c
       -0.006963038 -0.021273665 0.034095973 0.010560242
0002d0 ba 66 b8 3c 36 bb ee 3c 4b 7c 71 3b 95 8c 31 3c
       0.022509921 0.029142004 0.0036847766 0.01083674
0002e0 69 c1 38 3d fa f1 16 3c 90 b5 98 bb ed 10 8d 3d
       0.045106325 0.009212965 -0.004660316 0.06887994
0002f0 62 f2 29 bd 56 18 51 bd 60 9d 5f bc 42 8c 31 bb
       -0.04149092 -0.0510486 -0.013648361 -0.0027091657
000300 af 64 f7 bc f8 1e 4e bd d5 0c 87 3c 00 3e 74 b9
       -0.030199377 -0.050322503 0.016485611 -0.0002329275
000310 6e 61 38 3d 36 22 5c bd 4a 9b 0d bd dc ee 37 bd
       0.04501479 -0.053743564 -0.034571923 -0.04490553
000320 78 bd 47 bd 7a 45 2d 3d 2a 7a 44 bd d0 d4 1f bd
       -0.048764676 0.042302586 -0.047968067 -0.039021313
000330 d6 76 55 3c d8 9c c5 bc c0 5f ee 3c 5d d6 38 3d
       0.013028821 -0.02412264 0.029098392 0.045126308
000340 52 b1 ab b9 e2 76 19 bd ac 96 0c bd ed 79 5b bc
       -0.00032747776 -0.03746689 -0.03432338 -0.013395769
000350 98 b3 15 bd 1e 78 98 bc a3 82 05 3d ad 37 ed bc
       -0.036548227 -0.018611964 0.032595288 -0.028957212
000360 89 37 93 3c a3 b3 ec bc 5b ac 46 bd d7 d0 89 3c
       0.017970817 -0.028894251 -0.048504215 0.016823215
000370 18 c3 c3 3c e4 fa 61 3d 62 a1 15 bd ec 47 fb bc
       0.023896739 0.05517091 -0.03653086 -0.030673943
000380 5c 8f 90 3c 92 65 2d 3b b0 74 4d 3c b2 f9 28 bd
       0.017646484 0.0026458246 0.0125400275 -0.041253753
000390 38 87 ff bc b8 1c 5c bc 0b a6 42 3d 0b 56 32 3d
       -0.031192407 -0.013434581 0.047521632 0.04353909
0003a0 21 a3 a8 3c b8 f0 23 3d 84 a8 3a bd e4 4a 31 bd
       0.020585598 0.04002449 -0.045570865 -0.043284312
0003b0 25 3e 45 3c 62 a3 fe 3c 1e 66 89 bd b1 da 28 3d
       0.012038742 0.031083766 -0.067089304 0.041224185
0003c0 d6 2d 02 bd 44 dc 31 3d 32 ab 47 3d 15 7f f0 ba
       -0.031781994 0.043422952 0.04874725 -0.001834842
0003d0 43 aa cd bc 69 d1 24 bd 73 eb 10 3b 58 72 bf 3b
       -0.025105601 -0.04023877 0.0022112995 0.0058424883
0003e0 ba a8 d9 bc 90 84 73 3c 6b 73 5a bd 51 1b ca bc
       -0.026569713 0.014863148 -0.053332727 -0.024671229
0003f0 30 88 81 bd f1 17 8b 3c 10 4e 16 3d 55 69 36 3b
       -0.06324804 0.01697919 0.03669554 0.002783378

mu_head.weight f4 [2, 256]
000000 b9 3a 49 3d 68 6f fe bc 16 34 5c bd 30 c5 ec bc
       0.049128268 -0.031058982 -0.05376061 -0.02890262
000010 bf 95 4f bc 8d f2 4f bd 9e 9b 31 bd 41 91 29 3c
       -0.01266998 -0.050768424 -0.0433613 0.010349573
000020 b1 58 86 bc c0 05 d7 bc ea 62 90 bd d8 35 ea bc
       -0.016399713 -0.026247859 -0.07050116 -0.028590128
000030 ef 6f 1e bd 23 63 84 3a 04 12 71 bd 92 18 43 bd
       -0.038680967 0.0010100346 -0.05885507 -0.047630854
000040 19 65 15 3b b7 a1 d1 3c 48 b6 50 3c 0d 96 9f bc
       0.0022795855 0.025589807 0.012738772 -0.01948073
000050 62 2d 5a bd 63 a2 2b bd 48 88 0c 3d 3f 09 1c bd
       -0.053265937 -0.04190291 0.034309655 -0.038094755
000060 20 8a bd bd c3 ee 62 3d fc 90 96 bc d1 af 46 3d
       -0.09254861 0.055403482 -0.01837968 0.048507515
000070 14 3e 17 bd 20 6b d7 bc 63 ca a7 3d d2 40 86 3d
       -0.036924437 -0.026296198 0.08192899 0.06555332
000080 34 96 90 bc c3 14 27 bd cf 62 69 3c 86 6a 4c bd
       -0.017649747 -0.040791284 0.014244749 -0.049906276
000090 d4 cd 0d bd 88 38 07 3d bf 7d 9f 3c e3 89 76 bc
       -0.03462012 0.033012897 0.01946914 -0.015047523
0000a0 66 38 b1 bb 12 7a 75 3d d0 80 86 3d 0c 87 1e 3d
       -0.0054083345 0.05993087 0.06567538 0.03870301
0000b0 3e 8c 60 bd 1a 67 69 bd 56 41 0e bc 5a 99 18 3d
       -0.054821245 -0.05698309 -0.0086825695 0.037255622
0000c0 e3 9a 1f 3d 3c 4f 98 3c 7c c2 81 3d 5b 70 63 3c
       0.03896607 0.01859247 0.06335923 0.013881768
0000d0 e1 17 64 3d 1b 8d 20 3d da 43 9f 3d 06 51 16 bd
       0.055686835 0.03919707 0.077766135 -0.036698364
0000e0 10 1f 64 3c 53 2d 94 bb f2 16 99 3b 40 8e 55 3d
       0.0139234215 -0.0045220046 0.0046719247 0.052137613
0000f0 e7 ae a1 3c 9c 7f dd 3b 17 3b 43 bd a3 4c 22 3d
       0.01973672 0.006759597 -0.047663774 0.039623868
000100 c9 a6 02 bd d0 70 00 bd 72 fc 1c 3d ac 38 3a bc
       -0.03189734 -0.031357586 0.038326688 -0.011366051
000110 34 7f fe bc 5f ea 7c 3c 88 1a 5b 3d 29 0a 83 bc
       -0.031066515 0.015436738 0.0534921 -0.015996056
000120 d1 58 75 3d 1c 96 01 bd 67 ca c5 bc de d1 23 bd
       0.059899155 -0.031637296 -0.024144365 -0.039995067
000130 69 72 2f 3d a0 1b cf 3b 2b 21 ff bc 3b 7d 0d bd
       0.04283372 0.006320432 -0.031143745 -0.034543257
000140 8d 27 11 3c 86 c5 08 bd cb 3f 90 bd 93 c5 bf 3c
       0.008859527 -0.033391498 -0.070434175 0.02340964
000150 96 23 6f bd 00 e4 8d 39 de c7 44 bc 51 c1 89 bb
       -0.058383547 0.0002706349 -0.012010543 -0.0042039533
000160 bc 54 8d 3c 02 1f 19 3b a2 5d 43 bd 47 c7 0d bd
       0.017252319 0.002336443 -0.047696717 -0.034613874
000170 d0 f0 aa 3b c8 de ef 3c 54 21 f4 3c fc cc 07 bd
       0.0052166954 0.029281035 0.029801048 -0.033154473
000180 e0 dc 30 3c 44 fa e3 3c ae 20 c8 bd 54 36 22 3d
       0.010794848 0.027829297 -0.09771858 0.039602593
000190 ec ca 6f ba df 7d 0e 3d 84 66 a9 3c d3 14 68 bd
       -0.0009147364 0.03478801 0.020678766 -0.056660485
0001a0 75 bf 04 3d ca 8a b6 3c 14 ff 8d bc a9 2e 4f bd
       0.03240915 0.022282977 -0.017333545 -0.050581608
0001b0 bf f6 fb b8 c9 fe 0c bd 58 e9 36 3c 3a 30 24 3d
       -0.00012014573 -0.03442267 0.011164032 0.040085055
0001c0 d5 95 10 3d ef 62 64 bd 55 76 5f bd d8 e3 79 bd
       0.03529914 -0.055758413 -0.05455621 -0.061008304
0001d0 6f 9e 00 bd 3c da 2e 3c 39 24 43 3b 56 91 2a bd
       -0.031401094 0.010672148 0.002977623 -0.04164251
0001e0 f9 54 ae 3c 0d c7 bf 3c 44 98 d1 bb 21 24 2a 3d
       0.021280752 0.023410344 -0.0063963253 0.04153836
0001f0 53 fe 93 bb ea e7 1c bc ac 0e 24 3d c4 95 e2 bc
       -0.004516402 -0.009576777 0.040053055 -0.027659304
000200 85 1b 32 bd 41 43 31 3d 8c d7 47 bd ba 37 f3 bc
       -0.043483276 0.04327703 -0.048789546 -0.029689658
000210 20 03 8a 3c 7d 1e 0f bd 97 be 08 bd c3 05 b5 3c
       0.016847193 -0.034941185 -0.033384886 0.022097474
000220 f9 40 a8 3d 56 50 85 bd 71 f3 17 bd d8 be 05 bc
       0.082155176 -0.065094635 -0.0370974 -0.0081631765
000230 88 35 6f 3c f6 aa 1c 3d 5e 31 b2 bb bb d4 c5 bc
       0.014600165 0.03824898 -0.005438014 -0.02414929
000240 0f a7 7d bc f0 49 dd 3c 45 39 e8 bd 61 0e ae 3d
       -0.015481724 0.027012795 -0.11339048 0.08498836
000250 be 88 60 bc cf e9 37 3d b4 27 7e bd 52 dd 05 3d
       -0.013704477 0.04490071 -0.062049583 0.03268177
000260 f1 0a 0b bd c9 23 82 3c 24 58 7a 3d 1b 3f 7a bc
       -0.03394598 0.015886204 0.061119214 -0.015273835
000270 2e d1 95 bd d5 07 02 3d 15 33 85 3b 1f f1 85 bd
       -0.073152885 0.03174575 0.0040649273 -0.06540131
000280 03 61 d1 3c 02 3d 43 3b 31 ba a3 bd dc 9a 85 3c
       0.025558954 0.0029791002 -0.079944976 0.016309194
000290 c3 23 70 3d 2a c8 1b 3d 20 cd 84 bd 72 93 00 bd
       0.058627855 0.03803269 -0.06484437 -0.031390615
0002a0 d4 7e f6 bc ec cf 9a bc 83 86 0e 3d 12 32 5e 3d
       -0.030089773 -0.018897973 0.03479625 0.05424697
0002b0 d5 c5 d6 bc a3 b5 9a bc d9 be e5 3c b6 b1 6e 3d
       -0.02621738 -0.01888544 0.028045105 0.058274947
0002c0 d5 fe 09 3d 24 64 5d bd e7 a8 00 bc b7 f3 43 bd
       0.033690292 -0.05405058 -0.007852769 -0.047839846
0002d0 ac c6 33 3d ad a3 b6 bd 62 91 4e bc 25 fa 4d 3d
       0.04389064 -0.089179374 -0.012607904 0.050287385
0002e0 e9 59 99 bc 1c 1e 42 bc 0c 38 40 bd 80 85 dd bc
       -0.01871963 -0.011847999 -0.04692845 -0.027041197
0002f0 3e d7 46 bd c3 7a 28 3d bc 58 49 bd fc 04 01 bb
       -0.048545115 0.0411327 -0.04915689 -0.0019686809
000300 7b d7 4e 3d 2c da f8 bc dc eb 9d 3c de 14 3a 3d
       0.050498467 -0.03037747 0.019277506 0.045430057
000310 e9 27 17 3d 96 ba 52 bd 40 d8 da 3c 04 03 11 3d
       0.036903296 -0.051447473 0.026714444 0.035403267
000320 2c e6 4d bd 36 de 16 3d 40 62 8c bb f0 88 d0 3c
       -0.050268337 0.03683301 -0.0042841733 0.025455922
000330 ce 58 d1 3c b4 b1 5c bd d8 34 bd 3c 4c a5 49 bd
       0.02555504 -0.05388041 0.023096487 -0.049229905
000340 6b 55 d9 3c 86 23 7d 3c e0 e0 4e bc 0f bb ea bc
       0.026529988 0.015450364 -0.012626857 -0.02865365
000350 28 a7 ce 3c a3 36 8b 3d 3a 4c 9f bc 21 cf 7c 3c
       0.02522619 0.067975305 -0.019445527 0.015430243
000360 73 cb 28 3d f9 74 64 3d c5 ba 5a bd 86 86 5b bd
       0.04120965 0.055775616 -0.053400774 -0.05359509
000370 b6 3c 87 3b 79 87 40 bd 06 fc 0a bd 34 12 a8 3c
       0.0041271104 -0.047004197 -0.033931755 0.020516492
000380 10 e4 9e 3b c1 0a a8 bc c0 1b 83 3a 03 89 a2 bd
       0.0048489645 -0.02051294 0.0010002777 -0.07936289
000390 f8 e0 8c bc d8 b7 b6 3c 46 f6 0f 3c c9 6f e7 bc
       -0.017197117 0.02230446 0.0087867435 -0.028251546
0003a0 0f 78 06 3d 2f c0 44 bc 00 e9 06 3d f8 61 16 3d
       0.03282934 -0.012008711 0.03293705 0.036714524
0003b0 40 bf 3c 3a bf c0 5f 3d 0a c8 59 3d 05 ce b1 3c
       0.00072001293 0.054627176 0.053169288 0.021704683
0003c0 e0 76 9f bc 74 a9 ba bc fb 1b 80 bd 35 4e a2 3d
       -0.019465864 -0.02278588 -0.06255337 0.07925073
0003d0 01 ee 78 bd 7b 61 b4 3c 8d 62 a5 3d 12 df 3b 3d
       -0.060773853 0.022019139 0.08075438 0.045867033
0003e0 f6 1a ce bb e2 f8 13 bd bc 08 c7 bc 89 1a 9f bc
       -0.006289835 -0.036126025 -0.024296157 -0.019421833
0003f0 6b 94 1a bc c3 df 7c 3c 7b 6f 1a bc c4 2b 20 3d
       -0.0094348 0.015434208 -0.009425993 0.03910424

mu_head.bias f4 [2]
000000 4e 98 4c bd ea d5 2b bd
       -0.049949937 -0.04195205

model.0.weight f4 [256, 39]
000000 a0 f8 b7 bd c9 ac 86 3c b2 b2 f1 bd 52 12 23 bd
       -0.08982968 0.016439812 -0.118016616 -0.039812393
000010 73 e7 04 be 36 2c 81 bd e3 09 b5 3d 76 45 3f bd
       -0.12978916 -0.06307261 0.08839776 -0.046697102
000020 a8 61 9f bd a9 57 9f 3d 1c be da bd 6c a5 31 3d
       -0.07782298 0.07780392 -0.10680792 0.04337065
000030 04 ad 13 3e 61 72 91 3d 74 d8 8e 3b d1 a6 07 3e
       0.14421469 0.07101894 0.0043592993 0.13247229
000040 35 bd 67 3d 00 7a 2a 3e e3 db 5d bd 51 72 31 bd
       0.056576926 0.16648102 -0.05416478 -0.04332191
000050 19 50 c0 bd 8d 4d 63 3d 61 2e 92 bd b4 b4 bb 3c
       -0.093902774 0.05549388 -0.07137752 0.022913314
000060 a6 9f 21 3e b4 15 ed 3d 5b 20 73 bd 5b 94 81 bd
       0.15783557 0.11576405 -0.05935703 -0.06327125
000070 36 5f 56 bd a8 bf 29 be c5 33 a6 3d db f4 08 bd
       -0.052336894 -0.16577017 0.08115343 -0.033436637
000080 12 3f 33 3e a8 22 20 3e 31 d4 57 bc 2d 97 4e 3d
       0.17504528 0.1563822 -0.013173149 0.05043714
000090 21 ea 22 bd ab 43 e1 bd ee 93 14 3e 30 ec 23 3c
       -0.039774064 -0.10999235 0.14509556 0.010005042
0000a0 c3 da 04 3e 99 57 c5 3d 0d 23 cb 3d 62 a9 5b 3e
       0.12974076 0.096358486 0.09918795 0.21451333
0000b0 39 7d e1 bd b0 87 95 3c e0 c7 e7 bd 65 00 ce 3d
       -0.110102125 0.018253177 -0.1131742 0.10058669
0000c0 16 73 9d bd d1 65 d0 3d c1 9b bd 3d dd c2 85 bd
       -0.076879665 0.1017567 0.09258223 -0.06531308
0000d0 70 31 6c bc b8 be 18 3e 62 23 46 3d d9 f7 05 bd
       -0.014416084 0.14916503 0.048373587 -0.03270707
0000e0 33 11 33 3e dc 57 3d 3c 8f d7 93 3d b6 02 cc bc
       0.1748703 0.011556592 0.07218849 -0.024903636
0000f0 bf 70 ca 3d 73 b9 fc 3d eb 5a 95 bd 4b 54 00 3e
       0.09884786 0.12340059 -0.07292732 0.12532155
000100 d4 79 2e 3c c4 40 42 3e c9 de ee 3c 7f 23 d6 3c
       0.010649163 0.18970019 0.029158967 0.026139973
000110 b7 37 8e bc 06 30 26 3d c7 7a d2 bd 39 e4 b3 3d
       -0.017360551 0.040573142 -0.10277324 0.087837644
000120 91 78 18 be ef 6f 06 bd 3f e7 02 be f3 7c 99 3d
       -0.14889742 -0.032821592 -0.12783526 0.07494535
000130 1c b7 8a 3d 7f c7 ea bd 48 55 e6 3d c8 56 ee bd
       0.067732066 -0.11463832 0.11246735 -0.11637646
000140 e6 07 71 bd 00 1b a4 bd d4 d4 8d 3d 16 b3 ab bd
       -0.058845423 -0.08012962 0.06925359 -0.08383767
000150 f4 63 0a be 00 f3 46 3a 1c 20 35 3d 50 47 e5 bd
       -0.13514692 0.00075893104 0.044220075 -0.111952424
000160 e0 da d3 bb c0 cc fe bc 35 93 ae bd fa 74 3a bd
       -0.006465301 -0.031103492 -0.08524171 -0.045521714
000170 c8 cf f1 3d 10 b3 dd 3c 80 c5 cd bb 00 9b 3b bc
       0.11807209 0.027062923 -0.0062796474 -0.011450529
000180 6e bc 83 bd f5 a5 a1 bd 20 33 17 bc c5 c2 c0 bd
       -0.064324245 -0.07892982 -0.009228498 -0.09412149
000190 a6 94 08 3e 4a 2a 7d bd 54 67 cc 3d 9a ef 03 be
       0.13337955 -0.061807908 0.09980646 -0.1288437
0001a0 3e 01 8e bd 70 5c f3 3d 52 31 cf bd 26 d5 0f be
       -0.06933831 0.118828654 -0.10116829 -0.14046153
0001b0 58 e6 6f 3d a8 b8 02 be 26 2e 0b 3e 16 ea 8b bd
       0.058569282 -0.12765753 0.13591823 -0.06831758
0001c0 b8 ae b4 3d a2 cc 0d 3e 74 21 15 3e b0 20 a1 bc
       0.088223875 0.13847592 0.14563543 -0.019668907
0001d0 36 c5 96 3d 18 56 81 3c 0a c9 2b be 67 6e 1e be
       0.07361834 0.015788123 -0.16775909 -0.15471803
0001e0 e7 a0 3c be b8 69 76 3b b7 a2 9a bd f2 c6 1d 3e
       -0.18420754 0.0037599634 -0.07550567 0.15407923
0001f0 ae 8f 31 3d fe 7c 3d bc 18 66 8b 3d 41 bb 16 be
       0.043349914 -0.011565445 0.06806582 -0.14719869
000200 38 45 7d bd 91 e8 1e 3e 4c 0a 1e be b4 09 5f bd
       -0.06183359 0.15518405 -0.15433615 -0.054452613
000210 29 fa 82 bd 5e 4f 80 bd 24 93 a4 bd 5f ee c3 bd
       -0.063953705 -0.06265138 -0.08035877 -0.0956695
000220 a4 8a 15 3d 6f 38 e1 3c d4 2c db bd d9 8c 48 bc
       0.03650917 0.02749273 -0.1070191 -0.012240612
000230 a1 7b f3 bd 33 93 63 bd b0 93 8a bc 1a 4f 90 3c
       -0.11888815 -0.055560302 -0.016916126 0.017615844
000240 46 b7 c5 bd aa 7f 45 be ff ba 25 be af c5 32 3e
       -0.09654097 -0.19286981 -0.16184615 0.17458223
000250 b1 49 13 3e 1d 9e 83 3d bb 70 11 be c2 80 c9 bb
       0.1438358 0.06426642 -0.1420316 -0.0061493823
000260 45 54 10 be 73 3e ca 3d 6a 61 fe 3d a9 0a 0f be
       -0.14094646 0.098751925 0.12420924 -0.1396891
000270 02 ec 2f be 5e f8 23 be 8b 97 40 be 7c 48 26 be
       -0.17179874 -0.16012713 -0.18807809 -0.16238588
000280 2e e6 ba bb 39 9d 1e bd f2 0c db 3d 2c 68 a1 bd
       -0.005703709 -0.038724158 0.106958285 -0.07881197
000290 fc 3f 1c 3c e1 01 1e 3e 56 c0 30 3c b9 d1 8a bd
       0.009536739 0.15430404 0.010788044 -0.06778283
0002a0 cb ca 0c 3e f8 01 b2 bd c8 33 82 3d cc ee 0c 3d
       0.13749234 -0.08691782 0.06357533 0.034407422
0002b0 7b 22 2d be a9 2e 57 bd 29 94 42 bd 36 f0 b7 3d
       -0.16907685 -0.052534733 -0.047504578 0.089813635
0002c0 8e 48 db 3d d0 8c 89 3d f3 b0 35 3e 6b 65 62 bd
       0.10707198 0.06716311 0.17743282 -0.0552725
0002d0 3e b2 94 3d f5 ac 04 be a1 06 bf 3d a0 f1 3f be
       0.072605595 -0.12956603 0.09327436 -0.18744516
0002e0 2b b9 3d bb cf 16 32 be 37 7b 4d bd 16 44 e9 3d
       -0.002894948 -0.17391513 -0.050166335 0.113899395
0002f0 6f 5d b3 3c e0 3c 27 bd 69 1d c4 bd d3 6f f2 3b
       0.021895139 -0.04082954 -0.09575922 0.0073985844
000300 88 70 d3 bd db 38 1d 3e a4 b2 29 3c 03 8b 9c 3d
       -0.10324198 0.1535372 0.010357533 0.07643702
000310 9d a9 bb bd 06 b6 41 be 05 e4 a0 bd b6 eb df 3a
       -0.091632105 -0.18917093 -0.07855991 0.0017083797
000320 1f 06 81 3d 61 e0 57 3e 2a b3 fe bd c0 b1 65 3c
       0.06299996 0.21081688 -0.124365166 0.01401943
000330 04 59 f3 3c cf a8 3b 3d 3d c7 e9 3d ec d3 01 bd
       0.029705532 0.045815285 0.11414955 -0.031696245
000340 1b 0e f3 bd a4 e8 53 bd b4 9e 17 bd 0a 24 bc 3b
       -0.11867925 -0.051735535 -0.037016585 0.005741601
000350 99 ac 38 3e 47 7b 25 be 1a 4c 08 3e d3 de 85 bd
       0.18034591 -0.16160308 0.1331028 -0.06536641
000360 fa ab df bc 91 d8 90 bd c9 af fe 3c cd 1c 09 3d
       -0.027303685 -0.07072557 0.03108968 0.033474732
000370 3e f3 f8 3d c5 46 78 3d 3b 67 b9 3c ee 36 03 be
       0.1215577 0.060614366 0.022632232 -0.12813923
000380 ef 82 da bc 87 d8 9e bb f9 36 fb 3c aa 41 65 3e
       -0.026673762 -0.0048475894 0.030665861 0.2238833
000390 88 87 14 3e d0 68 8f bd 27 f6 12 be 57 5d ba 3d
       0.14504826 -0.07002413 -0.14351712 0.090998344
0003a0 e6 79 f5 bc 0f 1a a0 bd be a9 1e be 16 51 ce 3d
       -0.029965352 -0.0781747 -0.15494439 0.1007406
0003b0 3a 2f d5 3a f7 9c c5 3d 8b 18 e2 bc 35 92 c9 bd
       0.0016264685 0.09649079 -0.027599594 -0.0984234
0003c0 0d 7b a7 bd 76 71 a6 3c 20 6a 48 bb 84 1c cf 3d
       -0.08177767 0.020317774 -0.0030580834 0.10112861
0003d0 07 42 21 be 7b 82 b8 3d 0a 8c 9d 3d d4 28 c9 bd
       -0.15747844 0.09009262 0.07692726 -0.098222405
0003e0 45 a2 d8 3d 09 44 52 3c e3 72 fd bd 30 80 06 3e
       0.105778255 0.012833604 -0.123754285 0.13134837
0003f0 6a 4b 10 3e d0 37 a6 3d e8 3d 1a 3e d3 c1 a9 3d
       0.14091268 0.08116114 0.15062678 0.08288922

model.0.bias f4 [256]
000000 33 a6 8f 3d f7 8a a7 bd 9c df 09 be c7 84 f6 3d
       0.07014122 -0.08180802 -0.13464206 0.12037044
000010 5a 47 d0 3c 12 19 16 3d e0 18 9f 3d f8 d8 d2 bd
       0.025424648 0.036645003 0.077684164 -0.1029529
000020 9c 3f 6d 3d 70 19 f4 3d 25 88 f4 3d d4 08 99 3d
       0.05792199 0.11918914 0.1194003 0.07472387
000030 21 03 74 3d 23 db a3 bc bc 3a 11 be 1e 00 07 3e
       0.059573296 -0.020001953 -0.14182562 0.13183638
000040 86 fc 97 bd a1 01 10 be 33 a8 78 bc b8 40 5b 3d
       -0.07421212 -0.14063121 -0.015176821 0.053528517
000050 6b fc ca 3d bb e1 5b 3d 57 b7 cc bd 4a 2d d2 bd
       0.09911426 0.05368207 -0.09995907 -0.102625445
000060 10 76 b2 3d d0 c8 3f bd fc fc ee bd a8 6e 1f 3c
       0.08713925 -0.04682237 -0.11669347 0.009730972
000070 02 ac 48 3d b3 8a f3 3d 13 42 a3 bd 32 0c 9d 3d
       0.048992164 0.11891689 -0.07971587 0.07668342
000080 a0 14 e0 3b 3c 8a 0c 3e 36 31 74 3d 38 63 f6 bd
       0.006838396 0.13724607 0.059617244 -0.12030643
000090 6b df 01 be 81 b0 d6 bd 27 60 91 bd 4e 95 65 3d
       -0.12682883 -0.10482884 -0.07098418 0.05605059
0000a0 ce 77 aa bd 88 3e de 3d a0 bc 06 be 21 61 51 bc
       -0.08323632 0.10851771 -0.13157892 -0.012779505
0000b0 da f5 f4 bc 2e 8b d8 3d 2d 1a 89 bd bc cb 00 3e
       -0.029902387 0.105734214 -0.06694446 0.12577718
0000c0 60 ac d5 bb 28 38 91 bc fc b9 cc bd d6 99 a3 3c
       -0.006520793 -0.017726973 -0.09996411 0.019970816
0000d0 e0 70 56 bc 4a f6 e0 bd e3 7e 80 3d 2c da 38 3c
       -0.013088435 -0.10984476 0.06274202 0.011282485
0000e0 2f fa de 3c 59 47 a6 bd 50 23 0e 3d f1 72 44 bd
       0.027218906 -0.08119077 0.034701645 -0.04796118
0000f0 64 5a ca 3d a2 3b 00 be 30 e4 e5 3c ed b6 88 bd
       0.09880522 -0.12522748 0.02806291 -0.06675515
000100 d3 93 bb 3d 1a 5a 23 3e 30 ff 1f 3e e0 36 1f 3e
       0.091590546 0.1595234 0.1562469 0.15548277
000110 e5 cc a0 bd 38 98 6e 3d 07 c2 db bb 14 09 18 3d
       -0.078515805 0.058250636 -0.0067064795 0.037118033
000120 c0 92 ec bc e8 f7 a4 bc 3e 49 c2 bd 6b d8 07 be
       -0.02887857 -0.020137742 -0.09486626 -0.1326615
000130 69 76 ee bd 4d cd f9 bd 97 38 85 bd ae 0d 78 bd
       -0.11643679 -0.12197361 -0.06504934 -0.06055992
000140 b7 76 44 bd ee 5c b6 bc 9e e6 b7 3d 2c 18 28 3d
       -0.047964778 -0.02226111 0.089795336 0.041038677
000150 27 f2 1f be 2e 7a 28 3e f6 77 83 3d 4a 7b d2 bd
       -0.15619718 0.16452858 0.06419365 -0.10277422
000160 2f b7 d2 3c ec 7d 9d 3d 85 c9 02 bd a0 ae 80 bc
       0.025722114 0.07690033 -0.031930465 -0.015708268
000170 78 ba 81 bd 14 6d 7c 3d 59 e5 90 bd c4 32 a4 bd
       -0.06334394 0.061627463 -0.070749946 -0.08017495
000180 36 ed 21 3e 72 d2 0b 3e 3d 87 ca 3d ef e8 6c 3d
       0.15813145 0.13654497 0.09889076 0.05783933
000190 c3 f4 11 be 0f af e4 bd b7 9f 2c 3d c8 1d ec 3c
       -0.14253525 -0.11166202 0.042144503 0.028822795
0001a0 b9 d7 b2 3d f5 41 fb bd 71 99 04 3e 21 2b cc bd
       0.08732552 -0.1226844 0.12949158 -0.09969164
0001b0 aa 89 0f 3e 9b 02 2c 3d 74 54 3c bd 50 d6 7f 3d
       0.14017358 0.041994672 -0.04597898 0.062460244
0001c0 8c 1f 0c be cf 53 91 3d b9 b2 11 3d 38 da d3 bd
       -0.13683909 0.07096063 0.035570834 -0.10344356
0001d0 26 2a 9e 3d 94 fb 8e 3c c4 5c 16 bd ac 48 56 bd
       0.07722883 0.017453946 -0.036709562 -0.0523154
0001e0 88 39 ef bd ac 07 b5 bd 22 fe f6 bd f7 85 95 3c
       -0.11680895 -0.08839354 -0.12060191 0.018252356
0001f0 08 7b 0e 3e 0e 95 a4 bc 0e c1 06 3e d5 ef 49 3d
       0.1391412 -0.020090606 0.13159582 0.049300987
000200 52 92 d5 3d fc d1 a9 3d c9 73 25 3d bb dd 02 be
       0.10428299 0.082920045 0.040393624 -0.12779896
000210 38 57 be bd 4a cc a0 bd 4d 91 1a 3d 44 0c 5c 3d
       -0.092939794 -0.07851465 0.037736226 0.053722635
000220 84 90 f1 bd f3 35 04 bd 32 a9 ba 3d 64 ae 88 bd
       -0.11795142 -0.032278012 0.09114303 -0.06673887
000230 59 41 04 3e 80 db 3a 3d 71 35 21 3e b9 82 59 bd
       0.12915553 0.045619488 0.15743043 -0.053103182
000240 a5 08 0c be 2d 09 45 bd 0a 6e 15 3d b6 af f1 bc
       -0.13675173 -0.048104454 0.036481895 -0.02950273
000250 e7 ed 14 3d 0c f9 f4 3c 02 c4 e1 bd b1 c7 dc bd
       0.036359694 0.029903911 -0.11023714 -0.107802756
000260 41 97 bc bd 97 f4 08 be f2 bd 9e bb 28 5a 82 bd
       -0.09208537 -0.13374554 -0.0048444206 -0.06364852
000270 bd ce 15 3e b3 6f 20 3e 5d 3e 0c be 84 1e b2 bd
       0.14629646 0.1566761 -0.13695665 -0.08697227
000280 db 0b 0b be f9 b0 fb 3d a5 d5 01 3e 0e 66 4c bd
       -0.13578741 0.12289614 0.12679155 -0.049902014
000290 8f c5 2f 3e 15 41 c5 bd 1c 92 db bc 44 e8 17 be
       0.17165206 -0.09631554 -0.026803069 -0.14834696
0002a0 08 9c 86 bc fd d4 a6 bd 86 ee 78 3d 8e 61 7d 3d
       -0.016431823 -0.08146093 0.06077435 0.061860614
0002b0 0c 32 29 bd 89 40 cf bc 76 02 0d be 65 7e d4 3d
       -0.041307494 -0.025299327 -0.1377047 0.1037567
0002c0 1c da f9 3d ed a0 66 bd e2 ad 42 bd 38 ec 1b 3e
       0.12199804 -0.056305815 -0.04752911 0.15226829
0002d0 76 7d 30 3e 00 0e 08 3d 04 35 1b 3d e0 2c a0 3d
       0.1723536 0.033216476 0.037892357 0.07821059
0002e0 af 27 f9 bd 80 ce 0e be df 0d 96 3d 30 3a 78 3c
       -0.12165772 -0.13945961 0.073268645 0.015150592
0002f0 5c 01 fc bd 93 bf 18 be 34 74 0c be f0 39 27 bc
       -0.12304947 -0.1491683 -0.13716203 -0.0102066845
000300 40 be ab bd 07 8c 97 bd fd 81 e7 bd f0 bd 1d be
       -0.08385897 -0.07399755 -0.1130409 -0.15404487
000310 54 2f ee bd 16 d6 24 3e c6 72 86 3d 60 1e be bc
       -0.11630121 0.16097292 0.0656486 -0.023207843
000320 77 22 98 bd 07 13 8a 3d b0 7f 11 be 13 97 c5 3d
       -0.07428449 0.067419104 -0.14208865 0.09647956
000330 2b 91 2c 3e 1e b0 cb bd c5 2c 12 3e 0d bb ff 3d
       0.16852252 -0.09945701 0.1427489 0.12486849
000340 c5 1f af bd da 28 02 be cf eb f7 3c 28 db 0b 3d
       -0.085509814 -0.12710896 0.03026381 0.03414455
000350 08 95 f9 3d 52 8f b8 bd a3 84 98 bd 24 2f c6 3d
       0.121866286 -0.09011711 -0.074471734 0.0967696
000360 f1 52 66 ba b4 22 2a 3e 6d 93 a1 bd 47 9c b8 3d
       -0.0008786163 0.166148 -0.07889447 0.090141825
000370 92 a7 e3 bd 68 8d cc bd 3f 76 aa 3d d0 ed fe 3c
       -0.11115946 -0.099879086 0.08323335 0.031119257
000380 dd 34 8a 3c 9d 47 d7 3c 0c a8 24 3e 70 08 fc 3d
       0.01687091 0.026279265 0.1607973 0.12306297
000390 0e c2 bf bd 3d 09 1b be 44 67 f7 3b 73 01 b8 bd
       -0.09363185 -0.15140243 0.007550152 -0.089846514
0003a0 c1 85 16 3e 04 00 9f bd 5a ad a7 bd 7d be ad 3b
       0.1469946 -0.07763675 -0.08187361 0.005302249
0003b0 74 9f aa 3d 19 0f 08 3d 41 b8 d4 3d 35 72 19 be
       0.083311945 0.033217523 0.10386706 -0.14984973
0003c0 54 51 0b be 56 11 e2 3d c6 04 16 be b8 2b d8 bd
       -0.13605243 0.11038463 -0.14650258 -0.10555214
0003d0 e0 21 e5 bd 23 30 25 3d 55 94 ea 3d a3 c3 f3 3d
       -0.11188102 0.04032911 0.11454073 0.11902549
0003e0 1e 27 e9 bd c6 5f 11 3e 35 0c 07 be 0e fd bd 3d
       -0.11384414 0.14196691 -0.1318825 0.09276782
0003f0 b6 7c f9 3d 87 dc ca bd 10 6c c5 3d 21 61 9c 3d
       0.1218199 -0.099053435 0.09639752 0.07635713
