models/mappo_best_stage_3.pt (torch, 853690 bytes, 14 tensors)

log_std f4 [2]
-0.67520744 -0.35191622
00000000: 65da 2cbf 5d2e b4be

body.0.weight f4 [256, 13]
0.23481038 -0.1401474 0.18314071 0.35450375 -0.30461374 0.19086576 -0.0005728014 -0.4057173
-0.34804603 -0.11460316 -0.29798096 -0.13805655 0.085330896 0.2763057 -0.26320654 0.04265952
-0.22513582 0.2377176 -0.11301604 -0.07334539 0.05384305 -0.012452811 0.046489984 -0.25079763
0.021035314 -0.24177513 0.016808607 -0.15755877 -0.1258248 -0.07442794 0.30265093 0.033082273
-0.25491834 0.39825514 -0.28047734 0.23171857 0.23658565 -0.12305942 0.12010811 -0.13297042
-0.1080648 -0.04122608 0.22153579 -0.33657464 -0.019302363 0.10256648 -0.13529888 -0.3306216
-0.13061078 -0.12897119 -0.28229764 0.1195394 -0.104336575 0.053032275 -0.0056899018 -0.16519491
0.19491386 -0.015536596 -0.20554124 0.2479892 0.20759559 0.24599527 -0.03583968 -0.009874287
0.063455366 -0.15541801 0.02234384 0.30878747 -0.1004617 0.1415919 0.1614453 0.1284417
0.2797212 0.19562377 -0.04593969 0.47747618 0.17737268 0.07903796 0.07284938 0.101910375
-0.014170878 0.15569328 -0.019479316 -0.3110894 0.151001 -0.12857044 -0.27277154 0.23240691
-0.15505672 -0.12020346 0.19158593 -0.17522335 0.22938618 -0.10591854 0.15350965 -0.069371775
-0.22183812 0.043427348 0.038215935 0.12970385 -0.23340917 -0.129942 -0.13788293 0.091858506
-0.2758694 0.24952301 -0.0264678 -0.15911564 0.07431999 -0.17482865 0.2345384 -0.011592388
-0.011102945 -0.055631146 -0.13331059 -0.12142405 -0.19165361 0.19668142 -0.0644183 0.21416147
0.006920894 -0.076555304 -0.12255439 -0.3384709 -0.13910797 -0.053660356 0.015423196 -0.35949016
0.17348994 0.0031126228 0.0055646147 -0.24258958 -0.091048345 0.06525581 -0.17444594 0.04295142
0.19224754 0.04193964 0.17246164 0.041446485 -0.19440125 -0.032110006 -0.19202578 0.12073081
-0.0010933408 0.15390107 -0.30407473 0.13930015 -0.07731568 0.106920935 -0.26293376 -0.14643456
0.0168517 -0.26755127 -0.107811764 0.23356132 0.1838477 0.14792658 -0.12928227 -0.0051805493
-0.1332119 -0.10076786 0.11125946 0.07231644 -0.5747579 0.012080316 -0.53434575 0.025128225
-0.13323304 -0.1146169 -0.13380642 0.021868816 0.14780933 0.042933192 -0.13925071 -0.053022057
0.43301517 -0.08899795 0.12586561 0.10366528 0.011697503 -0.085347146 -0.26962796 -0.23893884
-0.24968594 0.16413543 0.2652575 0.16832638 -0.25531423 0.16535327 -0.06329264 -0.07435611
0.1890963 -0.08267631 -0.11364496 0.21191958 0.1364705 0.1437024 -0.0016702272 -0.2976422
-0.114746034 -0.3008569 -0.23961194 0.2830228 -0.034141533 -0.09481396 0.13007978 -0.2865829
-0.2019922 -0.014132682 -0.07099361 0.2576605 -0.21204361 0.029987292 0.08778941 -0.41342786
-0.052656274 -0.40690824 -0.071406506 0.012820593 0.15712075 0.27031597 -0.022726357 -0.053138345
-0.052855104 -0.10370317 0.20019782 0.09729749 0.14320445 0.06881258 0.10437524 -0.033912778
-0.1531541 -0.07082078 0.087498575 -0.16840602 0.032738034 0.13420655 -0.03098201 -0.21440709
-0.0023453685 0.39632058 -0.25910923 0.388443 0.19251885 0.10380794 -0.07267501 -0.025147393
-0.17230316 0.067263834 0.139547 -0.07500509 -0.06366712 -0.0895136 -0.10674092 -0.09298835
00000000: 2272 703e cd82 0fbe 3d89 3b3e 8481 b53e
00000010: 55f6 9bbe 5072 433e 0d28 16ba 2eba cfbe
00000020: 1733 b2be 10b5 eabd f690 98be b25e 0dbe
00000030: f7c1 ae3d f177 8d3e 02c3 86be c0bb 2e3d
00000040: 018a 66be 3e6c 733e f474 e7bd 1c36 96bd
00000050: 888a 5c3d e006 4cbc 486c 3e3d 8c68 80be
00000060: 4052 ac3c e693 77be 34b2 893c 1657 21be
00000070: 37d8 00be ad6d 98bd 10f5 9a3e 4781 073d
00000080: a884 82be 19e8 cb3e ba9a 8fbe a247 6d3e
00000090: 8243 723e 9406 fcbd 3efb f53d 6629 08be
000000a0: 1451 ddbd aedc 28bd 47da 623e 8353 acbe
000000b0: fd1f 9ebc 600e d23d ca8b 0abe 3c47 a9be
000000c0: d5be 05be 0611 04be 5189 90be 13d1 f43d
000000d0: 6aae d5bd 5f38 593d 5b72 babb db28 29be
000000e0: 8097 473e 358d 7ebc 6779 52be e1f0 7d3e
000000f0: f093 543e 2fe6 7b3e a1cc 12bd c3c7 21bc
00000100: e3f4 813d e625 1fbe 6e0a b73c 6419 9e3e
00000110: ddbe cdbd 78fd 103e eb51 253e 3986 033e
00000120: 9e37 8f3e 9951 483e 422b 3cbd c277 f43e
00000130: 2fa1 353e a7de a13d 0e32 953d 63b6 d03d
00000140: f82c 68bc 0f6e 1f3e 1693 9fbc 1c47 9fbe
00000150: 02a0 1a3e f8a7 03be b6a8 8bbe 14fc 6d3e
00000160: 30c7 1ebe 3b2d f6bd 1a2f 443e c06d 33be
00000170: 36e4 6a3e d2eb d8bd a231 1d3e ca12 8ebd
00000180: 8829 63be e0e0 313d 5088 1c3d 16d1 043e
00000190: d002 6fbe 840f 05be 2f31 0dbe 5020 bc3d
000001a0: c13e 8dbe f682 7f3e 00d3 d8bc 36ef 22be
000001b0: 1435 983d 4806 33be d62a 703e 00ee 3dbc
000001c0: 20e9 35bc 7cdd 63bd 9282 08be 2cad f8bd
000001d0: d840 44be db66 493e beed 83bd 254d 5b3e
000001e0: abc8 e23b 07c9 9cbd ccfd fabd 0f4c adbe
000001f0: 5272 0ebe f6ca 5bbd 93b1 7c3c 180f b8be
00000200: 59a7 313e 25fd 4b3b 5f57 b63b 6769 78be
00000210: 8e77 babd d7a4 853d f5a1 32be d4ed 2f3d
00000220: 8adc 443e e6c8 2b3d c999 303e cac3 293d
00000230: 1f11 47be c885 03bd 68a2 44be b741 f73d
00000240: 6e4e 8fba 3e98 1d3e afaf 9bbe b3a4 0e3e
00000250: af57 9ebd 5df9 da3d 419f 86be f1f2 15be
00000260: 940c 8a3c 7bfc 88be 6acc dcbd b32a 6f3e
00000270: 9242 3c3e 117a 173e 9262 04be 99c1 a9bb
00000280: b368 08be 615f cebd 00dc e33d a41a 943d
00000290: 5523 13bf 85ec 453c e2ca 08bf b5d9 cd3c
000002a0: 3e6e 08be 44bc eabd 8d04 09be 3b26 b33c
000002b0: 545b 173e b7da 2f3d bd97 0ebe a82d 59bd
000002c0: 2ab4 dd3e 8f44 b6bd eae2 003e 764e d43d
000002d0: e2a6 3f3c 7cca aebd ad0c 8abe 62ac 74be
000002e0: acad 7fbe 1e13 283e d5cf 873e c05d 2c3e
000002f0: 8cb8 82be 5e52 293e 929f 81bd 0448 98bd
00000300: 76a2 413e 3252 a9bd b0be e8bd 7201 593e
00000310: ecbe 0b3e b926 133e 86eb daba 8f64 98be
00000320: f8ff eabd ea09 9abe d55c 75be 5de8 903e
00000330: fed7 0bbd d22d c2bd a233 053e feba 92be
00000340: 0bd7 4ebe c48c 67bc 1965 91bd 14ec 833e
00000350: f621 59be e9a7 f53c efca b33d d1ac d3be
00000360: 1bae 57bd 4756 d0be 933d 92bd 770d 523c
00000370: 43e4 203e db66 8a3e a02c babc 98a7 59bd
00000380: 987e 58bd 5462 d4bd a800 4d3e e843 c73d
00000390: 30a4 123e 9ced 8c3d b0c2 d53d 20e8 0abd
000003a0: 6ed4 1cbe 7c0a 91bd 7432 b33d a172 2cbe
000003b0: 5118 063d 716d 093e fccd fdbc 888d 5bbe
000003c0: c1b4 19bb 88ea ca3e f7a9 84be 00e2 c63e
000003d0: a923 453e 4299 d43d a3d6 94bd e801 cebc
000003e0: 3d70 30be 9fc1 893d 69e5 0e3e 459c 99bd
000003f0: e863 82bd e852 b7bd fc9a dabd ad70 bebd

body.0.bias f4 [256]
0.14179085 -0.21256673 0.10205582 0.20567967 0.13107747 -0.112983465 -0.0067460802 -0.22458766
-0.15804298 0.12664106 -0.00763697 -0.2536974 0.16935651 0.124698736 -0.17700547 0.18395738
0.046199292 -0.00013414025 0.10678643 0.027410347 -0.117449015 0.07635416 -0.045318577 0.1885059
0.11829376 0.16967468 0.052642882 -0.11950466 0.04935974 -0.10755661 0.20091446 -0.10323474
-0.18992826 -0.00412637 0.00896601 -0.053809073 0.027961211 0.2661992 -0.024619715 0.14952847
0.035144445 0.21752512 0.2390789 -0.1703645 0.11421484 0.0750124 0.035192452 -0.252499
0.10771108 0.060503107 0.008163549 -0.15618658 0.034101553 0.26514935 -0.15120544 -0.14578266
-0.06869238 0.00012706322 -0.061937064 -0.20510508 0.13509984 -0.17159791 -0.07374765 -0.17216371
-0.11238923 -0.104536146 0.037340958 -0.22686914 -0.058466967 -0.059165407 0.02756211 -0.18447044
0.1972712 -0.09908864 -0.02417303 0.1781564 -0.17633384 0.14014435 0.04187727 -0.005348798
-0.009838134 0.1862326 0.042214055 -0.23681012 -0.24213141 -0.20617616 0.0037237804 -0.14794445
-0.11751211 -0.07503266 0.05252424 0.07313731 -0.14896992 -0.14405276 -0.14751506 -0.23991488
0.082463264 -0.25863275 -0.14307785 -0.2245997 0.20269062 0.20229618 0.068049885 -0.06817551
0.09286513 -0.21341848 0.1140113 0.08545595 -0.15448016 0.14633198 0.12354162 0.11011025
0.13350008 -0.15314339 0.08182719 -0.14771469 -0.08999788 -0.2517726 -0.021168798 -0.09715434
-0.16194908 -0.0632059 0.0023677526 -0.09657139 0.007991807 -0.18404037 -0.00492692 0.19067788
0.18528305 0.18530484 0.095173836 -0.030221546 -0.011144729 -0.2459027 0.17222166 0.123450376
-0.19557996 0.09725732 0.029480284 -0.11510833 0.05965848 0.018949034 0.19421087 0.009853239
-0.09135957 0.20709303 -0.05929324 -0.16276893 0.009594243 0.044546764 0.0747395 0.0251697
0.0321695 -0.16539295 -0.034940496 0.06937211 -0.10848124 -0.23349728 -0.010429293 0.06795004
-0.09308769 0.08059855 -0.07356244 0.09410349 0.116449304 -0.24579322 -0.06274629 0.21240087
0.15133294 0.03228727 0.16214646 0.090092845 0.14892696 0.12516494 -0.15339877 0.16044933
-0.09581258 -0.13618927 0.057617486 -0.0641897 -0.23568726 0.021668416 0.2066595 0.18638293
-0.13230546 0.17742752 0.009444952 0.20121484 -0.23597112 0.21471868 0.20700584 -0.039333053
-0.04478068 -0.18156154 -0.1308687 -0.20765808 -0.16905513 -0.18167132 0.19571699 0.13563664
0.11144332 -0.19021235 -0.028203277 -0.14999507 -0.2731274 -0.0859485 0.112134695 -0.05367674
0.18979019 -0.26374355 0.2443979 0.056949217 -0.20789279 0.2340328 -0.027850028 -0.11684697
-0.21018139 0.059289664 0.1614061 -0.18442646 -0.029001018 -0.01491893 -0.24016972 0.19815871
-0.12354112 -0.09925799 0.04555973 0.10533138 -0.012562816 -0.14702286 0.0062968684 0.15172036
-0.10593344 -0.23713355 0.0835352 -0.20037404 -0.044517547 0.109664395 -0.14145143 0.13173649
-0.13944891 -0.14761254 -0.19918157 -0.102153614 0.106678404 -0.22224607 -0.110428095 -0.10717815
-0.21029556 -0.26361242 -0.05682829 -0.09416041 -0.08737694 -0.16997468 0.10113088 -0.15804969
00000000: 9f31 113e 18ab 59be a402 d13d b19d 523e
00000010: 2c39 063e e063 e7bd 390e ddbb 4ffa 65be
00000020: 05d6 21be 32ae 013e 8c3f fabb a0e4 81be
00000030: cb6b 2d3e 0d62 ff3d ec40 35be 535f 3c3e
00000040: 783b 3d3d 00a8 0cb9 d8b2 da3d aa8b e03c
00000050: 1c89 f0bd 925f 9c3d f99f 39bd b107 413e
00000060: 0044 f23d 33bf 2d3e 10a0 573d dcbe f4bd
00000070: 702d 4a3d a446 dcbd 85bc 4d3e bc6c d3bd
00000080: 8e7c 42be 8036 87bb 2ce6 123c e766 5cbd
00000090: e90e e53c 434b 883e 49af c9bc fe1d 193e
000000a0: 9ff3 0f3d e8be 5e3e 19d1 743e 0874 2ebe
000000b0: 78e9 e93d 1aa0 993d f625 103d 8d47 81be
000000c0: a097 dc3d 1bd2 773d 68c0 053c 60ef 1fbe
000000d0: 12ae 0b3d a8c1 873e 99d5 1abe 0d48 15be
000000e0: 97ae 8cbd 463c 0539 b8b1 7dbd 1107 52be
000000f0: 9d57 0a3e 5db7 2fbe 0209 97bd af4b 30be
00000100: 532c e6bd 0c17 d6bd d5f2 183d 6250 68be
00000110: 0f7b 6fbd 6d57 72bd efc9 e13c d2e5 3cbe
00000120: 7601 4a3e fcee cabd 8506 c6bc a26e 363e
00000130: dc90 34be 0082 0f3e 8087 2b3d f844 afbb
00000140: 2030 21bc c2b3 3e3e a5e8 2c3d 5a7e 72be
00000150: 4cf1 77be d81f 53be ab0a 743b c07e 17be
00000160: 30aa f0bd b9aa 99bd a823 573d 04c9 953d
00000170: 928b 18be 9182 13be 300e 17be 3fac 75be
00000180: 80e2 a83d 836b 84be 0083 12be 77fd 65be
00000190: 218e 4f3e bb26 4f3e bd5d 8b3d 9a9f 8bbd
000001a0: 1330 be3d 608a 5abe c27e e93d 8703 af3d
000001b0: 0c30 1ebe 0dd8 153e 6403 fd3d 7c81 e13d
000001c0: 3fb4 083e 9fd1 1cbe 0495 a73d 8542 17be
000001d0: cf50 b8bd 57e8 80be 306a adbc dbf8 c6bd
000001e0: fbd5 25be 1872 81bd 4c2c 1b3b 39c7 c5bd
000001f0: 11f0 023c 1475 3cbe 0072 a1bb 1041 433e
00000200: d7ba 3d3e 8dc0 3d3e 80ea c23d 2d93 f7bc
00000210: 6298 36bc ebcd 7bbe e05a 303e 8dd3 fc3d
00000220: 1d46 48be d92e c73d a380 f13c ebbd ebbd
00000230: 735c 743d 013b 9b3c 37df 463e 7b6f 213c
00000240: ba1a bbbd 3210 543e 78dd 72bd e6ac 26be
00000250: 2c31 1d3c ab76 363d 0611 993d b030 ce3c
00000260: 2ac4 033d c55c 29be c41d 0fbd f712 8e3d
00000270: 6a2b debd e919 6fbe a0df 2abc 6429 8b3d
00000280: c2a4 bebd da10 a53d e8a7 96bd 55b9 c03d
00000290: f97c ee3d 38b1 7bbe 2081 80bd 9d7f 593e
000002a0: 06f7 1a3e a83f 043d b909 263e 9982 b83d
000002b0: 4f80 183e 3d2b 003e 9114 1dbe d44c 243e
000002c0: 6339 c4bd 3375 0bbe 5000 6c3d e475 83bd
000002d0: 0058 71be f681 b13c 8c9e 533e 2bdb 3e3e
000002e0: 157b 07be 8faf 353e 00bf 1a3c 430b 4e3e
000002f0: 6aa2 71be 37df 5b3e 57f9 533e b21b 21bd
00000300: f26b 37bd 45eb 39be 7202 06be 52a4 54be
00000310: ca1c 2dbe 0c08 3abe 096a 483e 55e4 0a3e
00000320: 653c e43d 07c7 42be 8f0a e7bc 4f98 19be
00000330: 5bd7 8bbe c405 b0bd e0a6 e53d 24dc 5bbd
00000340: 5c58 423e 6509 87be 7143 7a3e 9543 693d
00000350: d9e1 54be 4ba6 6f3e be25 e4bc 774d efbd
00000360: ca39 57be b8d9 723d a447 253e 4ada 3cbe
00000370: 8b93 edbc 876e 74bc 0def 75be 1eea 4a3e
00000380: 2003 fdbd c647 cbbd d79c 3a3d fbb7 d73d
00000390: 45d4 4dbc 298d 16be f655 ce3b 955c 1b3e
000003a0: a2f3 d8bd 23d3 72be 8114 ab3d da2e 4dbe
000003b0: 0858 36bd ba97 e03d a5d8 10be eee5 063e
000003c0: b2cb 0ebe be27 17be 41f6 4bbe ea35 d1bd
000003d0: 357a da3d 7994 63be 2028 e2bd 3880 dbbd
000003e0: b857 57be 35f8 86be c8c4 68bd 2cd7 c0bd
000003f0: aef2 b2bd d80d 2ebe b51d cf3d c7d7 21be

body.2.weight f4 [256, 256]
0.02174083 0.00855495 -0.061179373 -0.050374363 0.005354357 -0.04761111 -0.035719007 -0.051856324
0.026629217 -0.026983261 -0.007576026 -0.027628273 -0.029737148 0.04445324 0.055461846 -0.04119717
-0.06813449 0.017944694 -0.021169666 0.058805577 -0.03744276 -0.065007195 -0.009880142 -0.01669119
-0.008191407 -0.044477563 0.035420433 0.02059784 -0.04843372 0.050592933 -0.052504376 -0.04515656
-0.05221588 -0.060216583 0.028189152 0.0032666514 -0.03908266 0.022016801 -0.05542147 0.033323087
0.0361941 -0.02985518 0.032431748 0.03419751 0.030706784 -0.045257915 0.0099523235 -0.02247002
0.02790035 0.004766767 0.03668487 0.03390237 -0.038384866 -0.015353426 0.011596233 0.0063365176
-0.012404136 0.0046438905 0.043244585 0.041302107 -0.0632872 0.01570347 0.011266656 -0.03613189
0.027703874 -0.0421691 -0.041830488 0.025714181 0.03077538 0.021461684 -0.065571114 -0.053183503
0.0051605 0.05025374 0.046037134 -4.825178e-05 0.050686754 -0.03467388 -0.02261347 0.011303127
0.059169374 0.052659348 -0.0034177154 -0.0071677417 0.04332184 -0.051804587 -0.016957235 0.0067744777
0.05778812 -0.0009100099 -0.057991527 -0.053272963 -0.03749337 -0.05828555 -0.06123676 0.05286756
0.057423815 0.03490273 0.044922486 -0.030606247 -0.035871986 0.035842918 0.03237885 0.03867671
-0.031754706 -0.04901634 -0.0018583614 -0.014692443 -0.045465134 0.017165741 0.038729597 0.017157262
0.04975503 0.00828965 0.0542325 0.0146855265 0.020713285 -0.035140797 -0.025856964 0.021564722
0.045234583 -0.03964539 -0.05562041 0.0073707327 0.013351932 -0.010946892 0.059747078 -0.061577283
-0.00044548346 -0.067962445 0.020525735 -0.046089273 0.053992204 0.0315028 -0.017190961 0.04927631
-0.050512984 -0.011428426 -0.048080903 -0.05413705 0.03688623 -0.05089955 -0.028228723 -0.010579601
0.01501435 -0.059595585 -0.0513822 0.044754796 0.035006233 -0.06527487 -0.028303891 -0.058032483
0.007036533 0.045082334 -0.0018115194 0.04811146 0.04440605 -0.057822205 -0.02170945 0.043647993
-0.01229021 -0.038818426 0.0048556775 0.032838974 -0.031314805 0.023018606 0.024408368 -0.041913405
-0.024514735 0.021783045 0.0028801323 -0.06141503 -0.032179736 0.052980594 0.051262304 -0.03690592
0.041394297 -0.03378199 0.030039012 -0.052200057 -0.024981827 0.0070413225 -0.009551096 -0.0012008324
-0.034063213 -0.016771475 -0.009506427 -0.056002237 0.04702609 0.050668493 -0.061516445 0.004118789
-0.013048179 -0.04807292 -0.036592185 -0.038084865 -0.009192102 0.017456267 -0.029048132 0.018221451
-0.060116205 0.030283712 0.017475989 -0.03230062 -0.062013894 0.055520676 0.000994727 0.026767135
0.047110215 0.010171592 0.0021695471 -0.018421032 -0.046144463 -0.025648925 -0.028318517 0.017829847
0.028112158 -0.05100973 -0.032550223 0.060527615 0.050843164 -0.056004517 0.027288835 -0.051898986
-0.03318643 -0.002613629 0.03345324 -0.005579509 -0.013702087 0.018531628 -0.02915129 0.034754653
0.055003908 -0.05021651 -0.031343963 0.045018554 -0.013518199 -0.028962538 0.016376186 0.0020015463
0.0068231174 -0.02279951 0.018735327 0.0036697462 0.02222455 -0.03563887 -0.008617513 0.016800286
-0.0014250427 -0.024157362 0.032458283 -0.031845715 -0.008212268 -0.03622836 -0.0071870163 -0.03109397
00000000: d319 b23c 102a 0c3c 3997 7abd 5955 4ebd
00000010: 9a73 af3b de03 43bd 184e 12bd 4c67 54bd
00000020: 8425 da3c 000c ddbc 5040 f8bb b054 e2bc
00000030: 529b f3bc 9a14 363d f62b 633d 5dbe 28bd
00000040: 188a 8bbd c000 933c 026c adbc 1ede 703d
00000050: 945d 19bd 7e22 85bd 52e0 21bc f6bb 88bc
00000060: 4035 06bc 1b2e 36bd 0415 113d cdbc a83c
00000070: 7062 46bd 893a 4f3d d40e 57bd 16f6 38bd
00000080: 52e0 55bd aaa5 76bd f0ec e63c 5115 563b
00000090: 2415 20bd 945c b43c a001 63bd ca7d 083d
000000a0: 4440 143d da92 f4bc 27d7 043d b012 0c3d
000000b0: cb8c fb3c 5d60 39bd 120f 233c 0c13 b8bc
000000c0: 468f e43c 8a32 9c3b e042 163d 36dd 0a3d
000000d0: 7339 1dbd f08c 7bbc 20fe 3d3c 90a2 cf3b
000000e0: b83a 4bbc c72b 983b 3c21 313d 662c 293d
000000f0: b89c 81bd 90a4 803c c897 383c 08ff 13bd
00000100: 3cf3 e23c 82b9 2cbd 7256 2bbd 8ca6 d23c
00000110: a61c fc3c 6ad0 af3c 264a 86bd f2d6 59bd
00000120: 6919 a93b ded6 4d3d 6f91 3c3d f461 4ab8
00000130: ea9c 4f3d 3306 0ebd e23f b9bc c030 393c
00000140: 965b 723d 54b1 573d c0fb 5fbb 60df eabb
00000150: 3e72 313d 0c31 54bd e6e9 8abc 70fc dd3b
00000160: 3cb3 6c3d bb8d 6eba 8688 6dbd c034 5abd
00000170: a692 19bd d4bc 6ebd 66d3 7abd a88b 583d
00000180: 3c35 6b3d 2af6 0e3d a400 383d f4b9 fabc
00000190: 81ee 12bd 06d0 123d af9f 043d 786b 1e3d
000001a0: 3911 02bd 5cc5 48bd 4394 f3ba 93b8 70bc
000001b0: a639 3abd 2b9f 8c3c eda2 1e3d 638d 8c3c
000001c0: eecb 4b3d 50d1 073c e622 5e3d 909b 703c
000001d0: e8ae a93c ccef 0fbd fcd1 d3bc 80a8 b03c
000001e0: e647 393d 3463 22bd 3ad2 63bd 3086 f13b
000001f0: 10c2 5a3c 985a 33bc 5ab9 743d 7638 7cbd
00000200: c78f e9b9 e52f 8bbd 9625 a83c 1bc8 3cbd
00000210: ee26 5d3d 1409 013d 0fd4 8cbc f5d5 493d
00000220: b4e6 4ebd 4b3e 3bbc 7bf0 44bd d0be 5dbd
00000230: 0416 173d 0c7c 50bd ec3f e7bc 1056 2dbc
00000240: c0fe 753c 801a 74bd 2476 52bd ce50 373d
00000250: b262 0f3d d5ae 85bd 90dd e7bc 78b3 6dbd
00000260: b892 e63b 41a8 383d 8170 edba 8610 453d
00000270: 1ee3 353d fad6 6cbd 04d8 b1bc 3dc8 323d
00000280: e15c 49bc 1200 1fbd 601c 9f3b 2982 063d
00000290: f443 00bd 8491 bc3c 0ff4 c73c 64ad 2bbd
000002a0: 20d3 c8bc 5b72 b23c 9ac0 3c3b 548e 7bbd
000002b0: e6ce 03bd 2e02 593d 6cf8 513d a92a 17bd
000002c0: 118d 293d fc5e 0abd 6014 f63c bacf 55bd
000002d0: b0a6 ccbc e5ba e63b 337c 1cbc 4065 9dba
000002e0: de85 0bbd 5564 89bc d8c0 1bbc 9a62 65bd
000002f0: 6e9e 403d c489 4f3d abf8 7bbd e8f6 863b
00000300: 08c8 55bc 1ce8 44bd b0e1 15bd e0fe 1bbd
00000310: 789a 16bc 7200 8f3c 59f6 edbc 2745 953c
00000320: 693c 76bd 8c15 f83c ce29 8f3c a84d 04bd
00000330: 4802 7ebd a669 633d 8061 823a c046 db3c
00000340: a4f6 403d c0a6 263c f62e 0e3b b4e7 96bc
00000350: fa01 3dbd b21d d2bc 3cfc e7bc e60f 923c
00000360: 784b e63c 94ef 50bd 6253 05bd ceeb 773d
00000370: ec40 503d fe64 65bd d68c df3c 0894 54bd
00000380: 7eee 07bd 6b49 2bbb 4406 093d 50d4 b6bb
00000390: b87e 60bc a4cf 973c b0ce eebc e55a 0e3d
000003a0: c74b 613d d4af 4dbd 8762 00bd 6065 383d
000003b0: 707b 5dbc d842 edbc 5a27 863c 602c 033b
000003c0: 7594 df3b 0ac6 babc d47a 993c 2080 703b
000003d0: 4210 b63c 10fa 11bd 7830 0dbc c1a0 893c
000003e0: 80c8 baba a9e5 c5bc faf2 043d a770 02bd
000003f0: c08c 06bc 3064 14bd 1081 ebbb c8b8 febc

body.2.bias f4 [256]
-0.008833337 -0.034060106 -0.047386564 -0.004067736 -0.051202424 0.04848903 -0.010226867 0.016700797
0.019263262 -0.043188885 -0.03733105 -0.021705877 -0.0055146064 0.028113142 -0.016725428 -0.044314258
-0.032690622 -0.02172924 0.034570277 0.021196306 -0.051781256 -0.022268146 -0.04377166 0.06664853
0.00320141 -0.033566575 0.06928576 -0.035023753 -0.0035214927 -0.020369068 -0.007925548 -0.04818905
-0.031292956 0.005862813 0.024880951 -0.04717478 -0.0121393595 0.0037932247 0.022710579 -0.00024224803
0.03442283 -0.050067954 -0.029842446 0.014900407 -0.023235925 0.058533344 0.0006239987 0.01308743
0.020393819 0.043734577 -0.0040110406 -0.047612876 -0.0042942436 0.018808164 -0.02074631 -0.015650261
-0.0020765672 0.05817868 -0.032878883 -0.05628669 -0.015706629 0.006259367 0.039899897 0.023813352
0.05103704 0.02477482 -0.0465184 0.045400467 -0.006610571 -0.056689493 0.004396092 0.008832192
0.027364608 6.60792e-05 -0.004751349 0.05391082 -0.05921383 -0.0060514566 0.0459837 -0.05801382
-0.006275106 0.024151457 0.06178313 -0.0015792636 0.03159696 0.025851093 -0.042891268 0.053717762
-0.04889271 0.03228641 -0.02362144 -0.039924525 -0.040574923 0.050273586 -0.020114591 -0.019844078
0.029943382 -0.036819927 -0.00524676 -0.019676663 -0.0016787456 -0.033420023 -0.043648995 0.0317041
0.013217414 0.002668294 -0.04786354 -0.014524701 -0.018297372 -0.011248066 0.011802569 -0.045087293
0.04309217 -0.00278973 -0.05816192 -0.017429372 -0.0384251 0.018226104 -0.024499005 0.033764075
-0.003785939 0.03361947 0.0019523877 0.024192333 0.06177173 -0.032636404 -0.04681065 0.008884701
0.0006568134 0.040095963 -0.02564 -0.0074349823 -0.0005505893 -0.040979605 -0.00788957 -0.042924426
-0.05284067 -0.035312794 0.03190313 -0.050250076 -0.061280504 0.0046409713 -0.054846786 0.033984803
-0.027743012 0.041875783 -0.00011303493 -0.041465033 -0.02880881 -0.05291325 -0.039430585 -0.029853351
-0.028852982 0.0008488788 -0.05891108 0.014871895 0.010025837 0.054929625 -0.06901852 0.023170406
0.011015393 0.008627053 0.032071784 -0.0361633 0.01298641 0.053976893 -0.0074959006 0.009451064
0.042134553 0.026385823 0.03192524 0.019246986 0.028456824 0.009511645 0.02876608 0.004766747
-0.0039582634 -0.054953657 0.0001881142 -0.05837933 -0.018030824 -0.020844085 0.004306624 0.0033503037
0.0038337987 -0.0092411935 -0.048644025 0.019562472 -0.027174005 0.0121685425 0.060310222 -0.05843974
0.04972816 -0.025017953 0.026682422 0.024215916 -0.014651347 -0.051871553 -0.040428128 -0.0016273173
0.021425629 -0.024214018 0.07366308 0.009061618 -0.030162986 0.047020767 0.011496113 0.005518469
-0.018504465 -0.002704022 -0.053707138 -0.059564896 -0.02966302 -0.039120007 0.007121019 0.06435762
0.041523065 0.022830596 -0.008541435 0.03645537 0.056972846 -0.0023944897 -0.05353896 0.027327005
0.02499898 -0.050878726 0.042354967 0.04194457 -0.06658424 -0.0015135349 -0.07796437 0.010104447
0.002734629 -0.05889117 0.038844332 0.024458293 0.046718035 0.057120003 -0.018488262 0.025239337
-0.05356535 -0.06677099 -0.031102754 0.02511025 0.03355514 -0.05599677 0.0568117 0.05817218
-0.03665117 -0.061124533 -0.028660374 0.05270144 0.013962101 0.007742965 0.02683009 0.0023898005
00000000: b3b9 10bc 9c82 0bbd 6a18 42bd a54a 85bb
00000010: a2b9 51bd 6f9c 463d 978e 27bc 1cd0 883c
00000020: fdcd 9d3c d4e6 30bd 71e8 18bd 86d0 b1bc
00000030: dfb3 b4bb 884d e63c c403 89bc de82 35bd
00000040: 9ae6 05bd 8501 b2bc 9099 0d3d e0a3 ad3c
00000050: 9518 54bd b06b b6bc ea49 33bd 067f 883d
00000060: bfce 513b 1b7d 09bd b1e5 8d3d 1175 0fbd
00000070: d8c8 66bb 08dd a6bc 28da 01bc e261 45bd
00000080: 0b2d 00bd d71c c03b 23d3 cb3c 583a 41bd
00000090: 2ae4 46bc c097 783b 890b ba3c f603 7eb9
000000a0: f4fe 0c3d 0e14 4dbd 2578 f4bc d620 743c
000000b0: 4459 bebc a9c0 6f3d d893 233a a96c 563c
000000c0: f010 a73c 0723 333d 0c6f 83bb b805 43bd
000000d0: bab6 8cbb 9413 9a3c 2af4 a9bc fa34 80bc
000000e0: 0417 08bb c44c 6e3d 02ac 06bd df8c 66bd
000000f0: 30ab 80bc 601b cd3b 136e 233d 3814 c33c
00000100: 370c 513d 90f4 ca3c 148a 3ebd d7f5 393d
00000110: 7d9d d8bb 3e33 68bd 180d 903b e6b4 103c
00000120: be2b e03c 0094 8a38 34b1 9bbb 98d1 5c3d
00000130: 338a 72bd 4c4b c6bb 6759 3c3d e69f 6dbd
00000140: 689f cdbb 47d9 c53c 4f10 7d3d 4bff ceba
00000150: d06b 013d acc5 d33c c1ae 2fbd 2807 5c3d
00000160: b943 48bd c13e 043d c081 c1bc e687 23bd
00000170: e431 26bd adeb 4d3d 5bc7 a4bc 0c90 a2bc
00000180: d34b f53c 7ed0 16bd 03ed abbb f430 a1bc
00000190: 5b09 dcba 6fe3 08bd 4ac9 32bd 29dc 013d
000001a0: da8d 583c 8bde 2e3b 8f0c 44bd 03f9 6dbc
000001b0: 5fe4 95bc cf49 38bc 905f 413c 74ad 38bd
000001c0: 6a81 303d e7d3 36bb 323b 6ebd 0bc8 8ebc
000001d0: a363 1dbd e94e 953c 23b2 c8bc 334c 0a3d
000001e0: 841d 78bb 92b4 093d 43e7 ff3a 002f c63c
000001f0: 5b04 7d3d c0ad 05bd 86bc 3fbd 2391 113c
00000200: 002e 2c3a aa3b 243d fa0a d2bc 27a1 f3bb
00000210: 6c55 10ba 3bda 27bd 4143 01bc 86d1 2fbd
00000220: 756f 58bd 26a4 10bd dbac 023d 06d3 4dbd
00000230: 4401 7bbd 4a13 983b 06a7 60bd a633 0b3d
00000240: 5045 e3bc f185 2b3d 2a0d edb8 3dd7 29bd
00000250: 7400 ecbc 90bb 58bd f781 21bd 048f f4bc
00000260: 175d ecbc 4b87 5e3a bf4c 71bd 40a9 733c
00000270: 6943 243c e3fd 603d 9559 8dbd ddcf bd3c
00000280: e879 343c 7c58 0d3c b45d 033d f81f 14bd
00000290: f4c4 543c e016 5d3d 2ca0 f5bb a3d8 1a3c
000002a0: 4895 2c3d 1527 d83c 0ac4 023d dbab 9d3c
000002b0: 491e e93c bbd6 1b3c d8a6 eb3c 5f32 9c3b
000002c0: 52b4 81bb 1617 61bd 8540 4539 2a1f 6fbd
000002d0: 61b5 93bc 37c1 aabc 951e 8d3b c590 5b3b
000002e0: 7840 7b3b 6068 17bc f53e 47bd 7a41 a03c
000002f0: 059c debc 915e 473c da07 773d 825e 6fbd
00000300: c1af 4b3d 73f2 ccbc 1895 da3c 7560 c63c
00000310: 340c 70bc 4477 54bd f797 25bd b54b d5ba
00000320: cd84 af3c 7a5c c6bc abdc 963d 2e77 143c
00000330: 5e18 f7bc d998 403d 315a 3c3c 46d4 b43b
00000340: ad96 97bc f635 31bb 04fc 5bbd 52fa 73bd
00000350: ddff f2bc 4d3c 20bd 7057 e93b eecd 833d
00000360: 1714 2a3d 3b07 bb3c 60f1 0bbc 3a52 153d
00000370: 5c5c 693d dfec 1cbb ab4b 5bbd e2dc df3c
00000380: a9ca cc3c 3666 50bd 677c 2d3d 12ce 2b3d
00000390: 515d 88bd ce61 c6ba c9ab 9fbd 1f8d 253c
000003a0: 7637 333b de37 71bd 3c1b 1f3d c25c c83c
000003b0: 695b 3f3d aaf6 693d b274 97bc bac2 ce3c
000003c0: 5767 5bbd 3bbf 88bd 34cb febc 03b4 cd3c
000003d0: 1d71 093d de5c 65bd 63b3 683d f445 6e3d
000003e0: 8a1f 16bd b85d 7abd 29c9 eabc 77dd 573d
000003f0: 4cc1 643c b3b8 fd3b c7ca db3c 339e 1c3b

mu_head.weight f4 [2, 256]
-0.04120207 0.050261706 0.05336656 -0.02298473 -0.057929456 0.05871115 -0.082688846 0.037830137
-0.03373177 -0.0010386407 0.059680477 -0.021666797 0.001276238 -0.05129527 0.024193842 0.028697407
-0.095240064 -0.057463996 0.051322088 0.094640054 -0.05498525 -0.039457757 -0.028147759 0.054791197
0.13125941 0.1036552 0.03712184 0.03338449 0.09836434 -0.03020113 -0.024292417 0.0022949502
-0.062801756 -0.1261977 -0.056093037 -0.1355137 -0.0020132523 0.039316818 -0.0016449888 0.034075
-0.04804546 -0.046264462 -0.00082247844 0.042918596 -0.004267417 0.005011191 0.05987669 0.0013338042
0.019381806 0.015261918 -0.03340994 -0.0034642327 -0.0029491023 0.02304695 -0.12286996 0.008644823
0.019833438 -0.014562362 -0.072398886 0.043009758 -0.007116884 -0.011744462 0.012066828 -0.00042662237
0.040122677 0.036968384 0.04871148 -0.024360625 -0.029016482 -0.040234376 0.050493244 -0.026965054
0.021173494 0.00076205283 -0.070002824 -0.026532173 -0.048812676 -0.02100116 0.028192436 0.021432027
0.026496233 0.05986926 0.021492818 0.0042965487 -0.0391047 0.03817503 0.02804505 -0.05385108
-0.0044732844 -0.040736623 0.033726074 -0.009919307 -0.039261572 0.04370706 0.0064282482 -0.05291684
-0.025534883 0.026558265 0.049484365 -0.031343367 -0.026609866 -0.019041475 0.030021466 -0.056003667
0.031801343 0.0099426815 -0.08841196 0.062307265 -0.02327293 -0.017900223 0.032076824 -0.040554076
-0.046990655 -0.066246174 0.025086798 0.0048145866 0.05531136 0.01995946 0.04562885 -0.022458307
0.036907636 0.018180078 0.035385065 0.008696224 0.029847296 -0.044489767 0.011763461 -0.04422838
0.025293931 0.01715003 -0.038901147 -0.04986235 -0.01165461 0.072429605 -0.00013274308 -0.053912155
0.032523252 0.0046824813 -0.011178703 0.056888252 -0.0042301565 -0.00043894674 -0.0023096085 0.048282437
-0.060197763 -0.07197565 0.035457782 -0.014114882 0.026958149 -0.010948401 -0.046168245 -0.051306985
0.0012122174 -0.028310206 0.04394058 -0.0036194834 -0.13253962 -0.0014435815 0.03719632 -0.0043119243
0.05540504 0.0077037183 0.029358895 -0.0068685114 -0.0024103227 0.058901485 0.01930066 -0.01093277
0.013626671 -0.013759508 0.014504053 -0.039776687 -0.032687154 0.0034439177 0.058103 -0.00958503
-0.03890393 0.022176042 -0.026992664 -0.041029863 -0.017561898 -0.039490364 -0.042647347 -0.05294247
-0.06252239 -0.025126599 0.010303482 -0.048730798 -0.00396938 -0.056437112 0.02959741 0.062325366
-0.008219426 -0.0028183658 0.02580924 -0.02656834 0.002935691 0.016112495 0.03189675 -0.09646879
-0.03725577 -0.06635962 0.02125294 0.020694893 -0.0018261318 -0.005279554 -0.10254948 0.04774596
0.024673097 0.00560959 -0.04950918 -0.017941587 -0.0804152 0.0269871 -0.058861807 -0.10647186
-0.019475251 -0.048110686 0.03460136 0.010797934 -0.09613051 0.083591916 0.033459004 -0.034444608
0.036538444 0.016591847 0.016784849 -0.029577829 -0.06241948 -0.046924155 0.077997744 0.006029861
-0.025888449 0.043932773 -0.03459179 -0.08895529 -0.044599902 0.046460826 0.040138632 -0.049751166
-0.018329922 -0.009738189 -0.04368379 -0.079135455 -0.049356926 0.03699229 -0.05113871 -0.07426946
-0.03807356 -0.022106998 -0.055495955 0.0037355593 0.028550375 0.0028656255 -0.0058513177 0.0064337
00000000: 80c3 28bd 38df 4d3d e596 5a3d 794a bcbc
00000010: 7047 6dbd 1a7b 703d c558 a9bd c6f3 1a3d
00000020: 532a 0abd 0023 88ba 8473 743d 917e b1bc
00000030: 7147 a73a fd1a 52bd 2a32 c63c d316 eb3c
00000040: 390d c3bd 5e5f 6bbd 1c37 523d a5d2 c13d
00000050: 3738 61bd 759e 21bd 2196 e6bc bc6c 603d
00000060: de68 063e 2d49 d43d 120d 183d 2dbe 083d
00000070: 3e73 c93d 5c68 f7bc e400 c7bc e066 163b
00000080: 359e 80bd f839 01be d0c1 65bd 1ac4 0abe
00000090: c5f0 03bb ac0a 213d aa9c d7ba 3a92 0b3d
000000a0: 51cb 44bd ce7f 3dbd 989b 57ba 69cb 2f3d
000000b0: b0d5 8bbb eb34 a43b 4341 753d 0bd3 ae3a
000000c0: 98c6 9e3c 200d 7a3c dcd8 08bd 2e08 63bb
000000d0: ba45 41bb f5cc bc3c 3fa3 fbbd 04a3 0d3c
000000e0: bc79 a23c f996 6ebc de45 94bd 002b 303d
000000f0: c034 e9bb d86b 40bc f2b3 453c 49ac dfb9
00000100: ad57 243d 296c 173d b085 473d ef8f c7bc
00000110: f9b3 edbc cdcc 24bd 01d2 4e3d d1e5 dcbc
00000120: 0974 ad3c 80c4 473a a45d 8fbd 005a d9bc
00000130: cdef 47bd a00a acbc d3f3 e63c 3892 af3c
00000140: a10e d93c 7839 753d b511 b03c 10ca 8c3b
00000150: 402c 20bd 6c5d 1c3d bcbe e53c f392 5cbd
00000160: a194 92bb 72db 26bd 5a24 0a3d 9784 22bc
00000170: bed0 20bd 2d06 333d 0ea4 d23b 54bf 58bd
00000180: 882e d1bc b890 d93c 1eb0 4a3d e761 00bd
00000190: effc d9bc defc 9bbc 94ef f53c 1a64 65bd
000001a0: 2042 023d a1e6 223c 5411 b5bd e735 7f3d
000001b0: dfa6 bebc 7da3 92bc fd62 033d 081c 26bd
000001c0: 4679 40bd 13ac 87bd d482 cd3c aec3 9d3b
000001d0: 2a8e 623d 0582 a33c 51e5 3a3d 7cfa b7bc
000001e0: 762c 173d 63ee 943c eeef 103d 9b7a 0e3c
000001f0: 5182 f43c e73a 36bd 88bb 403c d128 35bd
00000200: 3835 cf3c 387e 8c3c cf56 1fbd 773c 4cbd
00000210: faf2 3ebc f955 943d f330 0bb9 fed2 5cbd
00000220: 1a37 053d 806f 993b e126 37bc a803 693d
00000230: 209d 8abb 6f22 e6b9 cd5c 17bb cec3 453d
00000240: ee91 76bd f867 93bd 2e3c 113d 1b42 67bc
00000250: 56d7 dc3c ec60 33bc ea1a 3dbd 4627 52bd
00000260: 44e3 9e3a ceea e7bc 0afb 333d db34 6dbb
00000270: 77b8 07be 8f36 bdba 2b5b 183d 0b4b 8dbb
00000280: 65f0 623d 796f fc3b 1182 f03c 4011 e1bb
00000290: 81f6 1dbb af42 713d 6b1c 9e3c 5c1f 33bc
000002a0: 6742 5f3c 8f6f 61bc 68a2 6d3c e1ec 22bd
000002b0: f7e2 05bd 5ab3 613b 69fd 6d3d 880a 1dbc
000002c0: ba59 1fbd 88aa b53c b81f ddbc ee0e 28bd
000002d0: f8dd 8fbc a6c0 21bd fcae 2ebd 34da 58bd
000002e0: bd0b 80bd 4cd6 cdbc f0cf 283c f299 47bd
000002f0: 9311 82bb 9a2a 67bd 4476 f23c e248 7f3d
00000300: c5aa 06bc 55b4 38bb e66d d33c d9a5 d9bc
00000310: b964 403b 5afe 833c 2ba6 023d 6e91 c5bd
00000320: 8299 18bd 8de7 87bd a51a ae3c 5688 a93c
00000330: d15a efba 1c00 adbb 7605 d2bd 4591 433d
00000340: 3c1f ca3c a7d0 b73b 23ca 4abd 3cfa 92bc
00000350: b9b0 a4bd 0d14 dd3c 1419 71bd eb0d dabd
00000360: 908a 9fbc b60f 45bd 28ba 0d3d d1e9 303c
00000370: 13e0 c4bd 3d32 ab3d 4f0c 093d ca15 0dbd
00000380: 56a9 153d a0eb 873c 6180 893c 344d f2bc
00000390: 92ab 7fbd 8b33 40bd 48bd 9f3d 2496 c53b
000003a0: 0314 d4bc daf2 333d 1fb0 0dbd 312e b6bd
000003b0: 63ae 36bd b54d 3e3d 6868 243d e1c7 4bbd
000003c0: a228 96bc ed8c 1fbc c6ed 32bd c511 a2bd
000003d0: 7d2a 4abd 3a85 173d d376 51bd 961a 98bd
000003e0: 05f3 1bbd bc19 b5bc ba4f 63bd 49d0 743b
000003f0: 7ae2 e93c 38cd 3b3b 69bc bfbb cad1 d23b

mu_head.bias f4 [2]
-0.0238589 -0.005465608
00000000: bd73 c3bc d818 b3bb

model.0.weight f4 [256, 39]
0.099516176 -0.023439944 0.14970934 -0.039008167 0.21326151 0.18895619 0.30940363 -0.04455904
0.054691583 0.10368219 0.111098535 -0.16362338 -0.06399218 0.016213885 0.064233355 -0.13110702
-0.059972357 0.032343917 0.27655575 0.43963397 0.08876189 -0.03897941 -0.09763804 -0.10997412
0.042892937 -0.027539808 0.009076451 -0.017410202 -0.0722098 0.109298594 0.11828352 0.16212966
0.34531432 0.064248875 0.028862463 -0.12866884 0.13106327 0.06324203 0.04289647 -0.072844125
-0.11166217 -0.025757188 -0.019094786 0.18574184 0.18133885 0.18949315 0.14283614 -0.009014075
0.14851084 0.025365273 -0.06262759 -0.037581716 0.12394913 0.01785413 0.11759458 -0.11314883
0.1799799 0.31877136 -0.018561345 -0.04879446 0.080228455 -0.021684995 -0.009896398 0.088433646
0.15824167 -0.17191201 0.13358937 -0.12895969 0.029909296 0.034819026 0.31001654 0.18960433
0.017916244 0.14573252 -0.0372764 0.0015875923 0.026196016 0.046879053 -0.034242693 0.19997314
-0.23951572 0.0864409 0.20113452 0.293192 -0.117996 0.017959317 0.08699668 0.042849246
0.049020268 0.11060464 0.17124943 0.05389619 -0.064431556 -0.14152108 0.088237844 0.25759506
0.26930204 0.07173314 0.115403645 0.11971193 -0.027559519 -0.09730923 -0.086550005 -0.044726692
-0.19692872 0.20659801 -0.14863783 0.16919065 0.10129761 0.24742624 -0.06550424 0.040667284
0.13816883 0.009154817 -0.104437105 0.1640453 0.17248556 0.051113363 -0.039708637 0.11965156
0.16174878 0.22278014 0.18654943 0.024586696 -0.087510355 0.10465265 -0.1400985 0.060910013
0.11505609 -0.07473719 -0.08573779 -0.035050053 -0.13845173 -0.061170124 0.23600978 0.33623287
0.16851033 -0.08993145 0.088908754 -0.033158965 0.025694964 -0.062121347 0.17789043 0.0060428004
0.12088653 -0.16821635 -0.008446316 0.23881194 0.39979726 0.18464945 0.13941233 -0.07748077
0.01566144 -0.07815022 0.095259555 0.003321126 0.03845349 -0.13842669 0.07259786 0.07269022
0.14145544 -0.14431226 -0.1168033 -0.11921041 -0.1433342 0.14475688 -0.003979489 0.037046537
-0.15593979 -0.057068855 -0.13550399 0.021399155 0.056494713 -0.1164538 -0.018951535 -0.15835543
-0.024978474 0.0048924536 -0.0003771782 -0.027433708 -0.14050704 -0.04470449 -0.14534649 -0.009311855
-0.14274146 -0.05161985 -0.022020236 -0.0018248111 -0.03746011 -0.12331543 0.005075395 0.034373075
0.028458402 -0.1344181 0.13289079 -0.06511697 0.1655958 0.052403726 0.161364 0.12974957
0.37084258 0.26281074 0.07311315 0.0011301099 0.12412146 0.1468524 -0.16547261 0.123157054
-0.03344386 -0.09006235 -0.09794336 0.076282404 0.12675975 0.23116769 0.3265618 0.11558231
-0.07263955 -0.14526384 0.122862704 0.05339452 0.0032538485 -0.054178707 -0.060839105 -0.05810618
-0.07276435 0.21539435 0.26785433 0.18344902 -0.033356596 -0.057282206 -0.039257165 -0.10080245
-0.098152764 0.14302845 -0.10939892 -0.07052384 -0.14554742 -0.09349005 0.016807092 0.08153732
-0.071677275 -0.009962781 0.10761649 0.051383544 0.08563198 0.14377049 0.03345378 -0.03620262
0.091147535 -0.18343225 -0.024708902 -0.008710197 -0.0019422662 -0.17815909 -0.0034564491 -0.053741094
00000000: 23cf cb3d 2005 c0bc 684d 193e 07c7 1fbd
00000010: 3a61 5a3e bb7d 413e 276a 9e3e 8a83 36bd
00000020: 4804 603d 5457 d43d a187 e33d e38c 27be
00000030: 550e 83bd fbd2 843c c78c 833d eb40 06be
00000040: 93a5 75bd 0e7b 043d b798 8d3e b417 e13e
00000050: cbc8 b53d e0a8 1fbd 74f6 c7bd 1d3a e1bd
00000060: 81b0 2f3d 2a9b e1bc 65b5 143c d79f 8ebc
00000070: bbe2 93bd f1d7 df3d a13e f23d 5105 263e
00000080: 0acd b03e ea94 833d f970 ec3c c4c1 03be
00000090: 7335 063e 0a85 813d 35b4 2f3d 4d2f 95bd
000000a0: 23af e4bd bd00 d3bc ab6c 9cbc 1c33 3e3e
000000b0: e4b0 393e 7e0a 423e a343 123e c5af 13bc
000000c0: 3a13 183e d5ca cf3c e542 80bd 49ef 19bd
000000d0: 0bd9 fd3d d342 923c 6dd5 f03d 93ba e7bd
000000e0: a74c 383e 0036 a33e f60d 98bc b3dc 47bd
000000f0: d14e a43d bba4 b1bc 8024 22bc b31c b53d
00000100: 1b0a 223e b409 30be a7cb 083e 020e 04be
00000110: 5704 f53c 659e 0e3d 7dba 9e3e a327 423e
00000120: 16c5 923c e83a 153e 23af 18bd c216 d03a
00000130: 0799 d63c 4004 403d 1142 0cbd c2c5 4c3e
00000140: 9c43 75be ed07 b13d 35f6 4d3e 431d 963e
00000150: e3a7 f1bd 6b1f 933c 512b b23d b182 2f3d
00000160: 7ac9 483d af84 e23d 035c 2f3e 40c2 5c3d
00000170: b1f4 83bd e7ea 10be 0bb6 b43d 80e3 833e
00000180: f5e1 893e d3e8 923d bf58 ec3d 872b f53d
00000190: 80c4 e1bc 104a c7bd 2141 b1bd 5633 37bd
000001a0: afa7 49be 6e8e 533e 8434 18be 5040 2d3e
000001b0: 1f75 cf3d 4e5d 7d3e 1627 86bd bd92 263d
000001c0: 217c 0d3e 16fe 153c 1fe3 d5bd 7efb 273e
000001d0: 0ea0 303e 3f5c 513d 86a5 22bd e10b f53d
000001e0: 79a1 253e 7a20 643e d006 3f3e 0a6a c93c
000001f0: a138 b3bd 2154 d63d fb75 0fbe c77c 793d
00000200: 87a2 eb3d d00f 99bd 4b97 afbd a590 0fbd
00000210: 4ac6 0dbe 868d 7abd 8cac 713e b726 ac3e
00000220: f98d 2c3e fb2d b8bd cb15 b63d b2d1 07bd
00000230: 3f7e d23c f472 7ebd e928 363e af02 c63b
00000240: 5b93 f73d e840 2cbe 6b62 0abc 1e8b 743e
00000250: 3ab2 cc3e bf14 3d3e 1bc2 0e3e 3dae 9ebd
00000260: 6c4c 803c 390d a0bd 7117 c33d 40a7 593b
00000270: 6881 1d3d babf 0dbe 30ae 943d 9cde 943d
00000280: b2d9 103e 98c6 13be 9236 efbd 9624 f4bd
00000290: 33c6 12be 263b 143e 6066 82bb 1cbe 173d
000002a0: aeae 1fbe 08c1 69bd 8fc1 0abe 484d af3c
000002b0: 0067 673d 547f eebd 4040 9bbc ed27 22be
000002c0: a89f ccbc e050 a03b 00c0 c5b9 a8bc e0bc
000002d0: 14e1 0fbe 0e1c 37bd b6d5 14be c090 18bc
000002e0: d12a 12be 566f 53bd c863 b4bc 802e efba
000002f0: c66f 19bd cd8c fcbd 804f a63b c8ca 0c3d
00000300: 9821 e93c e6a4 09be 8614 083e 0c5c 85bd
00000310: f291 293e 4aa5 563d 9b3c 253e 12dd 043e
00000320: 14df bd3e 218f 863e 59bc 953d 3220 943a
00000330: 6433 fe3d 7a60 163e a771 29be c439 fc3d
00000340: 6efc 08bd 9c72 b8bd 8796 c8bd f339 9c3d
00000350: 4fcd 013e 39b7 6c3e 1c33 a73e 6bb6 ec3d
00000360: 0bc4 94bd 0bc0 14be 719f fb3d 36b4 5a3d
00000370: 853e 553b 7eea 5dbd 6d32 79bd bf00 6ebd
00000380: 7a05 95bd 5690 5c3e 3424 893e 0fda 3b3e
00000390: eda0 08bd bfa0 6abd 1fcc 20bd 8471 cebd
000003a0: 5104 c9bd 0d76 123e 8a0c e0bd ce6e 90bd
000003b0: 620a 15be b677 bfbd 07af 893c 0afd a63d
000003c0: 89cb 92bd ef3a 23bc 0966 dc3d 8d77 523d
000003d0: d25f af3d 9238 133e d506 093d 3349 14bd
000003e0: 8fab ba3d aad5 3bbe 536a cabc 37b5 0ebc
000003f0: a493 feba 566f 36be 9885 62bb 9f1f 5cbd

model.0.bias f4 [256]
0.07480122 0.084443755 0.20227227 -0.03280449 -0.057034776 -0.014147725 0.19462143 -0.104062885
-0.008377513 0.015631193 0.18748729 0.08573946 -0.0052005765 0.046639316 0.06219626 -0.016423067
0.04323632 -0.12421485 0.12732057 0.07756428 0.14743714 0.0210952 0.016638227 0.011618636
-0.15133543 -0.1239235 0.066745654 -0.093754545 0.18626957 -0.11689854 0.08484259 0.08262215
0.09686286 -0.08248823 -0.049447395 0.0633305 0.029519338 0.05373873 0.041944798 0.10993715
0.18939091 0.08224814 0.020623978 -0.0044481778 0.20766935 -0.06166295 -0.019450547 -0.00026737765
-0.048606083 0.054783594 0.039197095 -0.14007798 0.123739034 0.18913402 0.17205621 -0.065253444
0.107856885 0.11885753 0.058343045 0.16206081 -0.0056680185 0.154721 0.02928023 -0.043028496
0.008328617 0.11155453 -0.12669182 0.1458211 0.18832351 0.04975221 -0.10348921 0.084215224
-0.09087411 -0.046146832 0.17328294 0.12716457 0.10671294 0.06487348 0.06930708 -0.088840365
0.10176727 0.16647124 0.17100455 -0.027888956 -0.044770442 0.06207233 0.013921742 -0.089268744
0.1340889 0.115334935 -0.103888735 -0.08290935 0.048933808 0.16172458 -0.13311358 0.019553276
0.13245763 -0.09359923 0.02863166 0.080952354 0.16141772 0.16424261 0.005548312 -0.08971327
0.19686225 0.13356534 -0.01200993 -0.09838405 0.03141819 0.0033582656 -0.0074767214 0.0053402623
0.18345775 -0.0027041584 0.013067275 -0.084027834 -0.1474273 0.19203062 0.17682797 0.19827414
0.06713994 -0.0937913 0.10972632 0.015379593 0.004134813 -0.019254327 -0.0031989068 -0.15420318
0.20121706 0.046066716 0.13265812 -0.019252181 0.14672521 -0.10139485 -0.0006693529 0.059845462
0.08551623 0.05735727 -0.023265138 0.15758954 0.19044194 -0.16609313 0.0937624 -0.14628707
-0.054764993 -0.023140766 0.10328515 0.1397788 -0.0574553 0.16326088 -0.15386724 -0.019091815
-0.010537046 0.13985758 0.17541373 -0.010321405 -0.07932918 0.1846225 -0.022436896 0.1408868
0.20906214 0.15070269 0.008285403 0.2140046 0.12540087 0.11554662 0.059181843 0.031687297
0.103732646 -0.09464854 0.046920136 -0.14336444 0.12325204 0.049429227 0.06994802 0.087415926
0.06887308 -0.09653197 0.10055283 0.1555998 0.074083224 0.022939112 0.0879948 -0.05150509
-0.016239963 0.13415201 0.09434071 0.09528389 0.025998782 -0.11443885 0.111685894 0.102537304
-0.11573838 -0.10864272 0.19137429 -0.031194478 0.005116897 0.06615966 0.022776708 -0.040520217
-0.08972257 -0.016185984 -0.10024172 -0.009808436 0.14748846 -0.12837233 0.1193516 0.056845527
0.18471567 -0.017032046 -0.008172425 -0.047772624 -0.08772474 0.1413111 -0.014708966 -0.036321536
-0.08704375 -0.08122148 0.03805977 -0.11117001 0.06195108 0.14411093 -0.08581709 -0.15509176
0.029955178 0.04694389 -0.0056874007 0.022489106 -0.1538327 0.037128136 0.08588067 -0.14725669
-0.15763435 0.16098069 0.09197607 0.0059310347 0.0024742621 0.03335407 0.18897489 0.0030789732
0.16491784 -0.10417247 0.12269608 -0.14472999 0.086599946 0.036446534 0.07168452 -0.14489554
-0.04563735 -0.038283918 0.16954927 -0.0007586836 -0.106255025 -0.06600417 -0.15206695 0.11937009
00000000: 6231 993d d9f0 ac3d 7620 4f3e 005e 06bd
00000010: 4c9d 69bd dccb 67bc d74a 473e ec1e d5bd
00000020: d641 09bc fd0c 803c abfc 3f3e 2c98 af3d
00000030: 9969 aabb de08 3f3d 81c1 7e3d ab89 86bc
00000040: 9118 313d 5b64 febd 5360 023e 05da 9e3d
00000050: c3f9 163e d7cf ac3c e44c 883c 175c 3e3c
00000060: adf7 1abe 9bcb fdbd f2b1 883d 6202 c0bd
00000070: 73bd 3e3e 8068 efbd f4c1 ad3d cd35 a93d
00000080: 0960 c63d 97ef a8bd 5a89 4abd 6cb3 813d
00000090: 8ad2 f13c 241d 5c3d 4fce 2b3d ba26 e13d
000000a0: b1ef 413e b671 a83d 9ef3 a83c 05c2 91bb
000000b0: 46a7 543e 4a92 7cbd c156 9fbc d22e 8cb9
000000c0: 2c17 47bd c364 603d 228d 203d 9a70 0fbe
000000d0: e46a fd3d 59ac 413e 812f 303e 99a3 85bd
000000e0: 12e4 dc3d 946b f33d 1ef9 6e3d 45f3 253e
000000f0: c9ba b9bb 2f6f 1e3e 18dd ef3c a63e 30bd
00000100: c074 083c b476 e43d 80bb 01be 2052 153e
00000110: e1d7 403e f9c8 4b3d 27f2 d3bd 0879 ac3d
00000120: 351c babd 7604 3dbd 1571 313e 6e37 023e
00000130: 508c da3d 63dc 843d dff0 8d3d f0f1 b5bd
00000140: 5c6b d03d 7077 2a3e d11b 2f3e 6177 e4bc
00000150: 3661 37bd 8e3f 7e3d 0518 643c 88d2 b6bd
00000160: 9a4e 093e b934 ec3d 9ec3 d4bd 61cc a9bd
00000170: d16e 483d 219b 253e ed4e 08be 312e a03c
00000180: f9a2 073e f4b0 bfbd f18c ea3c 59ca a53d
00000190: b04a 253e 372f 283e 9dce b53b 97bb b7bd
000001a0: 4296 493e 5ac5 083e 4cc5 44bc 947d c9bd
000001b0: 5cb0 003d 5916 5c3b 49ff f4bb 5efd ae3b
000001c0: 59dc 3b3e 4038 31bb 2018 563c c916 acbd
000001d0: 2ff7 16be ada3 443e 6412 353e 6008 4b3e
000001e0: aa80 893d a715 c0bd 31b8 e03d b0fa 7b3c
000001f0: 537d 873b 40bb 9dbc c0a4 51bb 70e7 1dbe
00000200: d80b 4e3e 74b0 3c3d 88d7 073e c0b6 9dbc
00000210: 223f 163e 1aa8 cfbd 8377 2fba 8420 753d
00000220: 2223 af3d 75ef 6a3d 8896 bebc 275f 213e
00000230: 3603 433e 5114 2abe 8006 c03d 47cc 15be
00000240: 4251 60bd b491 bdbc 2a87 d33d 2c22 0f3e
00000250: 4056 6bbd dc2d 273e 608f 1dbe 7066 9cbc
00000260: 93a3 2cbc d336 0f3e a89f 333e 1c1b 29bc
00000270: 5677 a2bd ae0d 3d3e 95cd b7bc a144 103e
00000280: 6314 563e ce51 1a3e 80bf 073c 0624 5b3e
00000290: 1669 003e b5a3 ec3d a968 723d 8aca 013d
000002a0: c871 d43d 18d7 c1bd 542f 403d 21ce 12be
000002b0: 916b fc3d 4d76 4a3d e840 8f3d 1f07 b33d
000002c0: 540d 8d3d 8eb2 c5bd a4ee cd3d 8e55 1f3e
000002d0: f2b8 973d ceea bb3c 9e36 b43d 00f7 52bd
000002e0: ac09 85bc 255f 093e b435 c13d 3324 c33d
000002f0: 66fb d43c ea5e eabd 93bb e43d 14ff d13d
00000300: 3e08 edbd 1380 debd 9ff7 433e 908b ffbc
00000310: a5ab a73b b77e 873d 3896 ba3c 87f8 25bd
00000320: 77c0 b7bd 7898 84bc 884b cdbd 90b3 20bc
00000330: 3707 173e 0974 03be 9d6e f43d dbd6 683d
00000340: 1b26 3d3e ca86 8bbc a3e5 05bc 3aad 43bd
00000350: 07a9 b3bd dbb3 103e e0fd 70bc e4c5 14bd
00000360: fe43 b2bd 7357 a6bd 90e4 1b3d 1aad e3bd
00000370: 6ac0 7d3d d191 133e dfc0 afbd 60d0 1ebe
00000380: 9064 f53c 3d48 403d 605d babb 133b b83c
00000390: 5286 1dbe ac13 183d 34e2 af3d 75ca 16be
000003a0: e66a 21be 1fd8 243e f35d bc3d 2059 c23b
000003b0: 3b27 223b 479e 083d a282 413e 99c8 493b
000003c0: 39e0 283e 6058 d5bd 1548 fb3d 1934 14be
000003d0: 505b b13d f648 153d 55cf 923d 7f5f 14be
000003e0: 3bee 3abd 99cf 1cbd 539e 2d3e 65e2 46ba
000003f0: 3c9c d9bd 322d 87bd 70b7 1bbe 4e78 f43d
