models/mappo_best_stage3.pt (torch, 853735 bytes, 14 tensors)

log_std f4 [2]
000000 a2 a8 41 be 9d 49 eb bd
       -0.18911985 -0.1148865

body.0.weight f4 [256, 13]
000000 72 11 79 be 5f 93 88 bd 36 42 d0 3e cc d9 61 be
       -0.24323061 -0.06668734 0.40675515 -0.22055739
000010 2c 3d 79 be fe 97 cd 3d 4c a4 c6 bb 10 bb ae be
       -0.24339741 0.10038756 -0.006062066 -0.34127092
000020 95 fd 66 3d 42 b7 5b be 04 89 55 bd 4d 97 c4 bd
       0.05639418 -0.21456626 -0.05213262 -0.09599171
000030 6f 6a 66 3e 6b b3 54 3e a1 f8 0f 3e ee b9 7c 3e
       0.22501539 0.20771568 0.14059688 0.24680302
000040 5c ad 5a 3e 98 90 c4 be c3 99 53 3e 49 1f 64 3e
       0.21355194 -0.38391566 0.20664124 0.2227756
000050 fe fa c1 be c9 58 e0 bd 04 b8 dd bd 05 3e 1b be
       -0.37886804 -0.109544344 -0.10826114 -0.15160377
000060 4d da d2 bd 62 21 e8 3d c0 2f a7 3d 4f 15 99 3c
       -0.10295544 0.11334492 0.081634045 0.018686919
000070 dd 7e 3f 3e 3a 4c 80 3e 20 27 09 3e 56 b7 83 3e
       0.18700738 0.25058156 0.13393831 0.25725812
000080 36 69 52 3e 20 2c 46 3e 84 5b b8 bd 06 94 97 bd
       0.20547947 0.1935277 -0.0900183 -0.0740128
000090 2d af b0 3e ef 31 01 3e 72 43 07 3e 8f 15 04 3e
       0.3450865 0.12616704 0.13209322 0.12898849
0000a0 d4 29 3a 3d 14 2c 77 be 42 44 1a be 80 1b 10 be
       0.045450047 -0.24137908 -0.15065101 -0.1407299
0000b0 c3 57 b5 3d 72 66 1a be 95 50 b2 3e 98 9e a0 be
       0.0885463 -0.15078142 0.34827104 -0.31370997
0000c0 dc 57 9a 3d e5 7a df bd 12 58 73 3d 3f 09 b6 3d
       0.07536289 -0.10912112 0.059410162 0.08888482
0000d0 3c c6 b2 3d 8c ce 8c be 5d 0d 13 be 38 69 3b 3e
       0.087292165 -0.27501333 -0.14360566 0.18301857
0000e0 4e 73 8a be 01 04 80 3e 62 bf 74 3e 36 b2 1f 3e
       -0.27041095 0.25003055 0.23901132 0.15595326
0000f0 a6 7d 56 3e f0 0a d9 bc 4e 40 11 3e a0 9d 57 3d
       0.20946369 -0.026494473 0.14184687 0.052640557
000100 16 83 50 be 22 53 30 be 9d 10 1e bc ff c1 26 3c
       -0.20362505 -0.17219213 -0.009647516 0.010178088
000110 36 79 0b 3e 7a 56 78 3e cd e9 86 3e fc 39 47 be
       0.13620457 0.24251738 0.2635025 -0.19455713
000120 88 1f 81 3e a7 a2 02 bd bf e9 eb 3b da 73 42 3d
       0.2521937 -0.0318934 0.0071994956 0.047473766
000130 76 19 62 bd 37 ae 49 bd 80 60 a5 3d 48 b0 90 bd
       -0.055200063 -0.04923841 0.080750465 -0.07064873
000140 18 9b 24 3d 14 c1 c4 3d 83 74 17 be e0 1d e9 3c
       0.04018697 0.09607139 -0.1479054 0.028456628
000150 fb 19 03 be a8 ff 8c be 00 c4 46 3c ac 9f ce 3d
       -0.1280288 -0.275388 0.012131691 0.10089049
000160 bc c8 26 bd c4 b0 a5 bd 28 e5 d9 3d 1e 38 28 3d
       -0.04071878 -0.08090356 0.10639411 0.041069143
000170 68 f5 d6 bd 95 df 53 be f3 a4 e2 3d 00 16 a3 3e
       -0.10496026 -0.20690759 0.11066618 0.31852722
000180 74 7b b3 3e 89 92 3e 3c 10 3e e2 3e f1 8a 99 3d
       0.35055125 0.011631616 0.44187975 0.07497204
000190 9a 86 a0 3e 23 89 c9 bc 4b fe 16 3e d2 a5 28 be
       0.31352693 -0.024601525 0.14745443 -0.16469505
0001a0 dc b2 ae 3c fc 88 4c 3e 33 5f e5 bb 6c 8b 46 be
       0.021325521 0.1997413 -0.006999874 -0.19389123
0001b0 06 4f 8b be 6b aa b3 be 5a f5 72 3b b6 84 bf be
       -0.27208728 -0.35090956 0.003707251 -0.37405938
0001c0 37 9f a8 be 43 f2 60 3e be 00 0b be 0e e3 c7 bc
       -0.3293397 0.21967416 -0.13574502 -0.02440026
0001d0 8f 33 9c 3d 9e 1d b6 bd 4e ae 92 bd 68 31 dd 3d
       0.076270215 -0.08892368 -0.07162152 0.10800439
0001e0 48 1c 5d 3d d6 54 22 be a0 14 b5 3c 76 32 de bd
       0.05398205 -0.15852675 0.022104561 -0.108494684
0001f0 bc 24 35 be 40 bd ae bb 46 f2 80 be d7 43 82 3e
       -0.17689794 -0.005332619 -0.2518484 0.25442383
000200 e0 44 b9 bd 50 92 3c be d6 c8 93 3d bd f0 20 3e
       -0.0904634 -0.18415189 0.07216041 0.15716834
000210 33 36 d1 3d c4 32 cd bc 54 e3 4f bd 87 a3 d0 bd
       0.10215416 -0.025048621 -0.050753906 -0.1018744
000220 b8 33 d9 bd 06 e0 93 be ea b1 8f 3e e6 43 cd be
       -0.10605568 -0.28881854 0.28065425 -0.40090865
000230 24 af 0f bb 19 02 69 3e c5 69 5e bd df 78 3d 3e
       -0.002192446 0.22754706 -0.05430009 0.1850314
000240 dd 2a 68 bc cb 93 41 3d 95 91 02 3e 1b f0 b0 be
       -0.014170376 0.047260087 0.12750848 -0.34558186
000250 28 d9 94 3c 33 00 cb 3b fe 49 d2 be 9e 61 93 be
       0.018169954 0.006195092 -0.41072077 -0.28785414
000260 ca 2b 78 bc 01 ae 92 bd 83 8f 6e 3e a9 dd ae bd
       -0.015147159 -0.07162095 0.23296933 -0.08538372
000270 e2 7d 69 be ee 49 7a be b1 e1 a6 bd 26 75 82 3d
       -0.22801927 -0.24442264 -0.08148516 0.063700005
000280 42 4f 2f 3e c7 32 25 be 7d d0 4b 3e 90 c8 d7 3e
       0.17120078 -0.16132651 0.1990375 0.42145205
000290 07 5c 98 3e 72 b7 c0 3d f0 18 35 3e 6e 03 29 ba
       0.2975771 0.094099894 0.17685294 -0.00064473494
0002a0 91 77 04 be 11 2a 40 be 0d e8 68 be 58 7b 29 be
       -0.12936236 -0.18766047 -0.2274477 -0.16550958
0002b0 6c 28 05 be fa 4b 0f be d9 60 f2 3d 18 d0 5d be
       -0.13003701 -0.13993827 0.118348785 -0.21661413
0002c0 36 36 7f be 7b c0 8a be ff 53 26 be 32 ef 77 be
       -0.24923024 -0.27099976 -0.1624298 -0.2421234
0002d0 87 04 f5 3d 34 7e c9 3d b6 a4 58 be 55 a3 a6 3e
       0.11963754 0.098385245 -0.21156582 0.32546487
0002e0 b1 e2 0b 3e 47 c0 79 bb cd 82 86 bd 9d 54 17 3e
       0.13660695 -0.003810899 -0.06567917 0.14778371
0002f0 f7 09 67 be d6 c0 95 be b5 db 00 3e 91 86 27 be
       -0.22562395 -0.29248685 0.12583812 -0.16359927
000300 56 54 c6 3e 3e ae 80 be 6d 38 85 3e 2a 57 2d be
       0.38736218 -0.25132936 0.26019612 -0.16927782
000310 d6 37 3f 3e b5 ab 24 be 36 1d ba bd a0 52 09 3e
       0.18673643 -0.16081126 -0.09087603 0.13410425
000320 3c 61 5c 3e e4 55 3a bd c1 61 84 3e 70 ca 46 3d
       0.21521467 -0.045492068 0.2585583 0.048532903
000330 70 5e 7d 3d 69 7b 17 be 08 58 08 3e d6 2c 61 be
       0.06185764 -0.14793171 0.13314831 -0.2198976
000340 16 55 3f 3e 76 95 70 3e ba eb 0d 3e 08 89 a8 3d
       0.18684801 0.23494515 0.13859454 0.08229262
000350 34 09 df 3d 1e c6 7f 3e ca d4 70 3e 5c 04 83 be
       0.10890427 0.2497792 0.23518673 -0.25589263
000360 f8 24 36 bd cd 8b 42 be 01 8e 88 3e a0 78 4a bc
       -0.04446885 -0.18998642 0.2667084 -0.012357861
000370 80 2c 54 bc fa b7 c0 3d d5 34 17 3e 82 cf 81 be
       -0.012950063 0.09410091 0.14766248 -0.25353628
000380 34 2d a5 3c 29 6d 9b 3e cc 21 48 be c3 7b 9a 3e
       0.020163156 0.3035672 -0.19544142 0.30172548
000390 e0 9b 8d 3e 07 31 d0 be df 4f 97 3e 5d 33 8e be
       0.27657986 -0.40662405 0.29553124 -0.27773562
0003a0 6f f3 80 3e be e1 42 bd c8 65 39 3e b9 77 8b 3e
       0.25185725 -0.047578566 0.18105233 0.2723978
0003b0 74 23 ef bd 78 cc a4 3d c4 de 08 be f4 c7 ba 3d
       -0.11676684 0.08046812 -0.13366228 0.09120169
0003c0 34 49 15 3e ad 22 87 be f2 4b 78 be 60 4a 54 3d
       0.14578706 -0.26393643 -0.24247721 0.051828742
0003d0 c6 50 1e 3e 8b 48 3f be 50 16 66 be d5 5c 53 be
       0.154605 -0.18680017 -0.22469449 -0.20640881
0003e0 28 05 b8 3d 79 6a 8c be 1c 4e a6 3d 74 6b 28 3d
       0.089853585 -0.27424982 0.08120367 0.0411181
0003f0 da 56 1d bc 31 0e 8f be 73 21 eb be c3 d3 05 bc
       -0.009603227 -0.27940515 -0.45923957 -0.008168164

body.0.bias f4 [256]
000000 22 a0 c0 3d 6c 5f cb 3d 43 b9 82 be 2f f5 99 bd
       0.09405543 0.0993031 -0.25531968 -0.07517468
000010 21 4c 44 be 74 ec 2e 3e 30 0c 34 be ba fc 76 3d
       -0.19169666 0.17082387 -0.17582774 0.060299613
000020 57 97 48 3e ec 87 31 be 02 41 32 b9 b5 fb 99 bd
       0.19588982 -0.17337006 -0.0001699962 -0.075187124
000030 f9 32 4e 3e f7 df b3 bc 4a ca 7a 3d 0c 31 29 be
       0.20136632 -0.02195738 0.061228074 -0.16522616
000040 80 8b 49 be 33 a7 44 bc c0 85 85 3c 79 df 21 3d
       -0.19682121 -0.012002754 0.016299129 0.03951976
000050 1f 95 43 be ee 63 f6 bc 79 a8 47 be 35 5b fd 3d
       -0.19099854 -0.030076947 -0.19497861 0.12370912
000060 ae 71 d7 bb 32 b9 4f 3e 15 0f 8f be b0 da 31 be
       -0.006574831 0.2028549 -0.27941194 -0.17368579
000070 d2 ed 14 bc 79 6e 0a 3e 28 b6 db 3d 40 fa 37 3c
       -0.009089904 0.13518704 0.10728103 0.011229098
000080 d0 8d b2 3c 5d 3d a1 3d 3d 6d b4 3d 69 eb 30 3c
       0.021796137 0.07873032 0.08809898 0.010798314
000090 fb b4 7f 3d 10 a4 aa bd be d6 3b be ee 56 51 be
       0.062428456 -0.08332074 -0.18343636 -0.20443317
0000a0 aa 5f ed bd 96 15 6a 3e 54 bf 97 bd 53 c8 7a be
       -0.11590512 0.22859797 -0.0740954 -0.2449048
0000b0 42 aa b9 bd 38 1c e4 bd 80 c4 24 3c 28 b9 21 3b
       -0.09065677 -0.11138195 0.010056615 0.0024677012
0000c0 2c 14 22 bb c2 cc 6b be 0e b7 78 be 30 4d e2 bc
       -0.0024731262 -0.23027328 -0.2428858 -0.027624696
0000d0 e4 78 ef 3d 76 2a 8b be 53 8e 2d be 78 1e 84 3e
       0.1169298 -0.27180833 -0.16948824 0.25804496
0000e0 d9 a2 1e 3d c5 b1 53 3d 32 d5 3b 3e 69 4a bb 3d
       0.038729522 0.051683206 0.18343046 0.09145052
0000f0 b8 2e 41 bd fa f8 9a bd d8 a9 ec bd 7c 60 03 be
       -0.047163695 -0.0756702 -0.115558326 -0.12829775
000100 d8 ed 91 3d a4 96 17 3e a9 82 be bd 8c 57 a6 3d
       0.07125443 0.14803559 -0.09302265 0.08122167
000110 1f e2 09 3d cd e7 42 3e aa da e6 bb 74 83 ca 3b
       0.03366291 0.19033737 -0.0070451098 0.006180221
000120 fc b2 79 3e d8 32 9c 3b 97 f5 8f 3b 72 7c ea bd
       0.24384683 0.0047668032 0.0043932903 -0.11449517
000130 a5 82 43 3d bb 9e ef 3d c0 ba c6 bd d0 5f 60 be
       0.047732014 0.11700197 -0.097035885 -0.2191155
000140 60 f0 2f bd aa 37 6c 3d a8 b1 d1 3d 3a 48 50 bc
       -0.04295385 0.057670273 0.10238963 -0.012712533
000150 4a 10 eb bd 5e 12 83 be aa 85 88 be 43 7b a6 3d
       -0.11477716 -0.2559995 -0.26664478 0.08128979
000160 0f d9 5c 3e 54 d8 18 be 1f db 60 be e4 de 27 3e
       0.21567176 -0.14926273 -0.21958588 0.1639362
000170 57 9e b1 3d 64 16 77 3e c0 8f ab bc d3 e1 ba bd
       0.08672779 0.24129635 -0.020942569 -0.09125104
000180 14 66 78 be 3c b2 1c bd b7 fb 99 3e dd d1 4b 3d
       -0.2425769 -0.038255915 0.30074856 0.049760688
000190 3a 77 5d 3e 74 c7 1a 3e cc 5e bd 3c 7a e5 21 3e
       0.21627513 0.15115148 0.023116492 0.15810195
0001a0 a9 5e 3a 3d 24 0f 81 be 27 a0 7b bd a1 54 8a be
       0.04550043 -0.25206864 -0.06143203 -0.27017692
0001b0 b6 ed 6f 3c 34 bc 2d 3e 4c 03 8b be 97 ae 92 3d
       0.014644077 0.16966325 -0.27150953 0.071622066
0001c0 c7 e4 85 bd 26 eb 46 be dc ff 76 be 48 f6 17 3e
       -0.065377764 -0.1942564 -0.2412104 0.14840043
0001d0 78 48 a8 bd 68 1d 0e be a8 fd 18 be 7e 18 47 3d
       -0.08216947 -0.13878405 -0.14940512 0.048607342
0001e0 94 b9 d8 bd b3 a2 3d 3e a0 43 c0 3d 81 d2 7b 3c
       -0.10582271 0.18519096 0.093878984 0.015370012
0001f0 af 12 95 3d 63 94 92 3e 36 f4 3e be ca 1d 2d 3e
       0.07278954 0.28628835 -0.18647847 0.16905895
000200 04 73 b4 bd dc 5c 9d 3d 01 7d 57 be 1c 6f 98 3d
       -0.08811 0.07683727 -0.21043779 0.074430674
000210 23 f0 cb 3c f1 f6 b7 3c c6 75 65 3e 66 4e 06 be
       0.02489478 0.022456618 0.22408208 -0.13115844
000220 46 58 91 3e d6 5f 30 be 32 b3 99 3e b6 7b 01 be
       0.2838766 -0.17224059 0.30019528 -0.12644848
000230 13 26 c3 bd 03 9c ad bd f6 96 7b 3e 65 67 23 bd
       -0.095287465 -0.084770225 0.24569306 -0.039893527
000240 63 53 89 be dc 13 97 3d 3a 53 43 be 27 81 94 3d
       -0.26821432 0.07376835 -0.19074717 0.07251196
000250 d0 33 7c be d2 9f 1c be 74 ab d9 3d 18 23 88 3d
       -0.2462914 -0.15295342 0.10628405 0.066473186
000260 67 46 a2 3d e9 90 d3 3d 2b 69 f6 bd 68 7f 44 bd
       0.079235844 0.10330374 -0.12031778 -0.047973067
000270 1a 75 b6 3d 52 cb 6e 3e 2e 15 a1 3c 06 de 67 bd
       0.08909054 0.23319748 0.01966342 -0.056608222
000280 56 17 5a 3e f0 74 19 be 10 17 43 be 80 48 00 be
       0.21297964 -0.14986014 -0.19051766 -0.12527657
000290 c0 c7 fb bc d5 fb 19 be ba 2b 8d be 38 20 72 be
       -0.030734897 -0.15037473 -0.27572423 -0.23645103
0002a0 b5 e0 36 bd 94 4d 3c be ff 74 87 be 36 40 44 3e
       -0.04464789 -0.18388969 -0.26456448 0.1916512
0002b0 a0 e0 20 3d b2 57 e9 bd f3 08 67 3d 57 6b 0d be
       0.03927672 -0.1139368 0.05640502 -0.13810478
0002c0 02 27 b3 bc 45 1d 7b 3e 5e 8f 8c bd 53 d6 54 be
       -0.021869186 0.24522884 -0.068632826 -0.20784883
0002d0 97 1a 17 bd ee 4b 3e 3e 70 2f 43 be 18 b9 74 bd
       -0.036890592 0.18583652 -0.19061065 -0.05974683
0002e0 52 f1 32 3e 92 5b 0f 3e b9 e6 26 bd b0 99 5a be
       0.17474869 0.13999775 -0.040747378 -0.2134769
0002f0 e0 bd 0b 3e 28 bc 2d be 41 ff 94 3b ed bb 47 be
       0.1364665 -0.16966307 0.00454703 -0.19505282
000300 39 72 27 bc d3 d2 fa 3d 0e 19 5d be 5c 27 39 3e
       -0.010220104 0.12247243 -0.21591589 0.1808142
000310 84 f3 1b be 6d e9 69 3e 43 18 00 be 42 28 be 3d
       -0.15229613 0.22842951 -0.12509255 0.09285022
000320 55 b9 76 be 78 65 33 be 0e 66 c8 3d 54 37 76 be
       -0.24094136 -0.17519176 0.097850904 -0.24044544
000330 e0 e2 a0 bc 4e 02 05 be cf 24 66 3a 00 ab 19 3c
       -0.019639432 -0.1298916 0.00087792886 0.0093791485
000340 12 c1 5e be 9f a4 2b 3e 86 e3 2d be d5 bd 92 3c
       -0.21753338 0.16762017 -0.16981325 0.017912785
000350 4e ab 30 bd e1 5b 19 be 9f 36 22 3e f7 de 87 be
       -0.04313212 -0.14976455 0.15841149 -0.26537296
000360 88 de 36 3e ae dc ed bd ca 2c 6b 3d ba c3 88 be
       0.17858326 -0.11614357 0.05741576 -0.26711828
000370 82 d0 78 be 0e de 96 bd b6 a4 3a be fb 6c 8b be
       -0.2429829 -0.07366572 -0.18226895 -0.27231583
000380 ce 23 bf bd 93 31 e6 3d 00 28 ff ba c0 b1 a8 bd
       -0.09333001 0.11239924 -0.0019466877 -0.08237028
000390 52 67 24 bd 65 55 e6 3c 34 23 26 3e cb 77 08 bd
       -0.040137596 0.028116891 0.16224366 -0.03331737
0003a0 70 a3 c2 bd 6b 7b bd bd 4c d7 1f 3e 2a f8 a1 be
       -0.095038295 -0.09252056 0.15609473 -0.31634647
0003b0 08 bc 53 be 77 37 45 3e 20 dd 4a 3c 6e 29 e6 bd
       -0.20677197 0.1925944 0.012381822 -0.11238371
0003c0 da 97 90 bd 74 0e d5 3d 1c 8a 89 be c8 b8 90 bd
       -0.070602134 0.10403147 -0.26863182 -0.07066494
0003d0 f6 7c d0 bd 5e 05 03 3e 31 e4 df bd 3b a9 8e bd
       -0.101800844 0.12795016 -0.10932196 -0.06965872
0003e0 92 7d 88 bd cf 30 e7 3d 3d 92 1f be 84 d3 32 bd
       -0.06664576 0.112886064 -0.15583129 -0.04365875
0003f0 be 93 e2 3d c1 14 66 3e b3 29 ee 3c 44 2f 06 bc
       0.11063336 0.22468854 0.029072618 -0.00818998

body.2.weight f4 [256, 256]
000000 92 f2 d4 3c b6 31 50 3b e4 96 0f bd e8 6c 02 3d
       0.025994573 0.0031767911 -0.03505601 0.031842142
000010 c8 ea 57 3c 2b 79 92 bc 4e fc 40 3d cc f0 13 bd
       0.013178535 -0.017880043 0.047115617 -0.036118314
000020 4d 0a e7 3c f0 53 5b 3d 73 5e 1e 3b fe 53 3b bd
       0.028203154 0.053546846 0.0024165183 -0.045734398
000030 37 b7 74 3b 14 55 7b bb 58 cd 2e 3d 90 78 9b bb
       0.003734065 -0.003835027 0.0426763 -0.004744597
000040 f0 06 b4 bb 2c 58 6f bd 4a fc 71 3d da 45 4c bd
       -0.005493991 -0.058433697 0.059078492 -0.049871303
000050 e5 33 2d 3d 9b 43 3b 3d 60 a9 6f bb a0 99 a8 3c
       0.04228582 0.04571877 -0.0036569461 0.020581067
000060 93 86 af bc 00 d2 3a 3d ee 48 14 3d d0 5f 9f bb
       -0.021426475 0.045610428 0.036202364 -0.0048637167
000070 28 76 43 bc 9b f9 dc 3b cc 88 71 bd 50 c2 bc bb
       -0.011930026 0.0067436225 -0.05896835 -0.0057604685
000080 ec 59 0c bd a8 eb ed 3c 95 57 83 bd 4c 09 0c bd
       -0.034265444 0.029043034 -0.06413189 -0.034188554
000090 78 13 f6 3c 88 ea 40 3d 02 41 1a bd ca 08 5f bd
       0.03003858 0.047098666 -0.037659653 -0.05445174
0000a0 80 52 d7 3b a4 70 0c bd 96 72 26 3d 96 75 6e 3d
       0.006571114 -0.03428711 0.04063662 0.058217607
0000b0 89 ba 61 3d b9 35 ef 3b ca c3 7e 3d 44 b0 c1 bc
       0.055109534 0.0073001054 0.062198438 -0.02364362
0000c0 1d 76 32 bd 6f 18 55 bd 7c f6 01 3d 3e d8 65 bd
       -0.043569673 -0.052025255 0.031729206 -0.056114428
0000d0 41 be 9c 3b c4 b1 4a 3d b2 46 6d 3d 10 cc bd bc
       0.004783422 0.049485937 0.05792875 -0.023168594
0000e0 ec c0 85 bb 5f f4 8a b8 5e cf 66 bd fc ea 67 bd
       -0.004081836 -6.6258704e-05 -0.056350105 -0.056620583
0000f0 e0 0d 80 3c a0 f9 54 bc d2 ce 30 3d 90 9e ae bb
       0.015631616 -0.012998968 0.04316599 -0.0053289607
000100 90 52 be 3b c0 94 89 bb 04 8e 07 bd 90 e3 80 3c
       0.005808182 -0.0041986406 -0.03309442 0.01573351
000110 9b 73 7e bc a5 d0 1c bd 20 bb 43 3d 8b 08 fb 3c
       -0.015530492 -0.038284916 0.04778588 0.030643722
000120 ef 3d 69 bd 3a 87 fc bc 18 72 85 3b 90 fe e6 3c
       -0.05694383 -0.0308262 0.004072439 0.028197557
000130 1c 26 a7 bc 49 90 87 bd b9 94 20 bd 6c 10 36 bd
       -0.020403914 -0.06619317 -0.039204333 -0.044449255
000140 58 cb 57 bc 27 38 85 bb 7c 51 70 3c 04 8b 37 3d
       -0.0131710395 -0.004065532 0.014667865 0.04481031
000150 20 b1 b9 3c dd 67 16 3d 72 55 40 3d 25 40 72 bd
       0.022667468 0.036720145 0.046956487 -0.059143204
000160 2c 88 fc 3c 56 8f 4b bd 2a 66 58 3d a3 43 19 3b
       0.03082665 -0.049697243 0.052831806 0.0023386262
000170 5c a6 c6 bc e4 f3 f5 bc f6 4d 35 bd 98 1c 44 3c
       -0.024249248 -0.030023523 -0.044263802 0.011969708
000180 78 05 a5 bc 82 a4 21 3d 23 19 f8 bc f3 67 58 bc
       -0.02014421 0.039463528 -0.030285424 -0.013208377
000190 3a 08 ee bb 5e fb 5d 3d 28 bc 3b bd 80 45 54 bd
       -0.0072641643 0.0541948 -0.045833737 -0.051824093
0001a0 d8 5c 67 3d 9c 44 06 3d 4a 24 51 bd 7c dc 89 3c
       0.056485027 0.032780275 -0.05106 0.016828768
0001b0 b4 2a 2e 3d 0c 0b ab bc 3e c4 f7 bc 95 8f 0d bd
       0.042521194 -0.020879291 -0.030244943 -0.03456076
0001c0 20 af 98 3b 32 c1 04 bd 90 4a ef 3c 5b ac 07 3d
       0.0046595484 -0.032410808 0.029210359 0.033123355
0001d0 90 47 9c 3b 58 6f df bc 19 87 23 bd 30 6e 77 bb
       0.004769273 -0.027274773 -0.03992376 -0.0037754886
0001e0 7c a5 75 3d 34 3f 88 3c d6 f8 3f bd 8a 60 0b bd
       0.05997227 0.0166317 -0.046868168 -0.034027614
0001f0 e0 15 09 bb c0 17 d6 3a 40 76 92 bc 83 b9 90 3b
       -0.002091758 0.0016333982 -0.017878652 0.004416646
000200 a0 cf be bc 08 34 70 bc f0 4d 5b 3d e0 76 05 bc
       -0.023292363 -0.014660843 0.053541124 -0.008146018
000210 2c 48 d5 3c 97 c8 3a bd 18 8e 83 3c 3c 34 b2 3c
       0.02603539 -0.045601454 0.016058967 0.021753423
000220 3b 5f 04 3d 3e 79 7d bd 28 44 34 3d 00 57 c0 bb
       0.03231738 -0.061883204 0.04401031 -0.005869746
000230 4a 4b 39 3d 74 8a 77 bc d6 4b 92 bc 8a b3 91 bc
       0.045237817 -0.015108693 -0.017858427 -0.017785806
000240 08 f4 ed bc a0 18 20 3d e2 3d 38 3d 57 c3 5e 3d
       -0.029047027 0.039085984 0.04498089 0.05438551
000250 40 9e 3b bb 30 26 e2 bb 02 72 6c 3d 61 f2 d4 3c
       -0.002862826 -0.006901525 0.057725914 0.025994482
000260 eb 35 5e 3c 50 84 05 bd c0 57 cb 3c c4 75 84 bc
       0.01356266 -0.032596886 0.024822116 -0.016169436
000270 9b 67 2e bd 2f e4 a7 bc 97 5e 83 bd 8a 7d 71 3d
       -0.042579275 -0.020494549 -0.06414526 0.058957614
000280 80 ae fd 3c aa 5b 4e 3d 88 ca 5f 3c a0 c2 ff bc
       0.030966997 0.050380386 0.013659127 -0.031220734
000290 16 49 2c 3d 34 19 e3 3c 25 c8 d3 3b fc 73 51 bd
       0.042061888 0.027721979 0.006463068 -0.051136002
0002a0 44 64 ad 3c 74 7c 05 3d f4 fc 06 3d 87 43 94 3c
       0.021165974 0.03258939 0.03295608 0.018098606
0002b0 73 8e 25 3c 40 68 6c bd 5b 30 63 3d a1 dc b2 bc
       0.010104763 -0.057716608 0.055466037 -0.02183372
0002c0 ae 1f 8a bd 1e cf 57 bd 24 fb ba bc e7 c6 3f bc
       -0.06744324 -0.052687757 -0.022824831 -0.011705137
0002d0 fe ad 8b bb cd ec 16 bc 94 b1 92 3c 2b 8b 04 bd
       -0.004262685 -0.009211731 0.017906941 -0.032359283
0002e0 aa a6 c5 bc c8 ae 38 bd 50 b6 69 bc e2 0b 52 3b
       -0.024127323 -0.04508856 -0.014264658 0.003205054
0002f0 5e f0 22 3d a4 1d c6 bc 76 21 39 bd ee 6e 77 bd
       0.039780013 -0.024184056 -0.045197926 -0.060408525
000300 d2 ed 15 3d cc ec 0c 3b 00 39 6f 3a 9c 7d 08 bb
       0.036603756 0.0021503447 0.000912562 -0.0020826822
000310 5a 21 22 3d 95 82 5d bd 76 a7 12 3d cd f3 9a 3c
       0.039582588 -0.05407961 0.035804234 0.018915081
000320 ae c1 38 3d 70 09 33 bc b2 b0 fa bc 54 a8 4b bd
       0.045106582 -0.010927543 -0.030601833 -0.049721077
000330 02 77 18 bd 22 11 0d 3d e9 99 64 3d c0 4e 7a 3b
       -0.03722287 0.034440167 0.055810843 0.0038193911
000340 42 ac 4f 3d 02 2f f0 bb be fb 36 bd 10 8a e2 bb
       0.050701387 -0.0073298225 -0.044673674 -0.006913431
000350 4d 0a 46 bd a6 1f 3b 3d 24 97 f1 3b e0 7b 14 bc
       -0.048349667 0.04568448 0.0073727537 -0.009062737
000360 65 e5 2d b8 a0 bf 97 3b f6 a5 1b bd f4 43 bc 3c
       -4.1460054e-05 0.004630998 -0.03800007 0.022981621
000370 a0 1a 12 3b 98 d6 7d bc 24 5e 51 bd d8 a1 06 bd
       0.0022293702 -0.015493058 -0.05111517 -0.03286919
000380 a0 ad 65 bd 6a a7 dd 3c 60 43 5e bc 79 70 47 bd
       -0.056073785 0.027057368 -0.013565868 -0.048691247
000390 b4 e4 0d 3d 04 45 22 3d df 31 48 3d f4 d9 92 bc
       0.034641936 0.0396166 0.048875686 -0.017926194
0003a0 6c 37 1e bd 78 5d 43 bd 0f d7 57 3d 45 62 ef bc
       -0.038627073 -0.04769656 0.05269533 -0.029221663
0003b0 f6 1f 55 3d f3 0e 62 bd b8 86 8e bc 08 4c 71 bd
       0.052032433 -0.055190038 -0.017398223 -0.0589104
0003c0 46 9d fc bc 1c f6 84 bd c6 36 39 3d 07 96 83 3c
       -0.030836713 -0.06492254 0.04521825 0.01606275
0003d0 8a 51 06 bd ef ac 59 bd 08 55 0a bd 35 13 54 bd
       -0.032792605 -0.053143438 -0.0337725 -0.05177613
0003e0 cc 7f 83 bc 8a 51 74 bd b5 d2 2b 3c d0 4e 73 bc
       -0.01605215 -0.059648074 0.010487248 -0.014850333
0003f0 98 77 63 3d 00 7c 6e 39 c7 ea 89 bd 87 8b 21 3d
       0.055533975 0.00022743642 -0.06734233 0.039439704

body.2.bias f4 [256]
000000 c5 f4 84 bc ee 57 26 bd 3a d7 65 bd 60 27 b8 bb
       -0.016229996 -0.0406112 -0.05611346 -0.0056199282
000010 41 e5 61 3c 50 49 c9 bb fa 24 0d 3d dd c6 1d 3c
       0.013787569 -0.0061427727 0.03445909 0.009629932
000020 ee 96 42 3c 1a 17 8e bd 84 65 46 bd 56 c4 57 bd
       0.011876805 -0.06938 -0.048436657 -0.052677475
000030 66 53 7a bd c0 40 ca 3b 93 3c 5b 3d f3 92 ed 3b
       -0.06111469 0.0061722696 0.053524565 0.0072501837
000040 23 c4 af bc 1c f4 43 bd d3 49 c5 3c 34 e5 b6 bc
       -0.02145583 -0.047840223 0.024083054 -0.02232609
000050 5e a7 20 3d e4 4c 28 bd 9e 14 a5 3b e8 c4 77 3d
       0.039222114 -0.041088954 0.005037858 0.06049052
000060 0d 25 bf bc 58 c1 5a bc 5a d0 58 3b 09 44 37 bd
       -0.023333097 -0.013351761 0.0033083172 -0.044742618
000070 d4 2a 72 bd 52 56 de 3c 49 cf ec bc d0 cc e1 bc
       -0.059122875 0.02714077 -0.028907435 -0.027563483
000080 cd e1 dd bb b8 85 6f bd 90 d6 5d bd 55 df 07 3d
       -0.0067713023 -0.058477134 -0.0541597 0.03317197
000090 fc 0f ce bc 86 19 43 bc 20 2e 99 3c 70 83 e5 bb
       -0.025154106 -0.011907941 0.018698752 -0.007004194
0000a0 e8 67 22 bd a0 76 27 3d c6 dd e5 3c b6 54 f1 ba
       -0.039649874 0.040884614 0.028059851 -0.0018412087
0000b0 48 b1 d4 3c a9 c7 49 bc 42 ab aa 3c f9 b0 15 bd
       0.02596344 -0.012315669 0.020833615 -0.036545727
0000c0 e8 e9 42 3d d0 83 48 bd a8 65 2b 3c 1f f7 ed bb
       0.04758635 -0.04895383 0.010461248 -0.007262125
0000d0 d5 6b 6a 3d 27 b3 20 3d 79 2e ef bb 13 34 03 bd
       0.057231743 0.039233353 -0.007299241 -0.032032084
0000e0 c8 04 92 bd dd 6a 41 3d 19 61 3c bd 3e ec 48 bd
       -0.07129818 0.047221053 -0.045991037 -0.049053423
0000f0 99 cb c8 3b 32 a8 38 bd c6 bf 77 bd 7e 57 42 3d
       0.0061277864 -0.04508228 -0.060485624 0.04744672
000100 dc 5e 81 bc 1a 93 5d 3d ff f4 45 bc 17 54 06 3d
       -0.015792303 0.054095365 -0.012082337 0.032795038
000110 33 cd 43 3c d0 35 87 3d 01 c7 a4 3c e2 dd 0e bd
       0.011950779 0.06602061 0.020114424 -0.034879573
000120 b5 c7 12 3d e5 78 23 bd d1 b9 9b 3c 8c 38 50 3d
       0.035834987 -0.039910216 0.019009503 0.050835177
000130 bc 83 be bc cb 1d a1 3c 05 6b 28 3d 04 24 4a bd
       -0.023256175 0.019667527 0.041117687 -0.049350753
000140 00 30 3d bc af f1 04 3d 2b f0 ad bc bb 40 b5 bc
       -0.011547089 0.03245705 -0.021232685 -0.022125592
000150 73 8a 57 bb fc b0 e6 bb dd 77 2a bd c0 db 07 3c
       -0.0032888919 -0.007040141 -0.041618217 0.008292139
000160 61 41 1f bd a2 75 6b 3d 34 96 90 bc 7e 63 3b 3d
       -0.03888071 0.05748523 -0.017649747 0.04574918
000170 97 bd fc 3c 20 18 b2 3c a5 bf 26 bd cd e6 43 3d
       0.030852122 0.02174002 -0.04071011 0.04782753
000180 d1 3d 0d 3d 12 a2 bc 3b cc 1e 0d bd b8 28 20 3d
       0.03448278 0.005756625 -0.0344532 0.039101332
000190 ec 52 50 bd 0f 49 be 3a 7d f4 5f 3d 18 8d eb 3c
       -0.05086033 0.0014517623 0.05467652 0.028753802
0001a0 f9 d9 67 bd b5 54 f7 3c ea b3 2c bd 69 f7 90 bd
       -0.05660436 0.030191759 -0.042163767 -0.0707844
0001b0 e0 92 8e bb 88 f8 74 bd 50 36 ee 3c a2 5e 41 3c
       -0.004351005 -0.05980733 0.029078633 0.011802347
0001c0 d5 25 e8 bc e5 8a 6d 3d 23 4d 2a 3d 24 94 17 bd
       -0.028338352 0.05799379 0.04157747 -0.037006512
0001d0 fd 30 b5 bc 3a 3b 16 3d c0 7d 3d bd 56 f7 2e bd
       -0.022118086 0.036677577 -0.046262503 -0.042716347
0001e0 62 e6 3f 3d 47 cf 63 bc 19 6f 18 3d 76 10 61 bd
       0.04685057 -0.013904399 0.037215326 -0.05494734
0001f0 23 ac 01 bd 55 a7 09 bc 4d fb 4c 3d b7 67 32 3d
       -0.031658303 -0.0084017115 0.050044347 0.04355594
000200 4e 0e 74 bc 44 de d9 bc 1f 37 19 bc b7 90 9a 3b
       -0.014895989 -0.026595242 -0.009351521 0.0047169584
000210 79 da 85 bc ba e3 19 3c 70 28 94 3c da 36 24 bd
       -0.016339527 0.009392673 0.018085688 -0.040091373
000220 05 3a 2a 3d 53 49 e5 bc 4b 54 9d 3c b0 a9 65 bd
       0.041559238 -0.027989065 0.019205233 -0.05607003
000230 79 ab b2 bc 87 63 b8 bb bf 3b 86 3b d8 97 38 3c
       -0.02181028 -0.005627099 0.0040964778 0.011266671
000240 d7 bf 6a 3d 3c 40 07 bc 60 cc 32 bc db e7 d8 bc
       0.05731186 -0.008255061 -0.010912985 -0.026477745
000250 ef b9 b5 bb 1d 86 39 3d 54 7f cf bc 9a 13 cb 3c
       -0.0055458467 0.045293916 -0.02532927 0.02478962
000260 69 93 18 bd e1 1d 26 bc 10 e1 8d bc 4e fb 04 bb
       -0.037249956 -0.01013896 -0.017319232 -0.002029139
000270 97 99 28 3d 89 7b b9 3b 16 7b 14 bd 4f 71 7d 3b
       0.0411621 0.0056604785 -0.036250196 0.0038672274
000280 bc b6 78 bd e3 f9 2c 3d b1 3e 4d bd 48 35 3b bd
       -0.060721144 0.042230498 -0.050108615 -0.04570511
000290 5f 78 d5 3c 56 ad 59 3d f2 0b 00 3d 88 95 40 3d
       0.026058374 0.05314382 0.031261392 0.047017604
0002a0 6d f7 29 bd 46 83 06 3d de bd 44 3d 96 7f 21 3d
       -0.04149573 0.032840036 0.048032634 0.039428316
0002b0 77 8d 7b bc f7 0b 3a 3d 70 49 5a 3c 93 b3 06 3d
       -0.015353552 0.045421567 0.013323173 0.0328861
0002c0 fc 66 95 bb 82 75 28 bd f2 cb ac 3c 14 70 12 3d
       -0.004559396 -0.04112769 0.021093342 0.035751417
0002d0 65 74 f9 3c 03 f1 32 3d ce 92 7a bd fe c5 6e bd
       0.030451009 0.043686878 -0.06117516 -0.05829429
0002e0 0d 04 c5 3c 40 9f b8 bc f7 42 da ba d9 8b 41 3b
       0.024049783 -0.022536874 -0.0016652037 0.0029532819
0002f0 ae 93 86 bc 95 df 2c 3c 26 42 1a 3d 4d 2d 4f 3d
       -0.016427841 0.010551353 0.03766074 0.05058031
000300 64 71 be bc e0 bf 47 bd 8e 9d b1 bc bc 9e 57 bd
       -0.023247428 -0.04876697 -0.021681573 -0.052641615
000310 4f d1 0e bd ff 04 ec 3a 6a b3 17 3d 34 92 16 bd
       -0.03486758 0.001800686 0.037036337 -0.036760524
000320 3b 0f ef bc 9a ea 57 bc 00 79 84 b9 9c b5 6e bd
       -0.029182067 -0.013178492 -0.00025267154 -0.058278665
000330 62 4f 22 bd f6 74 b8 bc 4c 20 1e bd f6 7f 27 bd
       -0.039626487 -0.022516709 -0.03860502 -0.040893517
000340 39 31 08 3d c9 c9 2e 3d e0 f0 08 bd 61 a1 66 ba
       0.033250067 0.042672906 -0.03343284 -0.0008797851
000350 b2 c3 04 bd 0c 38 8d bd 27 3c 08 3c 67 25 f8 3c
       -0.032413192 -0.06895456 0.008315123 0.030291272
000360 97 bc 18 3d b0 b8 f9 3b 0a ec 0f bc a2 b8 22 bd
       0.03728923 0.0076208934 -0.008784303 -0.03972686
000370 d0 75 13 bd e4 63 f7 3c a7 10 03 bc 09 1f c4 bc
       -0.036001027 0.030198999 -0.007999576 -0.02394058
000380 72 22 88 bd 8d 91 59 b9 be 12 7d bb c7 38 38 3c
       -0.06647195 -0.00020748955 -0.0038615908 0.0112440055
000390 ee 9a 00 3d 67 71 33 3b 40 46 28 bc 6b 24 a1 bc
       0.031397752 0.0027380825 -0.010270655 -0.019670686
0003a0 19 76 20 bd 45 d2 36 bb 23 38 3d 3c c2 20 4b bd
       -0.039175127 -0.0027896327 0.011549029 -0.049591787
0003b0 da bc 2d bd 9d 2b b7 3c 2a a0 6d bd a0 5e 2e bd
       -0.04241643 0.022359664 -0.058014072 -0.04257071
0003c0 06 ba 75 bd 17 5a 5b bc ef 12 97 bd aa 06 6f 3d
       -0.05999186 -0.013388178 -0.07376658 0.058355965
0003d0 e7 3b 70 bc 0a 60 50 bd bf 31 3d 3d f2 4f 30 bc
       -0.014662719 -0.05087284 0.04619002 -0.010761248
0003e0 9a bb 18 3d e7 9f 2e 3d 11 c1 15 3d 78 18 4d 3c
       0.037288286 0.042632964 0.036561076 0.012518041
0003f0 6c 50 80 bc 77 9d 06 bd d6 47 d5 3c a2 9b 5a 3d
       -0.015663348 -0.032865014 0.02603523 0.05337108

mu_head.weight f4 [2, 256]
000000 09 5e ce ba b2 86 29 bd 5a 60 01 3b 24 a0 9f bc
       -0.0015744577 -0.04138822 0.0019741268 -0.01948554
000010 92 48 b2 bc 27 33 71 bd 57 dd 51 3d 09 3a 02 3d
       -0.02176312 -0.058886673 0.051236477 0.031793628
000020 18 6f 9c 3d 29 53 be bc 48 9e 17 bd a0 3c 76 bc
       0.07638377 -0.023233013 -0.037016183 -0.015029103
000030 68 25 69 bc 7c e2 7b bd 30 25 9a 3d 0c 9c 31 bd
       -0.01423011 -0.06149529 0.07526624 -0.04336171
000040 36 b8 54 bd 70 91 ac ba ce 77 ad bc f9 51 6c bb
       -0.05193349 -0.0013165902 -0.021175291 -0.0036059602
000050 58 b9 de 3c 23 72 74 3c ec e2 5c bc 40 80 a5 3b
       0.027187988 0.01491979 -0.013481837 0.005050689
000060 ac 7a fb 3b 6e 1a 4d bd 55 ac 16 bd 01 99 8f 3d
       0.0076745357 -0.050074033 -0.036785442 0.07011605
000070 8b 0e d6 3d 14 ff 27 bd 62 a2 80 bc ec 81 db 3c
       0.104519926 -0.041014746 -0.01570243 0.02679535
000080 dd e0 a8 3d 72 f4 8b bd 18 bf be 3c 00 b7 66 3d
       0.08246014 -0.068337336 0.02328448 0.056326866
000090 70 a4 a8 bb 17 21 81 bc e9 d5 79 3d 37 78 5e 3d
       -0.0051465556 -0.015762849 0.060995016 0.054313865
0000a0 4a 69 3d 3d 80 64 5f 3a 10 dd 47 bd 23 2a dd bb
       0.04624299 0.00085217506 -0.048794806 -0.006749408
0000b0 60 ac 25 bc d4 5d 6d 3a e2 4c 8f bd 29 f3 0d bc
       -0.010111898 0.0009054814 -0.06997086 -0.008663931
0000c0 16 4f 03 3d d9 a9 44 3d 10 e6 14 bc 3c 79 83 bd
       0.032057844 0.04801354 -0.009088054 -0.06419608
0000d0 6c 65 6b bd 6c 75 30 bd 8e cc db bb 28 14 20 3d
       -0.05746977 -0.043080732 -0.0067077344 0.039081722
0000e0 87 a4 af bc 55 44 8d 3a 54 56 62 3d 04 e5 e6 3c
       -0.021440757 0.0010777811 0.05525811 0.028185375
0000f0 9d 0f 67 3d 23 23 26 3d 7e 18 21 bd 09 1f 87 3c
       0.056411374 0.040560853 -0.03933 0.01649429
000100 2e ce 54 bd d4 4b b6 3c 28 25 98 3d 17 7a 8e bd
       -0.05195444 0.022252955 0.07428962 -0.069568805
000110 74 02 6d 3d 51 80 cd 3d e4 05 36 3d ce 8d 6a bd
       0.057863668 0.1003424 0.04443921 -0.05726414
000120 46 28 90 bd c4 cb 30 3d 9d 80 a3 3c 7e b6 f8 bc
       -0.070389315 0.043163076 0.019958789 -0.030360457
000130 98 09 4f 3c 62 36 70 bd da 99 29 bc a0 54 18 3c
       0.012636565 -0.058645613 -0.0103516225 0.00929752
000140 f4 70 7e bd 71 64 f9 3c be e1 c7 bc ba 06 17 bd
       -0.06211944 0.030443402 -0.024399634 -0.03687165
000150 9a fe 37 bd 77 2a 0b bd c1 ef 06 3d 7b 52 98 3c
       -0.04492054 -0.033976045 0.03294349 0.018594017
000160 53 21 a1 3d bc e1 a5 bd c8 f2 29 bd 56 d4 c8 bc
       0.07867684 -0.08099696 -0.0414913 -0.024515312
000170 0e 7a bb 3c 27 bf 2c 3d 32 37 5f 3d 14 b0 89 3d
       0.022885349 0.042174485 0.054495998 0.06723037
000180 5d b6 cd 3c 8f c9 db 3c 34 db fe bc 73 f6 45 bd
       0.025111372 0.026829509 -0.031110384 -0.048330735
000190 0e c0 f9 3c d1 a0 c0 3c cc 56 ba bd fd 60 05 bc
       0.030487087 0.023514183 -0.090985864 -0.0081408
0001a0 04 df 4f 3c f7 f0 a7 3d a1 a5 88 bd 37 0a 05 be
       0.012687448 0.08200257 -0.06672216 -0.12992178
0001b0 fa fe 46 3d 38 65 29 3d 41 a7 f2 3b e9 bb 65 3d
       0.04858301 0.041356295 0.007405192 0.05608741
0001c0 b2 f9 82 3d f1 f0 0e 3d ba 75 c7 3b 86 5a 3d 3d
       0.06395282 0.03489775 0.006087032 0.046228908
0001d0 cf 4c 8b bd 1b a8 6a bc 77 68 21 3d bd ab c3 3a
       -0.068017595 -0.014322306 0.039406266 0.0014928501
0001e0 4e 95 89 bd 13 06 f1 bc 1f 7c 32 3d 28 34 09 3d
       -0.06717931 -0.029421842 0.043575402 0.033497006
0001f0 3f d3 f9 bc 60 75 76 3d 23 ae 8c 3b 9a a8 3e 3d
       -0.030496238 0.06017053 0.0042932197 0.04654751
000200 26 0d 7c 3c 3c d8 72 3d 65 63 20 bd de 0f 90 3c
       0.015383994 0.05928825 -0.03915729 0.017585691
000210 47 71 25 3d 11 75 94 3d 58 7b 5b bd 30 6b 72 3d
       0.040391233 0.07248891 -0.053584427 0.059184253
000220 b1 67 31 bd 0e b4 95 bd 2b 78 34 bd 5a 98 6c bd
       -0.04331178 -0.07309733 -0.044059914 -0.05776248
000230 f6 8e 6f bc e2 08 f5 bb a4 e0 e2 3b d0 db e6 3b
       -0.014621487 -0.0074778656 0.006923752 0.0070452467
000240 68 52 d2 3d 68 ea 9a 3c 9c 22 04 bd c4 ee 48 3d
       0.10269624 0.018910602 -0.03225957 0.04905583
000250 6a 6b 02 bd 70 62 18 bd 40 96 31 3c 78 cc 25 3d
       -0.03184072 -0.037203252 0.010839045 0.0404782
000260 ed ca 64 bd 87 cc f3 bc f8 e8 6d 3d f1 21 3d 3d
       -0.055857588 -0.029760612 0.058083504 0.046174947
000270 e9 db 70 bc 05 f2 c4 3c e0 ea 62 bb a5 3c ee 3d
       -0.014700868 0.024041185 -0.003462486 0.11632661
000280 b2 6d 4a 3d 7e d5 95 bb f3 06 a6 bd 0f cf ff 3c
       0.04942102 -0.0045725694 -0.08106794 0.031226663
000290 d4 d5 76 bd ac 7c d3 bc 5a 19 69 bd 6e 03 7c bd
       -0.060262516 -0.025816284 -0.056908943 -0.06152671
0002a0 d7 36 92 3a 31 ae 85 bd 84 c8 ba bc 0e 94 6d bc
       0.001115526 -0.06527365 -0.022800691 -0.014500631
0002b0 5f fa 59 bd 2b 43 bb 3c 10 51 40 bc c1 fc 1e 3d
       -0.053217288 0.022859177 -0.011738077 0.038815264
0002c0 59 9d c0 bd 8a 8d 57 bd 2d a4 3d bd a2 66 2c 3c
       -0.09405012 -0.052625217 -0.04629915 0.010522516
0002d0 27 9f 27 bd 22 bd 54 3b 5c 8d 62 bd 70 1c c2 bc
       -0.040923264 0.0032461365 -0.055310592 -0.0236952
0002e0 6f 22 84 bd 08 e6 78 3c 84 eb bd 3c 81 e3 40 3d
       -0.0645188 0.0151915625 0.023183592 0.047091965
0002f0 2d 37 20 3d 06 fb 1d 3d 27 1b 30 3c 3c 4a 45 bd
       0.03911512 0.038569473 0.010748661 -0.0481665
000300 bc 11 01 3d 90 93 4e 3d d5 10 02 be ac 1a 07 bd
       0.031511053 0.050433695 -0.12701733 -0.03298442
000310 84 df 5d bd 12 ef 02 bd 08 24 5f bd 0a ac 6e 3d
       -0.05416824 -0.031966276 -0.05447772 0.058269538
000320 f2 7f 80 bd 68 44 f7 3a 24 fe 88 3c f0 e4 93 3c
       -0.06274404 0.0018864991 0.016722746 0.018053502
000330 72 11 01 bd 42 8d 53 bd 14 e6 8e 3d 12 f4 c6 3c
       -0.031510778 -0.051648386 0.06977478 0.024286304
000340 4e cc ad 3d e1 61 7f 3c 70 3f 15 bb ad 3c db 3c
       0.08486234 0.015587301 -0.0022773407 0.02676233
000350 f4 02 c6 3d 82 fd 90 bd 8e 87 1d bd 15 16 0c bd
       0.09668532 -0.07079603 -0.038459353 -0.034200747
000360 17 cf 14 bd d0 6c e7 bb ab 79 af bc 32 90 46 bd
       -0.03633031 -0.007062532 -0.02142032 -0.04847736
000370 d0 0a aa 3b 8a c5 8e bc 59 93 db bb 92 3a 24 bd
       0.005189277 -0.017428178 -0.006700915 -0.04009492
000380 a7 cb b0 bc e4 42 84 bd e3 35 e5 3c e7 46 33 bd
       -0.021581484 -0.06458071 0.027979797 -0.04376879
000390 44 fb 56 bd 04 bc 66 bd fd 3c 01 bc cb 1b 4b bd
       -0.05248572 -0.05633165 -0.007888076 -0.049587052
0003a0 94 40 20 3d 77 25 88 3d 90 6b e0 3c 74 ff 17 3d
       0.039124086 0.06647771 0.02739504 0.037108853
0003b0 26 a7 28 3d 54 8d df bc b0 d9 92 bb 04 b3 a1 bc
       0.04117503 -0.02728907 -0.004481517 -0.019738682
0003c0 68 68 c5 3c 3a c5 14 3d 61 7f 48 bd 45 92 e9 bd
       0.024097636 0.036320902 -0.048949603 -0.11404852
0003d0 1d 1c 56 bb c4 fc 0d bd 07 7c 59 bd ca 9f c9 3d
       -0.0032670565 -0.034664884 -0.053096797 0.098449305
0003e0 07 f2 a7 bc d5 40 7e 3d 31 6f 99 bd 9f a4 50 3d
       -0.02050115 0.062073547 -0.07491911 0.050938245
0003f0 14 8d b9 bc 90 50 70 3b b3 3a 1c bd 94 16 6b bd
       -0.02265028 0.0036669113 -0.038141917 -0.05739458

mu_head.bias f4 [2]
000000 a0 0e 60 bc 71 59 56 3d
       -0.013675362 0.05233139

model.0.weight f4 [256, 39]
000000 d2 42 44 be 88 c3 44 3e 4c 0b 8e bd e7 18 ad bc
       -0.19166115 0.19215214 -0.069357485 -0.021130038
000010 be aa c4 3d bc 4c dd bd eb bc 09 3d 1f 6c df 3d
       0.09602879 -0.108056515 0.03362743 0.10909294
000020 cc 4f d5 bd d4 f6 16 3e ad 66 8d 3d a4 f5 90 bd
       -0.10415611 0.14742595 0.069043495 -0.07078102
000030 68 30 47 3d a4 3f b0 bd 2f fd 68 bd 68 1e 08 3d
       0.04863015 -0.086058885 -0.05688208 0.033232123
000040 f1 d7 0a 3d 90 dd 89 3e 57 83 01 bc 3e 75 08 3e
       0.033897344 0.2692685 -0.007904849 0.13325974
000050 e7 e7 3a 3c 47 7d 1a be 04 b1 85 3d 46 76 ad 3d
       0.011407829 -0.15086852 0.06527904 0.084698245
000060 48 ef da bd 8c ce 1e 3d 54 e1 4f be 6d 7a b1 3c
       -0.106901705 0.038771197 -0.203008 0.021664822
000070 e6 08 7b bc 46 da b7 bc b5 79 ce 3d bf 32 d6 bd
       -0.015321946 -0.022442948 0.100818075 -0.10458898
000080 da 83 82 3c 9d 69 28 be f8 95 b6 bc 58 b6 57 bb
       0.015932012 -0.16446538 -0.022288308 -0.0032915082
000090 59 4a 21 3e ea 6c 7d bc 6a bb ac 3d 60 f2 98 bb
       0.15751018 -0.015467862 0.08434184 -0.004667565
0000a0 b8 66 94 bc b0 ae 0e 3e 90 0d ec bd d2 ee a2 bd
       -0.018115386 0.13933825 -0.11526024 -0.079557076
0000b0 5e 64 00 3e cd cb 0f be 88 dc 9b 3d 98 c9 bc bc
       0.12538287 -0.14042588 0.076104224 -0.023045346
0000c0 a4 f7 23 be d0 a5 eb 3c 98 09 d6 3d 00 fd cb bc
       -0.16012436 0.028765589 0.104510486 -0.024900913
0000d0 00 88 20 bc 8c 75 c4 3d e6 a8 a7 3d 00 e3 98 3d
       -0.00979805 0.09592733 0.08186512 0.07465172
0000e0 b2 f7 ba bd 70 72 c5 bc 38 f0 e2 3d 94 68 ca 3d
       -0.091292754 -0.02410242 0.11080974 0.09883228
0000f0 34 2d 19 3e e4 59 bb 3d fc 0a 1d be 5c af db 3d
       0.1495865 0.09148005 -0.15336221 0.107268065
000100 f7 7e 04 be 66 93 f8 bd fe f9 69 bd 4b 8d 1f be
       -0.12939058 -0.12137489 -0.057123177 -0.15581243
000110 84 2a 81 3d ee 1d 03 3e 2e 48 46 bd 9e f0 2a bd
       0.06306937 0.12804386 -0.04840868 -0.041733377
000120 30 25 cc bc a0 39 03 3c 40 85 02 bb 9c 2b df bd
       -0.024920076 0.008009344 -0.001991585 -0.1089699
000130 80 fb 1e be ed 02 0a be 26 a0 0b bb fe 03 fa 3c
       -0.15525627 -0.13477679 -0.0021305173 0.030519482
000140 ee ac 23 be e7 37 de bd 01 8a 8b 3d 8e 3e b9 3c
       -0.15983936 -0.10850506 0.068134315 0.022612836
000150 aa 17 ca 3e ef 2b 85 3d 40 12 59 3d 12 6e 32 3e
       0.3947118 0.0650252 0.05299592 0.17424801
000160 4b 14 90 3d c2 30 96 bd 7d 80 73 bd b6 c9 d8 3d
       0.070351206 -0.073335186 -0.059448708 0.10585348
000170 9c 89 08 bd 3f 0e 8c 3c 12 8a 02 bb 0f 12 d5 bd
       -0.03333436 0.017096637 -0.0019918722 -0.10403835
000180 4b 08 98 3d eb 4b 80 3e d6 95 a8 bd 8f 9f 0d be
       0.07423457 0.2505792 -0.08231704 -0.13830398
000190 02 85 bc 3d 6f 4e 21 3d 13 e6 0a be ee 8c 53 3d
       0.09205057 0.03938144 -0.13564329 0.051648073
0001a0 f4 17 ad bd 6f 01 8f 3d 44 60 c0 bd 58 c6 4d be
       -0.08451834 0.06982695 -0.09393361 -0.20095193
0001b0 bf 89 55 3c a6 52 e6 bc 83 9d 92 3e 1e 01 16 bc
       0.0130333295 -0.028115582 0.28635797 -0.00915554
0001c0 fe 86 c0 3d ee 33 b2 bd 94 34 42 be e5 bf a7 3d
       0.09400748 -0.08701311 -0.1896537 0.08190898
0001d0 e5 e2 4f bc e6 bd ca bd f1 3d b2 3c e0 e3 d2 bd
       -0.012688373 -0.098995015 0.021758052 -0.1029737
0001e0 90 86 82 bd d5 ca 81 3e 12 59 45 be 29 74 c6 3e
       -0.06373322 0.2535006 -0.19272259 0.38760498
0001f0 99 b9 63 3c 86 32 98 bc 0a 8e 49 3d fb f7 00 3b
       0.01389923 -0.018578779 0.049207725 0.0019679058
000200 0a bd b6 bd 98 ad 13 3e 9d c2 e6 bd ab 02 a6 3d
       -0.08922775 0.1442169 -0.11267588 0.081059776
000210 bb 7d 2b be 25 24 cf 3d 6e f9 6b 3e 85 7f b3 bd
       -0.16747181 0.10114316 0.23044369 -0.08764557
000220 f2 9b 9b 3e 1c cd c6 bc b3 2e 54 bc 0f a6 eb 3d
       0.30392414 -0.024267726 -0.012950587 0.115062825
000230 6f 4d d7 bd f9 77 17 be d2 be 6e bd b6 68 dd bc
       -0.10512816 -0.1479186 -0.05828745 -0.02702747
000240 2a d2 1a 3d cd bf 03 be e0 a1 6d 3d 62 9d 8e 3e
       0.037798084 -0.12866135 0.058015704 0.2785445
000250 8d 8b d0 bd 0c 97 a1 3e d2 da 78 bd 0b 67 11 bd
       -0.10182867 0.31560552 -0.06075556 -0.03549866
000260 53 e7 c1 3d 7f 07 fd bc 2a 7d 3a 3c ff 9f 14 3e
       0.0946795 -0.030887363 0.0113823805 0.14514159
000270 d1 93 ba 3d a0 08 06 be bf 88 c4 bd 92 bc 5f 3d
       0.09110225 -0.13089228 -0.09596395 0.054623194
000280 5a ee a1 bd 00 cc 8b bd d4 ff 2c 3e a5 e5 ce bd
       -0.0790679 -0.06826019 0.16894466 -0.10102395
000290 33 44 09 3d 06 ef 58 3d 1c 57 3a 3d 58 01 de 3c
       0.033512305 0.052962326 0.04549323 0.02710025
0002a0 fb aa c6 3d 91 bf a5 3d 7c 60 79 3d 24 ab bc bd
       0.09700581 0.08093179 0.06088303 -0.0921233
0002b0 0f 2b 2a 3e fd 8a d5 3d 02 5f 14 bc cc de 9c 3d
       0.16617988 0.104269005 -0.009055855 0.07659683
0002c0 56 b8 5c 3c 62 a2 91 3d a7 5b da 3d 63 05 52 3d
       0.0134716835 0.0711105 0.106620125 0.05127467
0002d0 f0 37 0e bd 75 7e 8c bd 8f 59 bc bd 7e a8 80 bc
       -0.034721315 -0.06860057 -0.091967694 -0.015705343
0002e0 0f a0 bc bc 60 25 4a bc 58 cf 8c 3c ed b6 0f be
       -0.02302554 -0.012338012 0.017188713 -0.14034624
0002f0 e5 e8 aa 3e 19 45 12 be 04 db 45 3c 7a 0c 4e bc
       0.3338081 -0.14284171 0.012076143 -0.012576217
000300 6a ba 85 3d 8a 8c 2f bc 29 7b 48 bd fa 11 b5 3d
       0.06529696 -0.0107146595 -0.04894558 0.088413194
000310 2c b2 04 be 18 5c 98 3d c8 0c fa bc 7e c3 14 be
       -0.12958592 0.074394405 -0.030523673 -0.145277
000320 60 43 ee 3b fa 66 8a 3d c8 9d 86 3c 82 83 ca bd
       0.0072712153 0.067579225 0.016432658 -0.098883644
000330 b7 b9 9b bd 1f 41 cd bd 7c 3c 5e 3d 80 8b 4b bb
       -0.07603782 -0.100221865 0.0542569 -0.003105849
000340 36 64 05 3e b8 ee bf 3d 40 4a 83 3d 68 20 fc 3c
       0.13026509 0.09371704 0.064106464 0.030777171
000350 52 70 6c bd d0 b6 e7 3d a8 f1 9f bc 1c 0c 8c 3d
       -0.057724304 0.113141656 -0.01952441 0.06838247
000360 80 73 16 3b 3e ee 6c bd 10 e2 f7 bc a9 a4 cf bd
       0.0022957027 -0.057844393 -0.030259162 -0.10138828
000370 34 aa e3 bd ae 63 08 3e ce a3 a9 bd 38 b4 a9 3c
       -0.11116448 0.13319275 -0.082831964 0.020715818
000380 bc 9d d6 3d 4a 68 16 be 50 ba 5a 3c 24 24 09 be
       0.10479304 -0.1468822 0.013350084 -0.13392693
000390 6a e1 23 bd e8 84 96 3d ee 44 ca bd ce a0 07 be
       -0.040009893 0.073495686 -0.098764285 -0.13244936
0003a0 e8 49 d4 bc b7 30 ac bd 2c 95 b3 bd 83 e4 98 bd
       -0.025914147 -0.08407729 -0.08768687 -0.0746546
0003b0 04 22 01 3e 4b 51 17 be 82 c6 7c 3c d3 ae 04 bd
       0.12610632 -0.14777105 0.015428187 -0.032393288
0003c0 68 0d 57 3d dc 9b d0 3d 24 e7 d6 3c fb cb e4 3d
       0.05250302 0.10185978 0.026233263 0.11171719
0003d0 aa c8 84 bd 2a d3 8c 3d e5 20 5a 3d 48 5a 4e 3b
       -0.06483586 0.06876214 0.053254027 0.0031486917
0003e0 c3 65 f8 bd cf 2b 27 be d0 b6 fe bc 46 3a c9 3d
       -0.121287845 -0.16325305 -0.031093031 0.09825568
0003f0 72 99 44 be 28 ec a9 bd a9 83 7b 3d 92 eb 30 3e
       -0.1919916 -0.08296996 0.061404858 0.17277363

model.0.bias f4 [256]
000000 2a 83 f8 bd 0c 30 3a bd 89 7b 03 3e 22 07 2b bd
       -0.121343926 -0.045455977 0.12840094 -0.04175485
000010 0c 32 aa 3d f6 d3 53 bd f7 e3 0c be 4a 78 23 be
       0.08310327 -0.051715814 -0.13758837 -0.15963855
000020 0c db f3 3d 44 71 0a bd ea 29 12 3d 2d 18 e5 3d
       0.11907014 -0.033799425 0.035684504 0.11186252
000030 96 52 03 3e ce 89 2a 3d 8a aa 1e 3e 73 a9 b5 bd
       0.12824473 0.041635327 0.15494743 -0.088702105
000040 7c db c1 bd 3a 45 1a 3e c6 40 87 3d 80 6c f4 3b
       -0.094656914 0.1506547 0.066041514 0.0074592233
000050 ce 75 96 3d 43 3a 83 bd e8 e5 af bd 9e ed 6b bd
       0.07346688 -0.06407597 -0.08588773 -0.057599656
000060 4c 49 35 3d 28 de 05 3e 1a 45 b6 bd ac 8c 20 3e
       0.044259354 0.13073027 -0.08899899 0.15678662
000070 68 e5 02 be 42 8d bf 3c 50 d3 dc 3c 18 a5 08 3e
       -0.12782824 0.023382787 0.02695623 0.13344228
000080 18 dd 91 3d 80 23 8b 3d 5e 45 1e bd d7 b9 4f 3c
       0.071222484 0.067938805 -0.038640372 0.012678585
000090 a1 ff c3 3d bc fa 9e 3d f8 4f 60 bc 28 c2 0d 3e
       0.09570242 0.077626675 -0.013690941 0.13843596
0000a0 5c 3a 3f bd 57 ed 15 be d1 df 7b bd 58 db 03 3e
       -0.046686515 -0.14641319 -0.061492745 0.12876642
0000b0 96 dc 94 bd 12 fd 5b bd 30 f0 8c 3c f0 93 07 be
       -0.07268636 -0.053708144 0.017204374 -0.13240027
0000c0 e9 98 db 3d 98 34 21 bc 48 6d 13 bb a3 f7 23 bd
       0.10722525 -0.0098391995 -0.0022495557 -0.040031087
0000d0 92 0f e1 3c 53 b3 03 3e 2a 8b 07 be 4a 11 df 3d
       0.027473245 0.12861376 -0.1323668 0.108919695
0000e0 98 93 a5 bc 3a 7f 18 be 59 0e 1e bd 65 e4 d1 bd
       -0.02021198 -0.14892283 -0.0385879 -0.10248641
0000f0 57 55 18 3e db d9 68 bd 77 fe 14 be f1 d5 15 be
       0.14876305 -0.05684839 -0.14550196 -0.14632393
000100 3c 8a cf 3d 43 63 fd bd d8 9f 9a bd 31 5c a0 3d
       0.10133788 -0.12372448 -0.07550019 0.07830084
000110 1e 93 2e be ec 81 5e bd 58 0a ae 3d f5 5c 9e 3d
       -0.17048308 -0.054323122 0.08498067 0.07732574
000120 28 37 0a be 5c 40 e8 bd 99 31 25 3e 08 3f 24 3d
       -0.13497603 -0.113404006 0.16132201 0.040099174
000130 9c c9 26 bd 6a f1 1e bd 94 e0 ec 3d e0 ce ef 3d
       -0.040719613 -0.03880445 0.115662724 0.1170938
000140 3d 3a 89 bd e2 69 97 3d 96 14 d0 bd 98 e2 11 3e
       -0.06700561 0.073932424 -0.101601765 0.14246595
000150 92 39 05 be 03 82 09 3e c7 63 04 be 5c b4 9f bd
       -0.13010243 0.13428502 -0.12928687 -0.07798073
000160 d3 c5 18 be c4 3b be bd 63 6c 05 be ee c3 e8 3d
       -0.14919214 -0.09288743 -0.13029628 0.113654956
000170 88 c2 1c 3d 40 3e 10 3e 68 70 1e be a7 2e a3 bc
       0.038271457 0.14086246 -0.15472567 -0.019919707
000180 cc 77 9e bd 6d d9 dd bd 47 ab 13 be e3 51 16 be
       -0.07737693 -0.10832486 -0.14420806 -0.14679675
000190 6d 23 d0 3d f0 6a f6 3d ea a5 8d 3d de 22 17 be
       0.10163007 0.120321155 0.06916411 -0.14759395
0001a0 c8 24 0e bd fa f3 3d 3d b0 ea d1 3d 4c c0 d7 bd
       -0.034703046 0.046375252 0.10249841 -0.105347246
0001b0 4a 4c d7 bc 0e cf e3 bd 08 af 53 3d 25 ec 07 3e
       -0.026281495 -0.11123477 0.051680595 0.13273676
0001c0 b8 83 0d 3d b4 6b 83 3d 30 8c 29 be 38 17 8c 3d
       0.034549445 0.06417027 -0.16557384 0.06840366
0001d0 d9 91 07 be 4c 7a 41 bd 35 aa 59 bd 2e ec 54 bd
       -0.1323923 -0.047235772 -0.053140838 -0.05198305
0001e0 08 9c 1c 3d ac 9b 07 be 52 4a 4b 3d 2f 3b ef bd
       0.03823474 -0.13242978 0.049631424 -0.1168121
0001f0 92 df 7e 3c 5e 3b 1c bd 08 78 03 be 42 f3 93 3d
       0.015556233 -0.038142554 -0.12838757 0.07224132
000200 ca 92 e7 b9 5b f1 84 3d 11 98 65 3d f4 19 c4 3d
       -0.0004416912 0.064913474 0.056053225 0.09575263
000210 b7 1d ad 3d 4b 9e 80 3c fa ed 17 3e 94 b5 e8 3d
       0.08452933 0.01570048 0.14836875 0.11362758
000220 14 43 19 3e 96 da 6e bc 74 cf 12 3e 7c d9 58 bd
       0.14966995 -0.014578482 0.1433695 -0.052941784
000230 d0 5d 8e bc 30 37 35 bc 2c 19 1a be 32 ae ec bd
       -0.017378718 -0.011060521 -0.15048665 -0.115566626
000240 a6 1a 08 3e b0 44 61 3c a2 d9 03 3e 3d 32 8c bd
       0.13291416 0.0137492865 0.12875989 -0.0684552
000250 7d fe 15 be c3 d7 2a 3e a9 87 e7 3d ee 24 02 3d
       -0.14647861 0.16683869 0.11305172 0.0317735
000260 3a 69 bd 3c 4f 0a 89 bd 0f 16 7f 3d c8 9f b1 3c
       0.023121465 -0.06691419 0.062276896 0.021682635
000270 0e a0 9d bd 26 b2 84 3d af 8a 81 3d fc cf b0 bb
       -0.07696544 0.064792916 0.0632528 -0.0053958874
000280 33 57 f2 3d 9e 3f bf 3d db 7a 23 be 7b 09 bc 3d
       0.11833038 0.09338306 -0.15964834 0.09181496
000290 a2 4d d1 bd 4b 79 90 3d e7 50 f4 3c 6c d2 12 3e
       -0.102198854 0.07054385 0.029823733 0.14338082
0002a0 76 42 ea 3d a8 ee c8 3c 5c 3a c0 bd b0 6e d2 bd
       0.11438458 0.024527863 -0.09386131 -0.10275018
0002b0 66 76 51 bd fc 45 e6 bd 2b 82 94 3d 32 07 52 3d
       -0.051138304 -0.11243817 0.0725139 0.051276393
0002c0 a5 60 ac bd 47 44 00 3d 3c 7a 4c bd 8a 9b bc bd
       -0.08416871 0.031315114 -0.04992126 -0.09209354
0002d0 48 bf 3e bd 17 af fd 3d ee b3 6c bd ee 5d fa bd
       -0.04656914 0.12386911 -0.05778878 -0.12224947
0002e0 21 1f af bd 30 5f 0f bc 61 28 0a be 90 89 00 3d
       -0.08550859 -0.008750722 -0.13491966 0.03138119
0002f0 bf fe bc bd 05 b7 a3 3d e0 9f da 3c 1a 53 10 3e
       -0.092282765 0.079938926 0.026687562 0.140942
000300 e3 ae 32 bd 2c 81 0d 3e 88 fa 51 3d a8 cf 0d bd
       -0.043623816 0.13818806 0.051264316 -0.034621865
000310 90 89 26 3e 47 2a 45 3d 21 de f2 3c 3c 7c c8 bd
       0.16263413 0.048136022 0.029646935 -0.09789321
000320 26 8d 28 3d 8e 43 14 3e 34 9d 1b 3d 2e f0 b6 3c
       0.041150235 0.14478895 0.037991717 0.022331323
000330 49 f9 96 bd 4e 51 92 3c f8 9a 20 3d 9c ff 9f 3c
       -0.07371766 0.017861035 0.03921029 0.019531064
000340 70 af 18 be ad 64 32 3d e9 02 4a 3d 04 c6 2e 3e
       -0.14910674 0.043553043 0.04931918 0.17067724
000350 52 0b 99 bd 9a 11 ac bd 1d 72 fd bd ce 13 88 3c
       -0.07472862 -0.08401795 -0.12375281 0.016611006
000360 8d 52 1f be f1 50 ed bd 31 d0 f6 3d 1e fb 0d be
       -0.15558834 -0.11587704 0.12051428 -0.13865325
000370 4b bd ff bd 2e 50 1e be 64 b3 b9 bd 31 22 06 3e
       -0.12487277 -0.15460274 -0.09067419 0.1309898
000380 5c 5d 20 bd 70 bf c4 bd 6e a5 f9 3c a6 e0 f2 bd
       -0.039151534 -0.09606826 0.03047439 -0.118592545
000390 e6 41 0d be 90 10 6b 3d 2b 58 36 3d 13 59 27 bd
       -0.1379467 0.057388842 0.044517677 -0.040856432
0003a0 2d 8e db bd 39 f6 ea 3c 04 e6 bf 3d 14 39 01 3e
       -0.10720477 0.028681861 0.09370044 0.1261943
0003b0 39 6b 06 3e 84 60 14 3e 2c 0c e4 bd c1 d5 fd bd
       0.1312684 0.14489943 -0.11135134 -0.12394286
0003c0 4f a3 04 be 4a 4f 9b bd 2a a8 8d 3d c0 ac a7 3d
       -0.12952922 -0.075834826 0.069168404 0.08187246
0003d0 88 1b e4 bd c4 ff 0d be 57 8b c7 bc 19 b9 e8 bd
       -0.11138064 -0.13867098 -0.024358435 -0.113634296
0003e0 e5 fe 19 be 9a ff 6d bd 47 5d f0 3d bf 9f aa 3d
       -0.15038641 -0.05810509 0.11736541 0.083312504
0003f0 bb e3 10 3e 52 94 02 be 18 84 03 3e 16 66 f8 bd
       0.14149372 -0.12751892 0.12843359 -0.12128846
